models/10-games-model.onnx (onnx, 37455 bytes, 4 tensors)

linear1.bias f4 [512]
0.28417608 0.13445702 -0.21633877 0.07682664 -0.1981499 0.0931044 -0.11122372 0.09074119
-0.090486854 -0.14065664 -0.07377852 -0.23847309 0.01701263 -0.055424806 0.072894104 -0.11223337
-0.23310612 0.008845667 0.16621728 -0.2176635 0.10996589 0.23125353 0.048901916 0.07130296
0.18354873 0.16677552 -0.21383582 0.18659328 0.2294342 0.075136274 0.23663038 -0.033029597
0.07280414 0.13370247 0.24484652 -0.14879085 -0.08866371 -0.05137414 -0.14759995 0.16269116
-0.21537474 0.25032413 -0.17450483 -0.14720888 -0.23207507 -0.17224246 -0.17597993 -0.2550571
-0.0411798 0.15416023 0.0010178586 0.23503207 0.08627438 -0.25018865 0.27535594 -0.10674178
-0.15212876 -0.17067902 -0.27165732 -0.12664782 0.08145384 -0.053694483 -0.044887602 -0.18090203
0.01446889 0.25743568 0.122206 0.09648587 -0.22674614 0.28054085 0.07793844 0.072312795
0.15994126 0.2572508 0.20163277 -0.058030322 0.1925579 0.0717065 -0.1626563 -0.23176454
-0.13589655 0.08187599 0.10757079 0.24101162 0.06620212 0.04416081 0.17183082 -0.2417779
0.18123457 -0.13972493 0.2234047 0.09411006 -0.019966977 -0.1484771 0.14811727 0.119236104
0.019502165 -0.14850338 0.25863212 0.08332114 0.1788053 -0.15979084 -0.09785764 0.18628548
-0.044798803 -0.18564208 0.23200244 0.1867525 0.053162616 0.23826104 0.053424537 -0.07329416
-0.11516319 -0.21896824 -0.08762003 0.13966008 0.066205665 -0.18634489 -0.22486115 -0.14170112
-0.087538615 0.14475466 0.097617194 0.18046775 0.19367056 0.08804722 -0.15644112 -0.13904974
-0.19420871 0.19621013 -0.11316534 0.20545849 -0.15700465 -0.20894973 -0.010018891 -0.21936171
0.013536909 0.04546269 -0.007523176 -0.13166277 -0.069232225 -0.22385976 0.16507402 -0.08149238
0.16227482 -0.08412581 -0.025508901 -0.2741057 0.009641884 0.18693702 0.10893946 0.017472168
-0.0023454272 0.205825 0.13950793 0.08272252 0.03454324 -0.048496213 -0.24574377 0.021433583
0.1806682 0.22439152 0.022827351 -0.25378433 -0.06811793 0.104463875 -0.08642064 -0.19667971
0.13785782 0.24202177 0.107642554 -0.1618335 -0.12823415 -0.23225866 -0.16147408 -0.15596674
0.040594023 0.00089713966 -0.15329666 0.20075455 -0.16111477 -0.030731896 0.13966466 -0.19599093
-0.14804621 0.0045228554 -0.15777025 -0.16242412 -0.17238052 0.046689533 -0.16188361 0.24210326
-0.0012329147 0.10462034 -0.06331521 -0.19136834 -0.026074782 -0.17294316 0.21469916 -0.18633018
0.13009389 0.21623355 0.130292 0.21798629 0.057827402 -0.15374342 0.16121545 -0.08779367
-0.2503299 0.053674247 -0.0276061 0.036944102 -0.13489561 -0.053096555 0.053948466 0.12255346
0.2594676 0.14267436 0.16183831 0.010267235 0.07293923 0.13787922 0.0128868995 0.08335102
-0.009520841 0.20047104 -0.24662247 0.018437913 -0.24590905 -0.10571615 -0.09099478 0.10644332
-0.27821177 -0.12868279 -0.07091033 0.24900675 -0.024159938 0.05760472 0.14026566 0.022054242
0.040815104 0.2152509 0.22027202 0.0024963622 0.021693468 -0.1700636 0.10699734 -0.20748284
-0.21046293 0.017624559 0.044107083 -0.14499184 0.0050422754 -0.10745257 0.025751026 0.064663194
00000000: 877f 913e 1aaf 093e e987 5dbe 4957 9d3d
00000010: cfe7 4abe 85ad be3d 43c9 e3bd 84d6 b93d
00000020: 2c51 b9bd 4b08 10be 3119 97bd 4a32 74be
00000030: 125e 8b3c 1f05 63bd 8149 953d 9cda e5bd
00000040: 5fb3 6ebe 6bed 103c dd34 2a3e 2ee3 5ebe
00000050: cc35 e13d bacd 6c3e 604d 483d 4907 923d
00000060: 33f4 3b3e 34c7 2a3e c7f7 5abe 4f12 3f3e
00000070: cdf0 6a3e 0ce1 993d 3c4f 723e 0b4a 07bd
00000080: 561a 953d 4de9 083e 0cb9 7a3e a15c 18be
00000090: 5295 b5bd b16d 52bd 7124 17be 8398 263e
000000a0: 328b 5cbe 7c2a 803e 65b1 32be edbd 16be
000000b0: 16a5 6dbe 5460 30be 1534 34be d896 82be
000000c0: 26ac 28bd 2edc 1d3e ab69 853a 3fac 703e
000000d0: 9fb0 b03d ba18 80be 74fb 8c3e 6f9b dabd
000000e0: a4c7 1bbe 7bc6 2ebe ab16 8bbe f7af 01be
000000f0: 45d1 a63d bfee 5bbd 10dc 37bd 623e 39be
00000100: ec0e 6d3c 9cce 833e 2447 fa3d 629a c53d
00000110: 2430 68be 0da3 8f3e 309e 9f3d bb18 943d
00000120: a4c7 233e 60b6 833e d278 4e3e 34b1 6dbd
00000130: e62d 453e dcda 923d 608f 26be af53 6dbe
00000140: 7728 0bbe 99ae a73d 134e dc3d c0cb 763e
00000150: fa94 873d f7e1 343d 6bf4 2f3e a094 77be
00000160: 8e95 393e 0d14 0fbe 34c4 643e c6bc c03d
00000170: c991 a3bc 620a 18be 0eac 173e 0f32 f43d
00000180: 01c3 9f3c 4511 18be 6e6b 843e 46a4 aa3d
00000190: bd18 373e 36a0 23be 9669 c8bd 9fc1 3e3e
000001a0: f37e 37bd f518 3ebe 0c92 6d3e 0c3c 3f3e
000001b0: 0bc1 593d b4fa 733e b0d3 5a3d 401b 96bd
000001c0: aeda ebbd 3639 60be 2172 b3bd 0d03 0f3e
000001d0: d696 873d 32d1 3ebe 0042 66be 191a 11be
000001e0: 7247 b3bd 913a 143e 86eb c73d 8acc 383e
000001f0: 9351 463e 1a52 b43d 1a32 20be 0e63 0ebe
00000200: a6de 46be 4feb 483e 3bc3 e7bd b663 523e
00000210: d4c5 20be ebf6 55be 4626 24bc 5ba0 60be
00000220: e9c9 5d3c 1637 3a3d f984 f6bb 9bd2 06be
00000230: a0c9 8dbd 7e3b 65be 2a09 293e 7ae5 a6bd
00000240: 5f2b 263e 274a acbd 0bf8 d0bc 9557 8cbe
00000250: fef8 1d3c 6b6c 3f3e a71b df3d cb21 8f3c
00000260: bdb5 19bb cac3 523e 2bdb 0e3e 6d6a a93d
00000270: 367d 0d3d f7a3 46bd 41a4 7bbe 7b95 af3c
00000280: 1601 393e e4c6 653e 6d00 bb3c 05f0 81be
00000290: 6a81 8bbd 28f1 d53d 4efd b0bd 6866 49be
000002a0: 9a2a 0d3e 8ed4 773e b373 dc3d aeb7 25be
000002b0: d04f 03be 37d5 6dbe 7659 25be bfb5 1fbe
000002c0: eb45 263d 062e 6b3a cdf9 1cbe 9a92 4d3e
000002d0: 45fb 24be 75c1 fbbc 4104 0f3e d9b1 48be
000002e0: 6d99 17be 7634 943b 868e 21be 8252 26be
000002f0: 8584 30be 863d 3f3d d1c4 25be ebe9 773e
00000300: c199 a1ba 3043 d63d 68ab 81bd 10f6 43be
00000310: c89a d5bc 0318 31be 19da 5b3e 57cd 3ebe
00000320: 5537 053e 546c 5d3e 446b 053e cc37 5f3e
00000330: 6ddc 6c3d ea6e 1dbe aa15 253e 2bcd b3bd
00000340: 3e2b 80be 87d9 5b3d 3026 e2bc b352 173d
00000350: 1322 0abe c67b 59bd 11f9 5c3d 4ffd fa3d
00000360: f0d8 843e 3a19 123e f1b8 253e e837 283c
00000370: 2a61 953d 3630 0d3e 9323 533c f1b3 aa3d
00000380: 4dfd 1bbc 4848 4d3e 9a8a 7cbe 1b0b 973c
00000390: 95cf 7bbe b581 d8bd 795b babd f5fe d93d
000003a0: c671 8ebe 6cc5 03be 6f39 91bd a0fb 7e3e
000003b0: 10eb c5bc edf2 6b3d cda1 0f3e 19ab b43c
000003c0: bd2d 273d bb6a 5c3e fd8e 613e 029a 233b
000003d0: 80b6 b13c 2725 2ebe 6c21 db3d 6276 54be
000003e0: 9883 57be 6161 903c a1a9 343d be78 14be
000003f0: ac39 a53b 1810 dcbd d1f3 d23c 236e 843d

linear2.bias f4 [3]
0.02336694 -0.03237783 -0.044619385
00000000: 066c bf3c 9e9e 04bd d1c2 36bd

onnx::MatMul_12 f4 [14, 512]
-0.060498387 -0.016457763 0.22107303 -0.17639828 -0.10409587 -0.2363219 0.050966125 -0.2564097
-0.046126768 0.28235817 0.07150056 -0.24287991 0.14735778 -0.16372925 0.14336935 0.08481164
-0.24561244 0.17200193 -0.2226018 0.21187809 0.26130456 -0.2109107 0.22344662 -0.014275937
0.121937715 -0.23804149 -0.007908071 0.013656807 0.16093957 -0.12499181 0.22273329 0.11839602
-0.0781383 0.1693324 -0.26332211 0.044464752 -0.12324809 -0.043271996 0.0035265987 0.03664304
0.276103 0.18832815 -0.14839827 0.13476568 0.042093586 0.13952713 0.15461448 0.18654811
-0.012807893 0.07966844 -0.04558679 0.08600464 -0.13273153 -0.11669899 -0.12691937 -0.0020823074
0.17104651 -0.18837754 -0.25458452 0.12302671 -0.23093446 -0.09556033 -0.12750338 0.06646032
0.09807044 -0.09176254 -0.14710118 -0.09675187 -0.2664456 -0.17947684 0.102873065 0.27251005
0.08474507 -0.18491599 -0.19655158 0.056170702 -0.22408922 0.017440155 0.20504071 -0.19595154
-0.2511558 -0.07268873 -0.11854647 0.21408553 0.080886364 0.04921705 -0.12471119 -0.2261086
-0.24875191 -0.25565335 -0.13271926 0.047510076 0.08746206 0.038787045 0.10913311 0.110030204
-0.14070748 -0.07037912 -0.18377721 0.008391389 0.022566248 0.18881492 0.21189938 0.043077935
-0.11247798 -0.12377281 -0.13205725 -0.2310527 -0.054283906 0.0037057225 -0.03835372 -0.14035308
-0.10915804 -0.08269191 -0.09928413 0.16133381 -0.27807808 0.1603506 -0.09963563 -0.05293282
0.22318685 0.08077156 -0.25531438 -0.07939408 0.16440128 0.23202781 -0.24833874 -0.060452137
0.12352834 0.09830556 0.1959155 0.08107194 -0.2245351 -0.20354594 0.08212525 0.097571105
0.16300756 -0.05193621 0.12865028 -0.0859308 0.07304998 -0.051828045 0.027735282 -0.096727185
-0.025160734 -0.2773983 -0.06959766 -0.05682127 -0.0051015317 0.10178382 0.08875554 -0.04342882
0.06346004 0.261646 -0.027536787 -0.19014275 0.07399393 -0.037467193 0.12404319 -0.15842423
0.19879715 0.03142832 0.020974763 0.1642204 0.0072628125 0.08181235 -0.04837433 0.20073867
-0.07754677 0.072758466 0.077602945 -0.123961285 -0.24742875 -0.22431967 0.002500972 -0.14576094
-0.27694565 0.22380705 -0.043248087 -0.057051864 0.13533287 -0.08141368 -0.24844474 -0.17854322
0.2277743 0.033442598 -0.2410773 -0.05111893 -0.11367924 0.007972149 0.15829018 -0.011457852
-0.22983186 -0.18624397 -0.26037443 -0.19024195 -0.13051657 0.111361496 0.17632753 -0.1877734
0.09043023 -0.057926085 0.08585624 -0.27573127 4.8092057e-05 -0.20640714 -0.15979186 -0.17178714
-0.0133449845 -0.12994325 0.20144263 0.14106363 -0.16937497 -0.0060108895 0.20407104 0.08006032
0.28137407 -0.1529985 0.23180096 -0.07690024 -0.14293945 -0.041740548 -0.026302284 0.12465616
-0.15608986 0.0854311 -0.25203037 -0.23809734 -0.19902599 -0.09895222 0.1395623 -0.0771457
0.018877245 -0.16445404 -0.26003554 0.020924134 0.021449883 -0.11943415 -0.21120714 0.20227857
0.022502728 -0.18604596 -0.24424204 -0.24176586 0.067382656 0.23907697 -0.08624309 -0.11361558
0.00010574341 -0.20828092 -0.09463692 -0.20083429 -0.09785875 -0.034353588 -0.037130702 -0.2280032
00000000: 28cd 77bd 6ed2 86bc f860 623e c0a1 34be
00000010: 3730 d5bd 5efe 71be dbc1 503d 2248 83be
00000020: 6cef 3cbd 4091 903e e36e 923d 83b5 78be
00000030: f5e4 163e a4a8 27be 6acf 123e bab1 ad3d
00000040: d481 7bbe 4621 303e baf1 63be 92f6 583e
00000050: b6c9 853e f9f8 57be 31cf 643e 9fe5 69bc
00000060: 7bba f93d 26c1 73be db90 01bc cdc0 5f3c
00000070: 58cd 243e b5fb ffbd 3214 643e 9d79 f23d
00000080: f906 a0bd 7965 2d3e 28d2 86be ac20 363d
00000090: 7f69 fcbd fa3d 31bd 821e 673b 0317 163d
000000a0: 5f5d 8d3e 18d9 403e b7f5 17be 0400 0a3e
000000b0: 536a 2c3d 33e0 0e3e 4253 1e3e 7806 3f3e
000000c0: 32d8 51bc 3529 a33d 37b9 3abd 3323 b03d
000000d0: c6ea 07be e1ff eebd 27f7 01be 5277 08bb
000000e0: d126 2f3e 0be6 40be e758 82be 6df5 fb3d
000000f0: 157a 6cbe 22b5 c3bd 3f90 02be 591c 883d
00000100: 28d9 c83d 00ee bbbd b1a1 16be d825 c6bd
00000110: 8f6b 88be c7c8 37be 1daf d23d 7086 8b3e
00000120: d38e ad3d 9e5a 3dbe d144 49be 4013 663d
00000130: a577 65be a8de 8e3c 31f6 513e 85a7 48be
00000140: 7e97 80be d4dd 94bd 7ec8 f2bd 3d39 5b3e
00000150: c0a7 a53d d197 493d 9568 ffbd 0389 67be
00000160: d2b8 7ebe ffe4 82be 8fe7 07be ed99 423d
00000170: 4f1f b33d 2adf 1e3d 2e81 df3d 8457 e13d
00000180: 9f15 10be ee22 90bd 1830 3cbe 097c 093c
00000190: dadc b83c b358 413e 27fc 583e 7d72 303d
000001a0: db5a e6bd 997c fdbd 043a 07be 1499 6cbe
000001b0: cd58 5ebd b5db 723b ca18 1dbd b8b8 0fbe
000001c0: 408e dfbd 605a a9bd 7a55 cbbd b134 253e
000001d0: 4060 8ebe f332 243e c40d ccbd 16d0 58bd
000001e0: 188b 643e 8f6b a53d 91b8 82be 5d99 a2bd
000001f0: cf58 283e b398 6d3e 834c 7ebe a99c 77bd
00000200: 6dfc fc3d 6d54 c93d 139e 483e 0c09 a63d
00000210: 87ec 65be 596e 50be 4831 a83d 5cd3 c73d
00000220: 74eb 263e 10bb 54bd e6bc 033e 7dfc afbd
00000230: 3a9b 953d a549 54bd 1a35 e33c e718 c6bd
00000240: e21d cebc 2607 8ebe 3889 8ebd 6cbd 68bd
00000250: c02a a7bb 0974 d03d 77c5 b53d 6be2 31bd
00000260: 56f7 813d 77f6 853e d494 e1bc c8b4 42be
00000270: 218a 973d 3377 19bd 5b0a fe3d f639 22be
00000280: 7b91 4b3e fbba 003d 44d3 ab3c 6429 283e
00000290: e3fc ed3b 3c8d a73d 2924 46bd 708e 4d3e
000002a0: d7d0 9ebd 6402 953d 4bee 9e3d 6adf fdbd
000002b0: f65d 7dbe 0eb4 65be 59e7 233b 5b42 15be
000002c0: d2cb 8dbe ad2d 653e e824 31bd 37af 69bd
000002d0: b394 0a3e 37bc a6bd 4c68 7ebe 09d4 36be
000002e0: ab3d 693e 1bfb 083d f8dc 76be 1562 51bd
000002f0: a9d0 e8bd 9e9d 023c d216 223e b7b9 3bbc
00000300: 0b59 6bbe bdb6 3ebe cc4f 85be c9ce 42be
00000310: 23a6 05be 7f11 e43d 348f 343e ac47 40be
00000320: 7c33 b93d e743 6dbd 65d5 af3d a62c 8dbe
00000330: 74b6 4938 655c 53be 7aa0 23be f8e8 2fbe
00000340: eca4 5abc d80f 05be fa46 4e3e fc72 103e
00000350: a270 2dbe fff6 c4bb 00f8 503e aaf6 a33d
00000360: 4310 903e a4ab 1cbe 3b5d 6d3e df7d 9dbd
00000370: b85e 12be 23f8 2abd e377 d7bc bb4b ff3d
00000380: 05d6 1fbe 80f6 ae3d 200a 81be cacf 73be
00000390: 78cd 4bbe 76a7 cabd 6be9 0e3e 91fe 9dbd
000003a0: 74a4 9a3c a466 28be 6123 85be 1769 ab3c
000003b0: aab7 af3c e499 f4bd af46 58be 1d22 4f3e
000003c0: a457 b83c d582 3ebe 961a 7abe 7891 77be
000003d0: ebff 893d 98d0 743e 38a0 b0bd 49af e8bd
000003e0: 90c2 dd38 9847 55be 00d1 c1bd 81a7 4dbe
000003f0: 2b6a c8bd 59b6 0cbd 5d16 18bd ac79 69be

onnx::MatMul_13 f4 [512, 3]
-0.023704585 -0.044190962 -0.018891916 -0.002995348 0.029502224 0.03271047 0.010603228 -0.043340445
0.006972806 0.027286215 0.01331918 -0.025579246 0.041061983 -0.040459204 -0.0028035208 0.030906906
0.015893092 -0.022256674 -0.04126629 -0.024293441 0.026430288 -0.045190506 -0.026385669 0.06182906
-0.01635354 -0.045879044 -0.04374412 -0.035741523 -0.048163157 -0.014312889 0.0314577 -0.008842436
-0.015591547 0.016235871 -0.017946757 0.038909238 -0.01579043 0.008092423 -0.024994733 -0.03565034
0.0058494206 0.024618205 0.03530296 -0.036764342 -0.012701983 -0.020304354 0.010728248 0.0027689065
-0.020845104 -0.025171062 -0.0053063617 0.018611606 -0.0371573 -0.0050984216 -0.009880793 -0.040137317
0.008871171 -0.058744498 0.004841339 -0.03074096 -0.027601056 0.007584091 0.0042924625 -0.0020803248
-0.019730968 -0.0034807723 -0.016430719 -0.020284642 -0.04940375 0.011729063 -0.028063497 -0.035788722
-0.01925858 0.022181468 0.01253697 -0.049269293 -0.0058818767 -0.02449712 -0.03965504 0.010622278
0.029763116 0.0066294186 -0.039169803 0.014773158 -0.017966507 -0.048106723 0.020119471 0.00828178
-0.043548737 0.012852129 0.007801884 -0.008067411 -0.05300117 -0.04020926 -0.02824205 0.00033049795
-0.02333261 0.028776048 -0.036506686 -0.009781804 -0.017141165 -0.052216735 -0.010555924 -0.040790066
-0.0053173415 -0.023283152 -0.031412754 -0.016356753 -0.057611655 -0.039604932 -0.002549864 0.030078616
-0.011274731 0.03562543 -0.008458492 0.0305061 -0.027202854 -0.048851 -0.027549632 0.03477415
-0.010619613 -0.03159817 -0.03891771 -0.037287552 0.0055889804 -0.007337709 0.046342343 0.026423134
-0.032462515 -0.046338115 -0.029790064 -0.054366935 0.008943017 0.032460533 0.008699811 -0.040732708
-0.022294432 -0.039705846 -0.045247853 -0.027853904 -0.04029853 0.032964554 0.02078761 0.0069318893
-0.002870357 0.008552678 -0.050743245 0.021015033 0.010362885 -0.05181559 0.014152495 -0.03899307
0.024960207 -0.060476404 -0.004342727 -0.0111385025 0.020498978 -0.05522339 -0.001587108 0.022074042
0.027482588 -0.022430792 -0.048345454 0.013446363 -0.022206848 0.028737785 0.014761043 0.013709721
0.00096144585 0.016106887 -0.0037242163 0.023588572 0.03194405 0.018106362 0.008931549 0.006717433
0.008501446 -0.047407996 -0.007145397 0.023571134 0.007244425 0.012623425 0.026039876 -0.01911723
-0.0437073 0.009254262 -0.04732185 -0.046233766 0.037551336 -0.03930176 -0.024006007 0.032073114
-0.04950401 0.023712184 -0.050298814 0.0067935563 -0.015734533 -0.0141391605 -0.015298337 -0.026447091
-0.013039878 0.002136662 -0.037526127 -0.039038163 -0.053163312 0.021607805 0.0019820528 -0.0071122833
-0.05377758 -0.002671634 -0.037483905 -0.0024925456 -0.0128090475 -0.052372377 0.00047573395 -0.025887536
0.017860828 -0.028188812 -0.035599407 -0.029324235 -0.047990482 -0.038749006 0.00305617 0.028721543
0.00017517892 -0.014113869 -0.017454116 -0.017647263 -0.021025166 0.03262106 -0.02196233 -0.029780718
-0.03950377 -0.05043458 0.0018893869 0.029383855 0.012472368 0.0210333 0.012808717 0.017634477
-0.0074187806 -0.024566581 0.020311868 -0.03423479 0.018040845 -0.029674593 0.014722018 -0.028026614
-0.044748243 -0.037893347 -0.04684287 0.0108095575 -0.0560435 -0.024263978 -0.030327283 -0.014162448
00000000: 1e30 c2bc 9501 35bd 38c3 9abc 9a4d 44bb
00000010: a6ae f13c 6afb 053d 29b9 2d3c c085 31bd
00000020: 237c e43b 5787 df3c b138 5a3c 918b d1bc
00000030: 9c30 283d 8db8 25bd 46bb 37bb 7b30 fd3c
00000040: 3b32 823c a153 b6bc d706 29bd 0a03 c7bc
00000050: 5584 d83c ae19 39bd c226 d8bc 7840 7d3d
00000060: dcf7 85bc aaeb 3bbd 092d 33bd b465 12bd
00000070: bb46 45bd 9c80 6abc cad9 003d dddf 10bc
00000080: b073 7fbc 1701 853c 1405 93bc 4b5f 1f3d
00000090: ef5a 81bc 1596 043c c1c1 ccbc 1706 12bd
000000a0: 7fac bf3b 1eac c93c d699 103d 3596 16bd
000000b0: fa1b 50bc 5155 a6bc 89c5 2f3c 8b76 353b
000000c0: 5ac3 aabc 8b33 cebc fde0 adbb 5e77 983c
000000d0: 4132 18bd a910 a7bb 0de3 21bc 0767 24bd
000000e0: 6358 113c 129e 70bd 18a4 9e3b 77d4 fbbc
000000f0: 9c1b e2bc f783 f83b c9a7 8c3b 0f56 08bb
00000100: d7a2 a1bc ab1d 64bb b799 86bc fa2b a6bc
00000110: 965b 4abd 412b 403c 6be5 e5bc 3297 12bd
00000120: 2bc4 9dbc e9b5 b53c dd67 4d3c 99ce 49bd
00000130: c2bc c0bb 2fae c8bc 536d 22bd 1009 2e3c
00000140: c7d1 f33c 983b d93b 8470 20bd 1e0b 723c
00000150: 7f2e 93bc 8e0b 45bd 97d1 a43c 4eb0 073c
00000160: 2960 32bd bc91 523c f2a6 ff3b 2d2d 04bc
00000170: c117 59bd 77b2 24bd df5b e7bc af46 ad39
00000180: 0824 bfbc bfbb eb3c 0988 15bd dc43 20bc
00000190: a16b 8cbc 37e1 55bd c1f2 2cbc 7c13 27bd
000001a0: 183d aebb 4fbc bebc a9aa 00bd 99fe 85bc
000001b0: 33fa 6bbd c838 22bd 9e1b 27bb 6e67 f63c
000001c0: a6b9 38bc f9eb 113d 7d95 0abc eee7 f93c
000001d0: 85d8 debc fc17 48bd c4af e1bc 576f 0e3d
000001e0: e3fd 2dbc 156d 01bd 2d68 1fbd d5ba 18bd
000001f0: c423 b73b 2a71 f0bb 78d1 3d3d 5475 d83c
00000200: 6af7 04bd 09cd 3dbd 4b0a f4bc ddaf 5ebd
00000210: bb85 123c 56f5 043d a789 0e3c 57d7 26bd
00000220: d0a2 b6bc 99a2 22bd d055 39bd df2d e4bc
00000230: 1210 25bd d705 073d c74a aa3c e724 e33b
00000240: 991c 3cbb 8820 0c3c 26d8 4fbd b827 ac3c
00000250: 17c9 293c 963c 54bd dedf 673c 33b7 1fbd
00000260: 5979 cc3c 1bb6 77bd 6f4d 8ebb 447e 36bc
00000270: 79ed a73c ec31 62bd 8206 d0ba 9fd4 b43c
00000280: 2a23 e13c c8c0 b7bc e205 46bd 224e 5c3c
00000290: 23eb b5bc 816b eb3c 4dd8 713c bd9e 603c
000002a0: 8a09 7c3a 97f2 833c fb11 74bb d23c c13c
000002b0: c4d7 023d cb53 943c a255 123c ea1d dc3b
000002c0: a649 0b3c e32e 42bd ef23 eabb 4018 c13c
000002d0: a462 ed3b 7bd2 4e3c 9451 d53c bd9b 9cbc
000002e0: 6d06 33bd 309f 173c 8ed4 41bd 9e5f 3dbd
000002f0: 6ecf 193d e2fa 20bd 3fa8 c4bc 195f 033d
00000300: b7c4 4abd 0e40 c23c 2106 4ebd 7b9c de3b
00000310: b5e5 80bc f0a7 67bc e0a5 7abc 92a7 d8bc
00000320: 36a5 55bc 3d07 0c3b ffb4 19bd 7be6 1fbd
00000330: c6c1 59bd da02 b13c 54e5 013b 280e e9bb
00000340: e145 5cbd 9516 2fbb b988 19bd fa59 23bb
00000350: 0add 51bc 6b84 56bd ee6b f939 1912 d4bc
00000360: df50 923c 39ec e6bc afd0 11bd 6139 f0bc
00000370: ab91 44bd 47b7 1ebd 064a 483b 7149 eb3c
00000380: 3cb0 3739 db3d 67bc effb 8ebc fe90 90bc
00000390: f83c acbc a99d 053d 58ea b3bc b1f6 f3bc
000003a0: b5ce 21bd 7d94 4ebd 4ea5 f73a 69b6 f03c
000003b0: e758 4c3c 074e ac3c a7db 513c 2e76 903c
000003c0: 3e19 f3bb db3f c9bc 1365 a63c c739 0cbd
000003d0: 65ca 933c 2218 f3bc 9e34 713c 1298 e5bc
000003e0: ef49 37bd 0e36 1bbd 4fde 3fbd 921a 313c
000003f0: de8d 65bd 40c5 c6bc ec70 f8bc 9d09 68bc
