models/100-games-model.onnx (onnx, 37455 bytes, 4 tensors)

linear1.bias f4 [512]
000000 8e 80 c4 bd 08 b7 67 3e f0 fd e3 bd 62 7f 6d 3e
       -0.09594832 0.22628415 -0.11132419 0.23193124
000010 21 10 a3 be e9 d7 91 3d 13 32 17 bc 3e cd 4a be
       -0.31848243 0.0712126 -0.009228247 -0.19804856
000020 d5 cc 66 3c f0 4f a3 be ee c2 09 3e 09 a1 71 be
       0.014086922 -0.31896925 0.13453266 -0.23596586
000030 48 24 72 be f5 1a 8b be 85 85 99 3e 2f 86 4a be
       -0.23646653 -0.27169004 0.2998468 -0.1977775
000040 5f b3 6e be 2c c4 19 bd bb 28 ef 3e 14 a7 dd bd
       -0.23310612 -0.0375406 0.46710762 -0.10822883
000050 ca 77 d3 3d db 39 75 3e 0e 7d 91 be ff 22 80 3d
       0.10325582 0.23947851 -0.28415722 0.06256675
000060 5f 5b 1a be 3b cd a9 3e 08 e2 c5 be f0 51 a5 bd
       -0.15073918 0.3316439 -0.3864901 -0.08072269
000070 8a bf fb bd 46 e9 22 bd 45 06 8c 3e 0d 2f 6f be
       -0.122923926 -0.039773248 0.27348533 -0.23357792
000080 70 27 2e be 90 d9 62 be b4 a9 d3 bd bc 4f 9f bd
       -0.17007232 -0.22153306 -0.10335103 -0.0777888
000090 8d 53 c1 be 64 b5 1c be 43 58 c4 be 19 d6 ba 3e
       -0.37759057 -0.1530357 -0.38348588 0.3649147
0000a0 26 69 20 3d e1 dd f4 bd dd 54 84 be f5 bf 84 be
       0.039162777 -0.119563825 -0.25845996 -0.25927702
0000b0 f9 c3 c8 bd e3 00 ac be 9d 6c 3e bd 86 2f a8 be
       -0.09803004 -0.33594427 -0.0464903 -0.32848758
0000c0 7f dd e5 3c 21 7d a4 3e 9e e7 63 bc c6 50 51 be
       0.02805972 0.32126716 -0.013910202 -0.20440969
0000d0 f4 14 0a bf 46 e1 f6 be d5 85 33 be 0b 1e 37 be
       -0.5393822 -0.48218745 -0.17531522 -0.17882554
0000e0 8f 03 88 be d2 bc c3 be bf bd 94 be d7 c0 27 3e
       -0.26565215 -0.38229996 -0.29051015 0.16382156
0000f0 98 f2 eb 3a 3f c9 d2 be 89 c1 a5 be 16 40 e0 be
       0.0018001376 -0.41169164 -0.32374218 -0.43798894
000100 8d 69 93 3e 32 2e a1 bd 02 ef 87 bd 50 a1 e8 bd
       0.28791466 -0.07870139 -0.06637384 -0.11358893
000110 ff aa a6 be 6d d2 da 3d e3 6a 28 be a6 a1 25 3e
       -0.32552335 0.10684667 -0.16447024 0.16174945
000120 65 d9 ab bc 60 70 50 be e4 d8 f7 bd fc d1 ac 3d
       -0.020977685 -0.20355368 -0.121019155 0.08438489
000130 87 0a ab be b3 7e ea be c4 a4 2f bd cd f1 84 be
       -0.3340647 -0.4579979 -0.042881742 -0.2596573
000140 9d c8 07 bf 39 da 47 be 6f c6 72 3e d8 dd 53 be
       -0.53040487 -0.19516839 0.23708509 -0.20690095
000150 dd 6e 25 3e 70 e7 88 3d 14 a3 32 be a0 94 77 be
       0.16155572 0.06684768 -0.17445022 -0.2417779
000160 2d c6 d8 3b 89 26 9a be d3 ca c2 3e d0 9f 90 be
       0.0066154213 -0.30107525 0.38045368 -0.28246927
000170 45 30 85 3d 14 74 42 3d 73 15 b6 3d 93 41 e3 bd
       0.06503347 0.047473982 0.0889081 -0.11096492
000180 bc 7b 1d bc 52 fa 9e 3e 13 eb ef 3d 31 29 cc bc
       -0.00961202 0.31050354 0.11714759 -0.024921985
000190 41 ee 7a be 64 00 a3 bc e5 8d 9c bd 2f 30 23 be
       -0.24504949 -0.019897647 -0.07644252 -0.1593635
0001a0 8a bb 9f bd 21 99 9e be 8b 31 56 3f 24 d9 10 3f
       -0.07799442 -0.30976203 0.83669347 0.5658133
0001b0 62 d2 89 bd de 3d e6 3e 8b c3 92 be 22 d3 c2 be
       -0.067295805 0.44969076 -0.28664812 -0.38051707
0001c0 4d 70 22 bc 35 cf 5c be 2b 46 4a be d9 8d e5 bd
       -0.00991447 -0.21563418 -0.1975333 -0.11208696
0001d0 24 3a 6d bd 32 9c bf be 23 f4 cf 3c ad 9f f1 be
       -0.057916775 -0.37423855 0.025384968 -0.47192135
0001e0 19 fd a6 be 5b f1 61 3d b4 ab 92 be 84 10 92 bd
       -0.32614973 0.055161815 -0.28646624 -0.07132056
0001f0 b3 a9 67 3e 13 df 4f 3e c3 dc 94 be 14 23 2b 3d
       0.22623329 0.2029994 -0.29074678 0.0417815
000200 4a b4 8f be d4 88 51 3e 40 a6 e2 bd f9 6f 03 3e
       -0.28067237 0.20462352 -0.11066866 0.12835683
000210 ed ec c1 3d 02 32 94 3d 14 68 80 3e 4b ef 0b bf
       0.09469018 0.07236101 0.25079405 -0.5466201
000220 9e 0f 13 be a6 d4 3f 3e c8 eb 7b be 8c 53 2b be
       -0.14361426 0.18733463 -0.24601662 -0.1673109
000230 3e 78 10 be 2a b2 86 bd 49 02 3b bd fd f9 65 3e
       -0.14108369 -0.06576951 -0.045656476 0.22458644
000240 d1 8e ad 3d 15 e5 78 bd fb 53 bd 3e 14 2e b5 be
       0.08474506 -0.060765345 0.36978135 -0.35386717
000250 2c 58 50 be 3f 96 89 3e 38 b5 9e 3e 9c 8c 49 be
       -0.20346135 0.2687244 0.30997634 -0.19682544
000260 6f 2a a7 be 1d 89 83 bd 00 9d 8e be 67 d7 52 be
       -0.32649562 -0.06422637 -0.27854156 -0.20589982
000270 3e e5 9d be 9a 95 81 be b6 ac 3a be 4c ca 47 be
       -0.3083896 -0.2530945 -0.18229946 -0.19510764
000280 0e 2b 66 bd 61 37 9a bc 4b c8 37 be 4b 60 b3 be
       -0.056193404 -0.018825235 -0.179475 -0.35034403
000290 26 dc a6 3e cf 72 b3 be 30 23 15 be cd 35 8e be
       0.32589835 -0.3504853 -0.14564204 -0.27775422
0002a0 5b 5c 14 be cc bb 8d be 16 c7 ef 3d 3e 3a a6 bd
       -0.14488356 -0.2768234 0.117078945 -0.081165776
0002b0 89 94 31 3e c4 6f e5 be 80 43 76 be d6 c2 3f bc
       0.17341818 -0.44811833 -0.24049187 -0.011704167
0002c0 a7 52 a7 3e 77 2b 95 bd 55 9a 78 be 43 e5 da bd
       0.32680246 -0.07283681 -0.24277623 -0.106882595
0002d0 9b 2e b0 bd 90 d1 26 3d c5 53 81 bb 6e 29 b4 be
       -0.08602639 0.040727198 -0.0039467537 -0.35187858
0002e0 a2 f4 05 bf c0 33 45 be 62 f2 af 3d 6e 5d fd 3c
       -0.52326405 -0.19258022 0.08591153 0.03092834
0002f0 17 8a 5a be 01 c7 24 be 75 92 ca bc 84 b2 64 3e
       -0.2134174 -0.16091539 -0.02472804 0.22333723
000300 bf 82 e2 bc f1 38 12 bd b5 4f ad be 3f 00 25 be
       -0.027650235 -0.035698835 -0.33849874 -0.16113375
000310 8c 00 4a be 56 9d bb be f7 c2 96 be 1c e2 c2 bc
       -0.19726771 -0.36643475 -0.2944562 -0.023789458
000320 78 2d a7 bd e2 c0 3e be f9 15 4b 3e 31 1f cf bd
       -0.08162969 -0.18628266 0.198326 -0.10113371
000330 a6 a4 e3 be 0c b7 e0 be 13 8c 35 be cc f2 1b be
       -0.44461554 -0.43889654 -0.17729215 -0.15229338
000340 73 88 a8 be 02 52 c0 bd 34 83 8d be 82 d3 9b be
       -0.32916602 -0.09390642 -0.27639163 -0.30434805
000350 db 8d 23 bc 7e 77 0d 3e 57 db d5 bd 7c f2 24 be
       -0.009982551 0.13815114 -0.104422264 -0.16108125
000360 63 00 45 bd 79 07 10 bd 68 27 20 be 08 24 84 bc
       -0.048096072 -0.035163376 -0.15640032 -0.016130462
000370 f7 b1 0b bf 8b 7d 7a be d2 07 09 bd 7b ae d7 bd
       -0.5456843 -0.24461953 -0.033454724 -0.105313264
000380 c3 d9 df be 67 68 64 be 56 57 71 bd de f5 e5 3d
       -0.43720827 -0.22305451 -0.05892118 0.11228536
000390 0d 62 ed 3d bf c7 48 be e6 2d ae be 10 5b ce be
       0.11590967 -0.19607447 -0.34019393 -0.4030385
0003a0 87 35 44 3d 25 0b 6a be ec 45 75 be 48 3c ca 3d
       0.04790261 -0.22855814 -0.23952454 0.09874779
0003b0 1b 46 ae 3c 2d 15 72 3e 64 76 e9 3e 3f e7 01 3e
       0.021273663 0.2364089 0.45598137 0.1268587
0003c0 55 95 75 be 26 bb 44 3e 70 8f 35 3e ae 3d 17 bd
       -0.23982747 0.19212016 0.17730498 -0.036924057
0003d0 5e 39 0a 3d 97 3e 12 bd cd 51 c9 3e 7c 37 8a be
       0.033746116 -0.03570422 0.39320222 -0.26995456
0003e0 26 8b ac be c8 9f 94 be 86 6f 7b be 5f fd c9 be
       -0.33699912 -0.29028153 -0.24554262 -0.3945112
0003f0 b9 1d 82 3d cc 75 99 be 6e 14 cc 3c 57 b3 16 be
       0.063533254 -0.29972684 0.024912085 -0.1471685

linear2.bias f4 [3]
000000 6a 2c b7 bd 91 bd 2f bd 90 61 cd bd
       -0.08944018 -0.042905394 -0.10028374

onnx::MatMul_12 f4 [14, 512]
000000 ec 5c 4c be 32 60 1a 3e 6b 20 cb 3e ba d1 80 bd
       -0.19957322 0.15075758 0.3967317 -0.06290002
000010 3a 22 93 3b 26 1a d9 3d 3a e3 b2 bc f3 87 6f bf
       0.004490164 0.106006905 -0.021836866 -0.9356682
000020 d2 76 7c 3e ea d2 6a 3e 64 dc 68 3e c9 67 d0 bd
       0.24654701 0.2293202 0.22740322 -0.101760454
000030 e5 56 0b be ed 1b 1a bf 5c 44 c1 3e fe 4f 8b be
       -0.13607366 -0.6019886 0.37747467 -0.27209467
000040 d4 81 7b be 51 4a 8d 3e 7e 56 df bd c8 ff 69 bd
       -0.24561244 0.2759576 -0.10905169 -0.057128698
000050 ce db 74 bc 53 78 80 3d 3e 09 64 3e fe 4f 8b 3e
       -0.014944984 0.0627295 0.2226915 0.27209467
000060 b3 da 7b 3d 7c 53 0e 3e 14 56 1c bf cb f8 99 bc
       0.061487865 0.13899034 -0.61068845 -0.018795392
000070 20 0b da 3d 57 35 f9 bd 05 c3 c4 bd e3 a0 3e be
       0.10646653 -0.12168377 -0.096075095 -0.18616061
000080 c1 86 86 3c 41 21 4c be aa d7 cc be f8 ab 6a 3e
       0.016421678 -0.1993456 -0.4000829 0.22917163
000090 f7 e5 7c be 3f 26 73 be f8 56 bb be 44 15 61 be
       -0.246971 -0.23745058 -0.3658979 -0.21980768
0000a0 81 64 10 3f 15 40 9a bd 7e 45 87 3e 80 37 d5 3e
       0.56403357 -0.07531754 0.26420206 0.41643906
0000b0 f3 c1 3a be f5 09 6d 3a fb 3a 5e bd 8a fa 1e 3e
       -0.18238048 0.0009042316 -0.054255467 0.1552526
0000c0 6f ed 1d be f9 46 bb be 83 9b 9f 3d f4 08 f3 bd
       -0.15422605 -0.36577585 0.077933334 -0.11866942
0000d0 0d a0 ed bd 64 31 81 bd e1 f9 13 bf a0 8c ee bc
       -0.11602793 -0.06308249 -0.5780316 -0.02911979
0000e0 47 ae 06 3e de 43 46 bf e7 58 82 be ec c2 fe bc
       0.13152419 -0.7744731 -0.25458452 -0.031098805
0000f0 e8 a5 94 3c 95 b3 95 3e 6d 4f 0f bf 14 08 0f bf
       0.018145517 0.29238573 -0.5598057 -0.558717
000100 a9 b8 69 3e 38 7e a1 bd 7b 81 8d be 2d 1c b9 be
       0.22824349 -0.078854024 -0.27637848 -0.3615431
000110 53 16 93 bd 39 09 a2 3e 71 3e 7c 3c a3 be af be
       -0.071819924 0.3164766 0.015395747 -0.34325132
000120 f0 31 89 3e 01 89 1c bf ea 93 cd be 43 1a 60 be
       0.26795912 -0.6114655 -0.40151912 -0.21885018
000130 06 cb 00 bf 84 ea e1 bd 7d 3c 66 be c7 c4 28 bf
       -0.5030979 -0.110310584 -0.22484012 -0.6592526
000140 c2 1e 58 bf 7a a3 84 be 79 4a 19 bc 97 d5 11 3e
       -0.8442193 -0.25905973 -0.009356135 0.14241634
000150 51 9f 3c 3e a7 60 3a 3e c0 32 b0 be 03 89 67 be
       0.1842015 0.18200932 -0.3441372 -0.2261086
000160 41 d4 a2 be e7 a4 bd be 0a 30 64 3e f9 54 03 be
       -0.31802562 -0.37039873 0.2228395 -0.12825383
000170 40 38 18 3f a9 a1 e2 3e 45 2f 4b 3e 7f 8c cf 3e
       0.5946083 0.44263962 0.1984225 0.40536878
000180 4f da e0 be cd 31 48 bd c2 3e ae be 83 bc 51 be
       -0.43916556 -0.04887562 -0.34032255 -0.20482068
000190 ca 27 7f be 28 89 9b 3e eb e1 08 3f 20 c5 8f be
       -0.24917522 0.3037808 0.53469723 -0.28080082
0001a0 b3 9f 81 bf b4 42 eb be b8 a6 69 be 6e a5 c6 bc
       -1.0126861 -0.45949328 -0.22817504 -0.024248805
0001b0 44 91 83 bd 76 5b 59 3e 14 76 a4 be b0 35 01 bf
       -0.064241916 0.21226296 -0.32121336 -0.50472546
0001c0 f2 c8 f6 bd 51 dd a4 be 8d 1d 67 3e 84 9c 84 bd
       -0.12050046 -0.322001 0.22569866 -0.064751655
0001d0 5a 0b 61 bd d2 13 fc 3d a2 04 ee bd 4c 4e fc be
       -0.054942466 0.12308468 -0.116219774 -0.49278486
0001e0 d0 46 0a be 5d c2 05 bc 7d e6 29 bf d7 9d 5e 3e
       -0.13503575 -0.008164016 -0.6636732 0.21739899
0001f0 1f 86 9c 3e 5a 49 52 3f f1 86 c8 be 1a 05 f3 bc
       0.30571076 0.82143176 -0.39165452 -0.029665519
000200 03 07 a3 bc d8 40 e5 3d 89 3d 29 3f b5 1e 2d 3e
       -0.019900804 0.111940086 0.6610952 0.16906245
000210 94 0a a9 bd 8d 9c 7c be 85 a4 6c bd fb 48 f8 be
       -0.08253971 -0.24669094 -0.057774086 -0.4849318
000220 f4 19 de be 9f 2d 11 be c9 e6 f0 bd 92 4d 86 bc
       -0.43379176 -0.1417756 -0.11762769 -0.01639441
000230 e7 ae da bd 0e 1f cf bd 34 9e 64 3c 14 6d a3 be
       -0.10677891 -0.10113345 0.013953734 -0.31919158
000240 b5 bc bb 3e f7 c9 cf 3e 87 43 82 3e 2a d1 5e bd
       0.3666741 0.40583774 0.25442144 -0.054398693
000250 4c 18 a6 bc b4 e6 0a 3d 09 e4 8f bd 7c 1e 98 be
       -0.020275258 0.033911422 -0.07025916 -0.29710758
000260 88 bf b0 3d d6 97 25 3e 61 5a 22 be 64 75 e0 be
       0.08630282 0.16171202 -0.1585479 -0.43839562
000270 b1 43 28 3e 01 27 36 bc 8d 52 68 3d 89 6a 78 be
       0.16432072 -0.011117698 0.05671935 -0.2425939
000280 ee 86 14 bc 90 07 e5 3d 4c 44 98 be 08 91 fc bd
       -0.009065373 0.11183083 -0.29739606 -0.1233235
000290 46 59 93 3e 69 05 98 be 3a cb 54 bd 65 26 06 3e
       0.28779048 -0.29691628 -0.051951624 0.13100584
0002a0 35 ca 6c bf c0 4b 95 bd 58 a2 0e 3d df 59 22 bd
       -0.92496043 -0.07289839 0.03482279 -0.03963649
0002b0 6f f0 c1 3d e8 dc 2d be 3e 09 5f 3c 19 01 60 be
       0.09469687 -0.169788 0.013613043 -0.21875419
0002c0 4d 01 e3 bd 4a 03 a2 bc bc 7e 17 bd 84 0b 17 bd
       -0.110842325 -0.019776959 -0.036986098 -0.036876217
0002d0 66 99 ea be 1e 6e 53 3d 6c b9 a4 3e 62 cb 93 bd
       -0.4582016 0.051618688 0.32172716 -0.072165266
0002e0 9b 1f 34 bd cc 23 b3 3e 3b 90 67 3e 8c d6 99 3c
       -0.043975454 0.34988248 0.22613613 0.018779062
0002f0 a9 d0 e8 bd 4f ab 2c be 3e b2 94 bd 70 52 21 be
       -0.11367924 -0.16862224 -0.072605595 -0.15754104
000300 91 a9 9d bd 28 6f 94 be a5 41 ab be 15 e1 16 bf
       -0.07698358 -0.28991055 -0.3344852 -0.589372
000310 b4 f0 ab be 00 5b e1 3d 17 b7 08 be 98 47 93 3d
       -0.3358208 0.11003685 -0.13351093 0.0719139
000320 94 72 69 bd f5 7d a2 3d 2e 17 44 3e e9 3d ba be
       -0.056994036 0.07934181 0.19149467 -0.3637536
000330 d1 e3 44 be 2d f8 f0 be 34 66 33 be b6 a2 f8 be
       -0.1922753 -0.47064343 -0.17519456 -0.4856164
000340 0f 39 c1 3d 1b 61 88 bd cf 70 aa 3d e5 e3 c1 bb
       0.09434711 -0.066591464 0.08322298 -0.0059170597
000350 da 3e 3e 3e 76 a9 c2 3e 77 08 06 3e 75 ef 0c be
       0.18578663 0.38019913 0.13089167 -0.1376322
000360 44 ef d7 3e eb 93 90 3e 2c e3 2a 3d d4 ed e6 3e
       0.42174733 0.28237852 0.041720554 0.45103323
000370 77 59 05 bf b1 b4 be be e1 c6 f9 be d3 af f8 bd
       -0.5208964 -0.37247232 -0.48784545 -0.12142911
000380 93 6c 02 be 7c 70 9b 3e 4c c8 2a be 95 fc 31 3c
       -0.1273673 0.30359256 -0.1667797 0.010863443
000390 61 53 a8 3d 73 d6 17 be 94 ff 90 bd 3d 25 74 be
       0.08219028 -0.148279 -0.07079998 -0.2384233
0003a0 dd 94 27 be 2a 98 13 bf d2 58 d4 37 0d b0 ff 3d
       -0.1636538 -0.5765406 2.531373e-05 0.12484751
0003b0 db c7 20 3e ec 46 07 be bb 1a 52 be 4c 4d c4 3e
       0.15701239 -0.13210648 -0.2051801 0.38340223
0003c0 c5 55 31 be b2 81 13 3e 5d 50 f6 bd db a3 6a 3c
       -0.17317875 0.14404944 -0.12027047 0.014321293
0003d0 e8 f1 1c bc 15 7d 96 3e 89 50 0a 3c 49 af e8 bd
       -0.009579159 0.29392305 0.008442053 -0.11361558
0003e0 23 06 85 be 00 bb 0c 3d f0 d8 8e be a2 8f d0 be
       -0.25981244 0.034358025 -0.27899885 -0.40734583
0003f0 f6 0e 7f be f9 1a a4 bc cf d3 b5 be ae 35 bc be
       -0.24908051 -0.020032393 -0.3551316 -0.36759704

onnx::MatMul_13 f4 [512, 3]
000000 af 7e 1a 3d ef 1e e7 bd 31 49 14 bd 94 74 1a 3f
       0.03771847 -0.11285197 -0.036202613 0.60334134
000010 bb b9 8a 3e d8 a7 da bd 2e 79 b4 3d fa 3f 36 bf
       0.27094826 -0.10676545 0.08812176 -0.7119137
000020 1a 65 47 bd ff 0a 41 be 83 b8 95 3e e2 ef 16 be
       -0.048680402 -0.18851851 0.29242334 -0.14739946
000030 4f 3e a0 3e 43 4a 3e be e8 54 70 3c a0 56 16 3e
       0.31297538 -0.18583016 0.014668681 0.14681482
000040 9a 7e 4a 3d 02 46 01 bd 22 58 a7 3e 35 df 1c 3f
       0.049437143 -0.031560905 0.32684427 0.61278087
000050 e0 be ec 3e 35 2c 0e be d2 4c 1a bd 0d f0 de 3d
       0.46239376 -0.13884051 -0.037670918 0.1088563
000060 18 42 0c 3e 86 01 d3 3d 0f 0d 9c 3c 34 f3 55 bc
       0.13697088 0.10303025 0.019049196 -0.013058472
000070 8f b7 73 bd 1a 02 44 bd 05 de 49 3e 58 90 9e 3e
       -0.059501227 -0.047853567 0.197136 0.309695
000080 fa 38 fa b9 91 92 80 3e fb b8 36 be 7b e6 71 be
       -0.00047726167 0.2511182 -0.17844002 -0.23623078
000090 6c 28 d6 3c aa 0e 20 3d 3d 2b 90 3c 23 2d 02 bf
       0.026142322 0.039076485 0.017598743 -0.50850123
0000a0 34 5b c9 3d 7a 1d ae 3d 15 37 29 3e e6 11 e0 be
       0.09831849 0.08501716 0.16524918 -0.43763655
0000b0 f1 10 74 be 40 33 46 be ac f1 47 3e 1d 9a 26 bd
       -0.23834588 -0.19355488 0.19525784 -0.040674318
0000c0 5a c3 aa bc 8b 33 ce bc fd e0 ad bb 97 2b c8 3d
       -0.020845104 -0.025171062 -0.0053063617 0.09773939
0000d0 4b 0d ee bd 6f 1f 3b be 03 c2 76 3e f5 f4 da 3e
       -0.11623629 -0.1827371 0.24097447 0.42765012
0000e0 2b a5 4b be 86 80 31 3d 09 8c d4 3d d9 22 69 3d
       -0.19887225 0.04333546 0.10378272 0.056918
0000f0 e1 4f dc 3e db 32 ef be d9 a3 0d 3e 0f 4c d7 3d
       0.43029693 -0.46718487 0.13832034 0.10512554
000100 ac 5e 92 bd a3 f2 ea bd 5a b4 c6 3b b0 32 67 bc
       -0.071469635 -0.114720605 0.00606398 -0.014111206
000110 6f b0 3e bd 9b d9 04 3d 63 d3 7b be 8b e7 6b be
       -0.04655498 0.032434087 -0.24592356 -0.23037545
000120 61 09 0f bb 86 49 f5 bc 24 5e 45 bd 7c e1 b4 3d
       -0.0021825659 -0.029942285 -0.048185483 0.0883207
000130 ef a9 a1 3d 8e 1d bc 3d 8a 9f 68 be b5 f6 3e 3d
       0.078937404 0.091853246 -0.2271711 0.046621997
000140 3c ae f1 bb 8f 64 fe 37 14 b5 8a bd 9b 00 a1 bc
       -0.0073755067 3.0325986e-05 -0.06772819 -0.019653609
000150 50 5b 0d bd 0c 00 ee bc 8a 18 d4 3c 64 3d 3e bf
       -0.03451091 -0.029052757 0.025890607 -0.74312425
000160 9f 0b 31 bd 22 eb 2c bf 2a e6 0e bf d8 00 54 bf
       -0.043223973 -0.67546284 -0.5581995 -0.8281379
000170 51 73 b8 3e bd 38 b1 bc d7 ee 97 bd 15 c5 d0 bb
       0.3602548 -0.0216335 -0.07418602 -0.0063711503
000180 57 30 7c bd e4 2e 64 bd 1a 82 a9 bd 5e 75 3d bc
       -0.061569538 -0.05570878 -0.08276768 -0.011563627
000190 30 f5 24 bd 28 ae e5 3b 1f 49 11 bb 6e 3a 73 3b
       -0.04027289 0.0070092864 -0.0022168828 0.0037113684
0001a0 be 74 b1 bb c1 a9 5f be 83 d8 1a be ec 58 46 be
       -0.005415528 -0.218421 -0.15121655 -0.19369859
0001b0 79 a1 86 bc 66 93 d9 bb 60 df f1 bc b7 3a a5 bd
       -0.016434418 -0.0066398857 -0.029525459 -0.080678396
0001c0 e1 9c 72 be d9 9c ed bb 50 91 2c be 62 84 4c 3c
       -0.23692657 -0.0072513637 -0.16852307 0.012482734
0001d0 c4 95 15 3d 08 8c cd 3d 2b 6b 7c 3a 2d 45 85 3e
       0.03651978 0.100364745 0.00096290064 0.2602934
0001e0 9a 5d 83 bd 3d 4d 04 3e f0 42 66 be 8c c9 87 bd
       -0.064143375 0.12920089 -0.22486472 -0.06630239
0001f0 68 48 d8 bb 03 40 12 bd 4e 1d 54 3e 09 75 63 bd
       -0.0066004284 -0.035705578 0.20714304 -0.055531535
000200 45 d5 81 bd 27 37 a8 be 0f d5 7f be 82 8c 8a be
       -0.06339506 -0.32854578 -0.24983619 -0.27060324
000210 13 b9 ca 3d 13 59 4a 3d bc 64 6e 3e 90 1f 01 bd
       0.09898581 0.049401354 0.23280615 -0.03152424
000220 58 bc 01 bd 46 fd 39 3d 9d dc a6 3e ec c5 15 bf
       -0.03167376 0.045407556 0.3259019 -0.5850513
000230 fd ad e6 3e a6 29 0d 3f fb 77 2b bf 2c 21 00 bf
       0.45054618 0.55141675 -0.6697995 -0.50050616
000240 19 bf 96 3d 6d 1c d4 3e 52 70 d0 3d e4 1c 34 3e
       0.07360668 0.41427937 0.101776734 0.17589146
000250 1d 01 cf 3e 9e 49 cf 3c 45 c7 6c 3e 74 e6 6d be
       0.40430537 0.025303658 0.2312289 -0.23232442
000260 5d 09 9a 3e a8 53 3f 3c 82 2a 77 bd 69 68 86 bc
       0.3008527 0.01167766 -0.060343273 -0.016407209
000270 45 8e 93 be a5 52 93 be 98 1b 36 3c d0 09 4c 3c
       -0.2881948 -0.2877399 0.011114977 0.012453511
000280 ca e8 90 3d 22 c2 13 3b bc f4 8a ba 8b 4b 9c bd
       0.07075651 0.0022546132 -0.0010601501 -0.07631596
000290 ce fc dd bd 2a cf b9 3d 0e d8 f5 bc ac e3 37 3d
       -0.10839234 0.090727165 -0.03001025 0.04489486
0002a0 1b 18 f3 3c ba 78 6e 3c 59 11 41 bd 6c 94 b6 be
       0.02967458 0.014555151 -0.047135685 -0.35660112
0002b0 08 3d 68 bd db fa 92 3d ed 2b 08 be ef 4c d0 3b
       -0.05669883 0.07176753 -0.13298006 0.0063568274
0002c0 44 57 43 bd 21 48 70 be e6 b3 da 3d d1 61 85 bd
       -0.047690645 -0.23465015 0.10678844 -0.065127976
0002d0 e7 e2 2a 3f d3 85 0e bf f3 2b 4f 3e 8b e7 a4 3e
       0.66752476 -0.5567295 0.20231609 0.32207903
0002e0 f5 65 fa 3e c9 24 25 3e 9f a7 5f 3c 8e ae 11 bc
       0.48905912 0.16127314 0.013650804 -0.008891715
0002f0 6f b6 4a 3d 19 6a 5b bc 00 98 84 bd 92 3f 0b bd
       0.04949039 -0.013391995 -0.06474304 -0.033996172
000300 e0 76 bf be 17 67 17 3e ef 28 51 be ec 8a 73 3e
       -0.37395382 0.1478542 -0.20425771 0.23783463
000310 2d 68 3a bb 78 04 ac 3e cb 4f e3 3c c3 6e 10 3e
       -0.0028443441 0.3359716 0.02774801 0.14104752
000320 67 05 2f 3e c8 e6 85 be 67 47 fb bd f7 60 19 be
       0.17091905 -0.26152635 -0.12269478 -0.14978395
000330 e6 78 71 3d 24 ef 12 3e 90 b4 2c 3d fc a7 ad 3d
       0.05895319 0.14349037 0.042164385 0.08479306
000340 f0 a3 7a bd 75 9a a2 be ba 09 3c 3a 36 ed dd bc
       -0.0611915 -0.31758466 0.000717308 -0.02709065
000350 20 11 57 bc 3b 27 8f bd 54 a8 e6 bc b6 25 21 3e
       -0.0131266415 -0.069899045 -0.028156437 0.15737042
000360 27 5c 5c 3e 4a 32 71 bd b8 8b 0f be ce 24 56 be
       0.21519528 -0.05888585 -0.14018142 -0.20912477
000370 c4 5d b2 3c e9 93 8c bc 03 01 35 3d 39 ae ab bc
       0.021773227 -0.017160373 0.044190418 -0.0209571
000380 d0 8c 2f bc 4e a2 d3 3c 85 0a 71 3e 91 a9 d8 bd
       -0.010714725 0.025834229 0.23539169 -0.10579217
000390 1d 61 df bc fa 14 88 bb c8 a0 0d bd 77 ad 1a bc
       -0.027267987 -0.004152891 -0.03457716 -0.009440771
0003a0 91 96 39 3d 6a d1 9f bc b9 17 e1 3d ce f4 9f 39
       0.045309607 -0.019509036 0.10990853 0.00030509237
0003b0 6f 41 08 3e 1b fb a5 be 73 c9 65 be cc 15 7b bd
       0.13306211 -0.3241814 -0.22440128 -0.061300084
0003c0 ef 11 1e bd 99 31 0a be b0 18 5f 3c 51 76 86 bc
       -0.03859132 -0.13495483 0.013616726 -0.01641384
0003d0 89 a9 97 bc fb 60 9c bb f0 eb 43 3e 26 91 39 3b
       -0.018513458 -0.004772303 0.19132972 0.0028315275
0003e0 16 a5 3e be e3 c0 02 bc 5b 9e 9d 3d 37 c1 9e bd
       -0.18617663 -0.007980558 0.076962195 -0.077516966
0003f0 22 c7 ac be 34 67 8f 3e 27 82 38 be 08 83 e7 bd
       -0.33745676 0.28008425 -0.18018399 -0.11304289
