models/200-games-model.onnx (onnx, 37455 bytes, 4 tensors)

linear1.bias f4 [512]
0	0xbdc4808e	-0.09594832
1	0x3db37e23	0.08764293
2	0xbe213bf3	-0.15745525
3	0x3f15f1e0	0.58572197
4	0xbf2d241a	-0.6763321
5	0xbf02ac67	-0.51044315
6	0x3dcbf94f	0.09959661
7	0xbe8c0027	-0.27343866
8	0xbeab6c28	-0.33480954
9	0xbea34ff0	-0.31896925
10	0xbe947685	-0.28996673
11	0xbf3765a6	-0.7163948
12	0xbe722448	-0.23646653
13	0xbf4451c3	-0.7668726
14	0x3eca5eb7	0.39525387
15	0x3bc7c04a	0.0060959207
16	0xbe6eb35f	-0.23310612
17	0xbcc9873c	-0.024600618
18	0x3f2ef3f7	0.6834101
19	0xbf068fac	-0.52562976
20	0x3d00f94a	0.03148774
21	0xbb91fe8e	-0.004455394
22	0xbe917d0e	-0.28415722
23	0xbe53eabb	-0.20695011
24	0xbe1a5b5f	-0.15073918
25	0x3d0f6548	0.0350087
26	0xbeed1ccb	-0.4631103
27	0xbda551f0	-0.08072269
28	0xbdfbbf8a	-0.122923926
29	0xbe8e2b32	-0.2776733
30	0x3ea4fae2	0.32222658
31	0xbe6f2f0d	-0.23357792
32	0xbed63e98	-0.4184463
33	0xbe91cfe9	-0.28478935
34	0xbdd3a9b4	-0.10335103
35	0xbedcf897	-0.4315841
36	0xbec1538d	-0.37759057
37	0xbe1cb564	-0.1530357
38	0xbec45843	-0.38348588
39	0x3df66af8	0.120321214
40	0xbed70804	-0.41998303
41	0xbdf4dde1	-0.119563825
42	0xbf0a96ca	-0.54136336
43	0xbe9cf2df	-0.30654046
44	0xbe178f85	-0.14800842
45	0xbeb120a6	-0.3459522
46	0xbe2d751a	-0.16939202
47	0xbea53fa4	-0.32275116
48	0x3ec7ac30	0.38998556
49	0x3ded2ccb	0.11580809
50	0x3df570a4	0.11984375
51	0xbe5150c6	-0.20440969
52	0xbee9721a	-0.45594865
53	0xbef6e146	-0.48218745
54	0xbe972ea8	-0.29527783
55	0xbe371e0b	-0.17882554
56	0xbe88038f	-0.26565215
57	0xbee9232f	-0.45534655
58	0xbe94bdbf	-0.29051015
59	0xbe6c73a3	-0.23090987
60	0xbe95d52a	-0.29264194
61	0xbf3ce5ff	-0.73788446
62	0xbea5c189	-0.32374218
63	0xbf8cb795	-1.0993525
64	0x3e730087	0.2373067
65	0xbe81d1c7	-0.2535536
66	0xbd3b138a	-0.04567293
67	0xbe95fded	-0.29295292
68	0xbea6aaff	-0.32552335
69	0xbea0e932	-0.31427914
70	0xbe286ae3	-0.16447024
71	0xbdb8d892	-0.090256825
72	0xbf07a8f3	-0.5299217
73	0xbe507060	-0.20355368
74	0xbe1bd3f6	-0.15217575
75	0x3e498eaa	0.19683328
76	0xbeab0a87	-0.3340647
77	0xbeea7eb3	-0.4579979
78	0xbea1fe75	-0.31639448
79	0xbeda42a1	-0.4262896
80	0xbf46c0d6	-0.77637994
81	0xbe47da39	-0.19516839
82	0xbd0c8b46	-0.03431251
83	0xbe53ddd8	-0.20690095
84	0x3ec7c402	0.3901673
85	0xbe5e00e1	-0.21680023
86	0xbe32a314	-0.17445022
87	0xbe7794a0	-0.2417779
88	0x3bd8c62d	0.0066154213
89	0xbe9a2689	-0.30107525
90	0x3eaaee19	0.3338478
91	0xbe909fd0	-0.28246927
92	0xbce3d605	-0.027812013
93	0xbeefd1a7	-0.4683964
94	0x3b0431b8	0.0020171236
95	0xbe996242	-0.29957777
96	0xbe1f573a	-0.15560618
97	0x3ea6e000	0.32592773
98	0x3defeb13	0.11714759
99	0xbccc2931	-0.024921985
100	0xbe7aee41	-0.24504949
101	0xbed06756	-0.4070384
102	0x3d737904	0.05944158
103	0xbe23302f	-0.1593635
104	0xbea5740b	-0.32315096
105	0xbe9e9921	-0.30976203
106	0x3f2c078f	0.67199033
107	0x3f2cff74	0.6757729
108	0xbd89d262	-0.067295805
109	0xbe0ad59e	-0.13558051
110	0xbeed25ba	-0.46317846
111	0xbf134f3d	-0.57542783
112	0x3dfee4a6	0.12445955
113	0xbef1b2e0	-0.47206783
114	0xbecc2eda	-0.39879495
115	0xbde58dd9	-0.11208696
116	0xbdcc34e6	-0.09971027
117	0xbebf9c32	-0.37423855
118	0x3d31f355	0.04344495
119	0xbef10141	-0.4707127
120	0xbea6fd19	-0.32614973
121	0xbc489e33	-0.012244749
122	0xbe92abb4	-0.28646624
123	0xbd921084	-0.07132056
124	0x3e5bad34	0.2145279
125	0x3ecad1c0	0.39613152
126	0xbec5480b	-0.38531527
127	0x3e075266	0.13215026
128	0xbe8fb44a	-0.28067237
129	0xbd3578f7	-0.044304814
130	0xbda07501	-0.07834817
131	0xbd3a202d	-0.04544084
132	0xbde5e9e9	-0.112262554
133	0xbefc3917	-0.49262306
134	0x3d7fb87d	0.0624318
135	0xbf7f1622	-0.99643147
136	0xbeb4c0af	-0.35303256
137	0x3f0fc9ac	0.561671
138	0xbe7bebc8	-0.24601662
139	0xbeac2ed6	-0.33629483
140	0xbeae01dd	-0.33985797
141	0x3e568665	0.20949705
142	0xbd3b0249	-0.045656476
143	0xbc9adc53	-0.018903887
144	0xbe071d20	-0.13194704
145	0xbf0d4a15	-0.55191165
146	0x3f0b3091	0.5437098
147	0xbf1babca	-0.60809004
148	0xbea6f660	-0.32609844
149	0x3e6965aa	0.22792688
150	0x3f2289e4	0.63491654
151	0xbe498c9c	-0.19682544
152	0xbf2a01c5	-0.6640895
153	0xbd83891d	-0.06422637
154	0xbe8e9d00	-0.27854156
155	0xbe52d767	-0.20589982
156	0xbe9de53e	-0.3083896
157	0xbe81959a	-0.2530945
158	0xbf2f100d	-0.68383867
159	0xbe47ca4c	-0.19510764
160	0xbd662b0e	-0.056193404
161	0xbc9a3761	-0.018825235
162	0xbe37c84b	-0.179475
163	0xbeb3604b	-0.35034403
164	0x3f46803f	0.7753944
165	0xbeb372cf	-0.3504853
166	0xbef5deed	-0.4802164
167	0xbe8e35cd	-0.27775422
168	0xbef0862b	-0.46977362
169	0xbe8dbbcc	-0.2768234
170	0xbdb62215	-0.088932194
171	0xbdd890c1	-0.105744846
172	0x3c624364	0.0138100125
173	0xbf546f25	-0.82982093
174	0xbe7f43fe	-0.2492828
175	0xbca1df76	-0.019759875
176	0x3e935a4f	0.28779837
177	0xbde95452	-0.11393036
178	0xbe4db4e6	-0.20088539
179	0xbddae543	-0.106882595
180	0xbe88626b	-0.26637587
181	0xbe908857	-0.2822902
182	0xbf63efeb	-0.8903796
183	0xbeb4296e	-0.35187858
184	0xbf05f4a2	-0.52326405
185	0xbe7819f5	-0.24228652
186	0x3d83abfa	0.06429286
187	0x3be26a32	0.006909632
188	0xbe5a8a17	-0.2134174
189	0xbe24c701	-0.16091539
190	0xbe371018	-0.17877233
191	0x3e5a5ccc	0.21324462
192	0xbdcce7c8	-0.10005146
193	0xbd1238f1	-0.035698835
194	0xbead4fb5	-0.33849874
195	0xbe9c1c73	-0.30490455
196	0xbe4a008c	-0.19726771
197	0xbebb9d56	-0.36643475
198	0xbe1c38d6	-0.15256056
199	0xbeb194b5	-0.34683767
200	0xbe909763	-0.282405
201	0xbe3ec0e2	-0.18628266
202	0x3f1df1ad	0.6169689
203	0xbdcf1f31	-0.10113371
204	0xbee3a4a6	-0.44461554
205	0xbef0d640	-0.4703846
206	0xbf194757	-0.5987448
207	0xbe6745a2	-0.22585157
208	0xbee2eb0c	-0.44319952
209	0xbe87b8da	-0.26508218
210	0xbe8d8334	-0.27639163
211	0xbe9bd382	-0.30434805
212	0xbec3bd98	-0.38230586
213	0xbeb20734	-0.3477112
214	0xbe2ee09c	-0.17077869
215	0xbe24f27c	-0.16108125
216	0xbebd01b6	-0.36915368
217	0xbe66a261	-0.2252288
218	0xbe202768	-0.15640032
219	0xbebe1c76	-0.3713109
220	0xbf0bb1f7	-0.5456843
221	0xbe7a7d8b	-0.24461953
222	0xbe85f9c9	-0.26167133
223	0xbdd7ae7b	-0.105313264
224	0xbedfd9c3	-0.43720827
225	0xbf01539e	-0.50518215
226	0xbe2e969a	-0.17049637
227	0xbdf9971a	-0.121870235
228	0x3e732d95	0.23747857
229	0xbe48c7bf	-0.19607447
230	0xbeae2de6	-0.34019393
231	0xbece5b10	-0.4030385
232	0x3d6f04d3	0.05835421
233	0xbe9ebde4	-0.3100425
234	0xbe7545ec	-0.23952454
235	0x3d3385f1	0.04382891
236	0xbdec404d	-0.11535702
237	0x3e927b7c	0.28609836
238	0xbc8fa838	-0.017536268
239	0xbed42150	-0.41431665
240	0xbe759555	-0.23982747
241	0xbe877fdd	-0.2646474
242	0xbd84e993	-0.06489863
243	0xbf092857	-0.5357718
244	0x3dd3f22e	0.103489265
245	0xbe343fed	-0.17602511
246	0x3eae37e1	0.34027007
247	0xbe8a377c	-0.26995456
248	0xbeac8b26	-0.33699912
249	0xbe949fc8	-0.29028153
250	0xbe7b6f86	-0.24554262
251	0xbeda36a0	-0.426198
252	0xbd86e2a7	-0.06586199
253	0xbea43651	-0.3207269
254	0xbeac356c	-0.33634508
255	0xbe953530	-0.2914214

linear2.bias f4 [3]
0	0xbebcc65b	-0.36870083
1	0xbe29471d	-0.16531034
2	0xbe3aeccd	-0.18254395

onnx::MatMul_12 f4 [14, 512]
0	0xbe4c5cec	-0.19957322
1	0x3f00e7e4	0.50353837
2	0x3eb9e676	0.3630864
3	0x3dc76d68	0.097376645
4	0xbe19a95c	-0.15006012
5	0x3ec6a547	0.38797972
6	0x3c386d62	0.011256548
7	0xbf6f87f3	-0.9356682
8	0x3d9f2191	0.07770074
9	0x3e6ad2ea	0.2293202
10	0xbc8c11ad	-0.017098272
11	0xbe5fcc44	-0.21855265
12	0xbe0b56e5	-0.13607366
13	0xbf56e702	-0.8394624
14	0x3ecb4abe	0.3970546
15	0xbeaf83dd	-0.3428029
16	0xbe7b81d4	-0.24561244
17	0x3af63da7	0.0018786684
18	0xbe8adadd	-0.27120104
19	0x3cc1191a	0.02357154
20	0xbd1f4910	-0.038888037
21	0xbc1a853b	-0.009431179
22	0x3e64093e	0.2226915
23	0x3e54bab5	0.20774348
24	0x3d7bdab3	0.061487865
25	0xbcac4c1e	-0.02103239
26	0xbf1c5614	-0.61068845
27	0xbc99f8cb	-0.018795392
28	0x3dda0b20	0.10646653
29	0xbc5bd86a	-0.013418296
30	0xbe17646e	-0.14784405
31	0xbe3ea0e3	-0.18616061
32	0xbe4173cb	-0.18891828
33	0xbe4c2141	-0.1993456
34	0xbeccd7aa	-0.4000829
35	0x3e1a34f9	0.1505927
36	0xbe7ce5f7	-0.246971
37	0xbe73263f	-0.23745058
38	0xbebb56f8	-0.3658979
39	0xbecd5adb	-0.4010838
40	0x3eb6de89	0.35716656
41	0xbd9a4015	-0.07531754
42	0x3f7a485f	0.9776668
43	0x3f7bf360	0.98418236
44	0xbed11a2a	-0.40840274
45	0xbc188294	-0.009308476
46	0xbd1c7a51	-0.038202588
47	0x3da1792d	0.078844406
48	0xbe492fc6	-0.1964713
49	0xbe286992	-0.16446522
50	0x3e9b6f94	0.30358565
51	0xbdf308f4	-0.11866942
52	0xbdde4bc0	-0.10854292
53	0xbd813164	-0.06308249
54	0xbf1c1ba6	-0.6097969
55	0xbcee8ca0	-0.02911979
56	0x3e06ae47	0.13152419
57	0xbf4643de	-0.7744731
58	0xbe8258e7	-0.25458452
59	0xbe5d57f2	-0.2161558
60	0x3d99cdc5	0.075099505
61	0x3e1cb042	0.15301612
62	0xbf0f4f6d	-0.5598057
63	0xbf4aecfb	-0.79267853
64	0xbf16843f	-0.5879554
65	0xbe36dd9c	-0.17857975
66	0xbeaf0b84	-0.34188473
67	0xbf156ca7	-0.58368915
68	0xbd931653	-0.071819924
69	0x3df4ed6f	0.11959349
70	0x3c7c3e71	0.015395747
71	0xbeedc375	-0.46438184
72	0x3ea8cfdf	0.32971093
73	0xbf1c8901	-0.6114655
74	0xbecd93ea	-0.40151912
75	0xbec1f97c	-0.37885654
76	0xbf00cb06	-0.5030979
77	0xbde1ea84	-0.110310584
78	0x3eefa0aa	0.46802264
79	0xbf991ac7	-1.1961297
80	0xbf4dc404	-0.8037722
81	0xbe84a37a	-0.25905973
82	0xbbcfd2a9	-0.0063422513
83	0x3e11d597	0.14241634
84	0x3e6914f0	0.22761893
85	0xbc2064e1	-0.009789676
86	0xbeb032c0	-0.3441372
87	0xbe678903	-0.2261086
88	0xbea2d441	-0.31802562
89	0xbebda4e7	-0.37039873
90	0x3f13d817	0.577516
91	0xbe0354f9	-0.12825383
92	0x3f15f066	0.58569944
93	0x3eb688e1	0.35651305
94	0x3e175e31	0.14782025
95	0x3e4f11f1	0.20221688
96	0xbfa5e3d2	-1.296015
97	0xbe5217ea	-0.20516935
98	0xbeae3ec2	-0.34032255
99	0xbe51bc83	-0.20482068
100	0xbe7f27ca	-0.24917522
101	0x3d35c678	0.044378728
102	0x3f8e205c	1.1103625
103	0xbe8fc520	-0.28080082
104	0xbf819fb3	-1.0126861
105	0xbeeb42b4	-0.45949328
106	0xbebf5704	-0.37371075
107	0x3e4b7296	0.1986793
108	0xbd839144	-0.064241916
109	0x3e98bc80	0.29831314
110	0xbee3d48a	-0.44498092
111	0xbf21dfa4	-0.63231874
112	0xbe142f97	-0.14471279
113	0xbf4e675c	-0.80626464
114	0x3d84dacc	0.06487045
115	0xbd849c84	-0.064751655
116	0xbe035ec8	-0.12829125
117	0x3dfc13d2	0.12308468
118	0xbd502bb2	-0.05082292
119	0xbf875d63	-1.0575374
120	0xbe0a46d0	-0.13503575
121	0xbe2a6222	-0.16638997
122	0xbf29e67d	-0.6636732
123	0x3e5e9dd7	0.21739899
124	0x3e332eb6	0.17498288
125	0x3f91652e	1.1359003
126	0xbf461307	-0.77372783
127	0x3cef0e1c	0.029181533
128	0xbca30703	-0.019900804
129	0xbd93123e	-0.07181214
130	0x3f0a6bce	0.54070747
131	0x3d797ead	0.060911823
132	0x3e2b57f2	0.16732767
133	0x3e6a0ad9	0.228557
134	0x3cb86d98	0.022513196
135	0xbf221350	-0.6331072
136	0xbeb295b4	-0.3487984
137	0xbe7f00f4	-0.24902707
138	0xbdf0e6c9	-0.11762769
139	0x3e4286c6	0.18996724
140	0xbe209e74	-0.15685445
141	0x3cb02307	0.021501077
142	0x3c649e34	0.013953734
143	0xbdad51f5	-0.08462898
144	0x3e0d9b85	0.13828857
145	0x3e467a11	0.19382502
146	0x3eb68ac5	0.35652748
147	0x3db34831	0.08754004
148	0xbe9c0d8f	-0.30479094
149	0x3e4a5c51	0.19761778
150	0xbdcf5757	-0.10124081
151	0xbe981e7c	-0.29710758
152	0xbefbc933	-0.4917694
153	0x3e2597d6	0.16171202
154	0xbe225a61	-0.1585479
155	0xbee07564	-0.43839562
156	0x3e2843b1	0.16432072
157	0xbc362701	-0.011117698
158	0x3e972aa9	0.29524735
159	0xbe786a89	-0.2425939
160	0xbc1486ee	-0.009065373
161	0x3de50790	0.11183083
162	0xbe98444c	-0.29739606
163	0xbdfc9108	-0.1233235
164	0x3f1d3afd	0.61418134
165	0xbe980569	-0.29691628
166	0xbf03c28f	-0.5146875
167	0x3e062665	0.13100584
168	0xbf926141	-1.143593
169	0xbd954bc0	-0.07289839
170	0xbd9e2a8d	-0.0772296
171	0xbe920b87	-0.2852442
172	0x3ed06879	0.40704706
173	0xbe7508f0	-0.2392919
174	0xbe64a6db	-0.22329275
175	0xbe8dff9d	-0.2773408
176	0x3ca240fb	0.019806376
177	0xbe7ed285	-0.24884994
178	0xbc309829	-0.010778465
179	0xbd170b84	-0.036876217
180	0xbf2f7c60	-0.68549156
181	0xbdd4646d	-0.10370717
182	0x3eab1136	0.33411568
183	0xbd93cb62	-0.072165266
184	0xbd341f9b	-0.043975454
185	0x3f7b9672	0.98276436
186	0x3efa14b2	0.48843914
187	0xbed6f796	-0.41985768
188	0xbde8d0a9	-0.11367924
189	0xbe2cab4f	-0.16862224
190	0xbd7544a8	-0.05987993
191	0xbdc57b18	-0.09642619
192	0xbebda7eb	-0.37042174
193	0xbe946f28	-0.28991055
194	0xbeab41a5	-0.3344852
195	0xbf312582	-0.6919786
196	0xbeabf0b4	-0.3358208
197	0x3de15b00	0.11003685
198	0xbdfb3efb	-0.12267872
199	0x3d403f74	0.046935514
200	0xbe06627c	-0.13123506
201	0x3da27df5	0.07934181
202	0x3ecd9d44	0.40159047
203	0xbeba3de9	-0.3637536
204	0xbe44e3d1	-0.1922753
205	0xbef0f82d	-0.47064343
206	0xbe89acab	-0.26889548
207	0xbef8a2b6	-0.4856164
208	0x3ecc5ce7	0.3991463
209	0xbf215a18	-0.630281
210	0x3daa70cf	0.08322298
211	0xbbc1e3e5	-0.0059170597
212	0x3e90e735	0.28301397
213	0x3e69b7e2	0.22824052
214	0x3de11bba	0.109916165
215	0xbe0cef75	-0.1376322
216	0x3dde368c	0.10850248
217	0x3e1f5b99	0.15562285
218	0x3d2ae32c	0.041720554
219	0x3e4caa66	0.19986877
220	0xbf055977	-0.5208964
221	0xbebeb4b1	-0.37247232
222	0xbf0950cd	-0.5363892
223	0xbdf8afd3	-0.12142911
224	0xbe026c93	-0.1273673
225	0x3e4e844a	0.20167652
226	0xbd4caade	-0.04996764
227	0xbe25ba45	-0.16184337
228	0x3e310887	0.17288409
229	0xbe17d673	-0.148279
230	0xbd90ff94	-0.07079998
231	0xbe74253d	-0.2384233
232	0xbe4c19a6	-0.19931659
233	0xbf1bb9e6	-0.60830534
234	0x37d458d2	2.531373e-05
235	0xbe1c4ac1	-0.15262891
236	0x3d081a7d	0.033228386
237	0xbe7c02b7	-0.2461041
238	0x3e898623	0.2686015
239	0x3f0c08ce	0.54700935
240	0xbe3155c5	-0.17317875
241	0x3edaddad	0.4274725
242	0xbd26cf2d	-0.040724922
243	0x3edf4598	0.43607783
244	0xbc1b4000	-0.009475708
245	0x3eb23fa2	0.34814173
246	0x3e4e0fb8	0.20123184
247	0xbde8af49	-0.11361558
248	0xbe850623	-0.25981244
249	0x3d0cbb00	0.034358025
250	0xbe8ed8f0	-0.27899885
251	0xbed08fa2	-0.40734583
252	0xbee23e71	-0.44188264
253	0xbe7679a4	-0.2406984
254	0xbf1cc230	-0.61233807
255	0xbeb4e151	-0.35328153

onnx::MatMul_13 f4 [512, 3]
0	0x3d1a7eaf	0.03771847
1	0xbde71eef	-0.11285197
2	0xbd144931	-0.036202613
3	0x3ee87df3	0.45408592
4	0x3d5c7ea6	0.05383172
5	0xbd6c0ed0	-0.057631314
6	0x3dd07841	0.101791866
7	0xbf55f043	-0.83569735
8	0x3cdf10d3	0.027229702
9	0xbe8accea	-0.27109462
10	0x3e84c8f2	0.2593456
11	0xbe534d49	-0.2063495
12	0xbd8a5b51	-0.067556985
13	0xbd867e40	-0.06567049
14	0x3c82b786	0.015956651
15	0x3db47d2e	0.08812939
16	0x3d5cd928	0.053918034
17	0x3e7f5635	0.24935229
18	0x3ea01618	0.31266856
19	0x3f0dd15a	0.5539757
20	0x3e94966f	0.29021022
21	0xbe0eb5a5	-0.1393648
22	0xbbf138f1	-0.0073615243
23	0x3d33cd77	0.04389712
24	0x3caaff05	0.020873556
25	0xbcc5acf9	-0.024130331
26	0x3c67ec33	0.014155435
27	0xbc55f334	-0.013058472
28	0xbd73b78f	-0.059501227
29	0xbd44021a	-0.047853567
30	0xbe1f2d01	-0.15544511
31	0xbae3234f	-0.0017329248
32	0xbd2bbc36	-0.04192754
33	0xbaaace8e	-0.0013031529
34	0x3d9a77b2	0.07542361
35	0xbcdfac25	-0.027303765
36	0x3cd6286c	0.026142322
37	0x3d200eaa	0.039076485
38	0x3c902b3d	0.017598743
39	0xbe840a55	-0.25789133
40	0xbde9fac2	-0.114247814
41	0xbd901b72	-0.07036485
42	0xbceecd67	-0.029150678
43	0xbf217657	-0.630712
44	0xbe5455a2	-0.20735791
45	0xbe8a0648	-0.26957917
46	0x3d809490	0.06278336
47	0xbf0a1904	-0.5394442
48	0xbcaac35a	-0.020845104
49	0xbcce338b	-0.025171062
50	0xbbade0fd	-0.0053063617
51	0x3d5968f0	0.05307859
52	0x3dca4bf3	0.098777674
53	0xbe959c8b	-0.29220995
54	0x3e98f1ea	0.29872066
55	0x3efa567a	0.488941
56	0xbe3a6de1	-0.18205978
57	0x3f577c9e	0.84174526
58	0x3e1c74d1	0.15278937
59	0x3e221a14	0.1583026
60	0x3fa08a19	1.2542144
61	0xbf2395de	-0.63900554
62	0x3e83a0d3	0.25708637
63	0xbc263cd2	-0.010146337
64	0xbd74dac5	-0.059778947
65	0xbdc1b4a0	-0.094582796
66	0x3bc6b45a	0.00606398
67	0xbc6732b0	-0.014111206
68	0xbd3eb06f	-0.04655498
69	0xbcf676ac	-0.030085884
70	0xbe60cab8	-0.21952331
71	0xbe348326	-0.17628154
72	0xbb0f0961	-0.0021825659
73	0xbcf54986	-0.029942285
74	0xbd455e24	-0.048185483
75	0x3d222287	0.03958371
76	0x3ba176d1	0.004927494
77	0x3bc1303e	0.0058956435
78	0xbe683914	-0.22678024
79	0xbca6f99b	-0.020382693
80	0xbc0e4b29	-0.008684912
81	0x37fe648f	3.0325986e-05
82	0xbd8ab514	-0.06772819
83	0xbca1009b	-0.019653609
84	0xbd0d5b50	-0.03451091
85	0xbcee000c	-0.029052757
86	0x3cd4188a	0.025890607
87	0xbf40e91e	-0.7535571
88	0xbe4a3379	-0.19746198
89	0xbf4c2a65	-0.7975219
90	0xbefa3673	-0.48869666
91	0xbf8147a2	-1.0099986
92	0x3edce042	0.43139845
93	0xbcb138bd	-0.0216335
94	0xbd97eed7	-0.07418602
95	0xbbd0c515	-0.0063711503
96	0x3c8b0a26	0.016972613
97	0x3ddc707b	0.107636414
98	0x3cf72976	0.030171137
99	0xbccee8c4	-0.025257476
100	0xbd26de0f	-0.040739115
101	0x3be1b2d6	0.006887774
102	0xbb11491f	-0.0022168828
103	0x3b733a6e	0.0037113684
104	0xbbb174be	-0.005415528
105	0xbe0c45dd	-0.13698526
106	0xbd8ce2ae	-0.06879173
107	0x3cddb2fe	0.02706289
108	0xbc86a179	-0.016434418
109	0xbbd99366	-0.0066398857
110	0xbcf1df60	-0.029525459
111	0xbda53ab7	-0.080678396
112	0xbe729ce1	-0.23692657
113	0xbbed9cd9	-0.0072513637
114	0xbe2c9150	-0.16852307
115	0x3c4c8462	0.012482734
116	0x3d1595c4	0.03651978
117	0xbd31f866	-0.04344978
118	0xbda4ea31	-0.08052481
119	0x3dcd4e8d	0.10024748
120	0x3d878dfe	0.0661888
121	0xbbd8ee07	-0.006620172
122	0xbeb3d0ff	-0.3512039
123	0xbd87c98c	-0.06630239
124	0xbbd84868	-0.0066004284
125	0xbd124003	-0.035705578
126	0x3f273630	0.6531706
127	0xbe7684c0	-0.24074078
128	0xbcbf5582	-0.023356203
129	0xbeedbd89	-0.46433666
130	0xbedead05	-0.43491378
131	0xbed01818	-0.40643382
132	0xbe99f555	-0.30069986
133	0x3d82f689	0.06394679
134	0x3d99056c	0.07471737
135	0xbd011f90	-0.03152424
136	0xbca242d3	-0.019807255
137	0x3d39fd46	0.045407556
138	0x3e8d297b	0.2757071
139	0xbf076cd4	-0.52900434
140	0x3edba6ba	0.4290064
141	0x3f2768d2	0.6539432
142	0xbf86b82b	-1.0524954
143	0xbf6a2480	-0.91461945
144	0x3e099f86	0.1343976
145	0x3f43bc8a	0.7645956
146	0x3f743312	0.9539043
147	0xb85e97b9	-5.3070227e-05
148	0x3e577b33	0.2104309
149	0xbdbb0a7f	-0.09132861
150	0x3e4beec0	0.19915295
151	0xbea32500	-0.31864166
152	0x3eb30f54	0.34972632
153	0x3c3f53a8	0.01167766
154	0xbd772a82	-0.060343273
155	0xbc866869	-0.016407209
156	0xbf29a6fa	-0.6627041
157	0xbd74c0af	-0.05975407
158	0xbda37c71	-0.0798272
159	0x3c4c09d0	0.012453511
160	0x3d90e8ca	0.07075651
161	0x3b13c222	0.0022546132
162	0x3d4f33f2	0.05058665
163	0xbd491ad8	-0.049097866
164	0xbe79850c	-0.2436716
165	0x3db9cf2a	0.090727165
166	0xbcf5d80e	-0.03001025
167	0x3d37e3ac	0.04489486
168	0x3cf3181b	0.02967458
169	0x3c6e78ba	0.014555151
170	0xbd411159	-0.047135685
171	0xbdc656c1	-0.09684516
172	0x3d8e70a0	0.06955075
173	0x3cdb0907	0.026737703
174	0xbe082bed	-0.13298006
175	0x3bd04cef	0.0063568274
176	0xbd435744	-0.047690645
177	0xbec39331	-0.38198236
178	0xbe8f416c	-0.279796
179	0xbd9fdc99	-0.078057475
180	0x3f3019b5	0.68789226
181	0xbee2ddf0	-0.4430995
182	0xbcb659c0	-0.022259593
183	0x3e8955d4	0.26823294
184	0x3ee17e3c	0.44041622
185	0x3dcaa0c1	0.098939426
186	0x3c5fa79f	0.013650804
187	0xbc11ae8e	-0.008891715
188	0x3d4ab66f	0.04949039
189	0xbe57864f	-0.21047328
190	0xbdb21625	-0.0869563
191	0x3d02578b	0.03182177
192	0xbecd5ff0	-0.40112257
193	0xbdd8255e	-0.10554002
194	0xbe5ac344	-0.2136355
195	0x3cb5356a	0.022120196
196	0xbdbcfddf	-0.092281096
197	0x3cbfaefd	0.02339887
198	0x3e20e5e8	0.15712702
199	0x3d536664	0.05161132
200	0x3dc61091	0.096711285
201	0xbf329eec	-0.69773746
202	0xbdb53d77	-0.08849614
203	0xbe21687c	-0.15762514
204	0x3d7178e6	0.05895319
205	0x3e12ef24	0.14349037
206	0x3d2cb490	0.042164385
207	0x3d80e44f	0.062935464
208	0x3dc45965	0.09587363
209	0xbec0f5da	-0.3768757
210	0x3a3c09ba	0.000717308
211	0xbcdded36	-0.02709065
212	0xbc571120	-0.0131266415
213	0x3db9c563	0.09070852
214	0xbe3fdc34	-0.18736345
215	0xbcde15f5	-0.02711008
216	0x3e9d0a0e	0.30671734
217	0x3f71f17d	0.94509107
218	0x3e5ea4ad	0.21742506
219	0xbe5624ce	-0.20912477
220	0x3cb25dc4	0.021773227
221	0xbc8c93e9	-0.017160373
222	0x3c4fed10	0.012690797
223	0xbcabae39	-0.0209571
224	0xbc2f8cd0	-0.010714725
225	0x3e3e9ba5	0.18614061
226	0x3e73e0f2	0.23816279
227	0xbe8b9bab	-0.27267203
228	0xbcdf611d	-0.027267987
229	0xbb8814fa	-0.004152891
230	0xbd0da0c8	-0.03457716
231	0xbc1aad77	-0.009440771
232	0x3d399691	0.045309607
233	0xbc9fd16a	-0.019509036
234	0x3f2d0c34	0.67596745
235	0x3ef4b585	0.47794738
236	0x3ed0788f	0.4071698
237	0xbcdf2dc4	-0.027243502
238	0x3eab969b	0.3351334
239	0x3e22bb5d	0.15891786
240	0x3c926930	0.017872423
241	0xbe6782db	-0.22608511
242	0x3ea33746	0.31878108
243	0xbc867651	-0.01641384
244	0xbc97a989	-0.018513458
245	0xbb9c60fb	-0.004772303
246	0xbce3730f	-0.027764825
247	0x3c2f1a97	0.010687492
248	0x3b92a02a	0.0044746595
249	0xbc02c0e3	-0.007980558
250	0x3d9d9e5b	0.076962195
251	0xbd9ec137	-0.077516966
252	0xbefc9c59	-0.49338034
253	0x3df63642	0.120220676
254	0xbe3dbd05	-0.18529136
255	0x3c55e1fc	0.013054367
