models/25-games-model.onnx (onnx, 37455 bytes, 4 tensors)

linear1.bias f4 [512]
000000 32 51 bc 3e 93 3f fd 3d 7e a9 1d be e6 4f db 3d
       0.36780697 0.123656414 -0.15396687 0.10708599
000010 80 c1 3d be c1 aa 03 3e 89 57 00 be aa 13 c9 3d
       -0.18530846 0.12858106 -0.12533392 0.09818204
000020 26 08 66 bd d8 4f 9d bd 5c 10 78 bd 73 06 81 be
       -0.056160115 -0.076812446 -0.060562477 -0.25200233
000030 f6 e8 73 3d 78 7a 43 bd 6f 9d b6 3d 8a 31 b8 bd
       0.05954834 -0.047724217 0.08916747 -0.08993824
000040 5f b3 6e be b1 cd 08 3d 28 c7 20 3e 38 65 33 be
       -0.23310612 0.033399288 0.15700972 -0.1751908
000050 e4 86 21 3e f9 b4 8b 3e e0 a9 fa 3d 34 bc f3 3d
       0.15774113 0.2728651 0.12239432 0.11901131
000060 9f 70 55 3e 50 ed 51 3e b9 50 49 be 1a 0f 5f 3e
       0.20843743 0.20500684 -0.196597 0.21783105
000070 3c 6a 90 3e bb 09 c0 3d fe 88 88 3e 64 7e 0e 3d
       0.2820605 0.09376856 0.26667017 0.034788504
000080 fe 9e e8 3d 26 67 53 3e 25 fd 9c 3e 90 75 85 bd
       0.1135845 0.20644817 0.30661884 -0.06516564
000090 fe bc 8e bd 39 c0 54 bd d4 5d 04 be a5 66 3d 3e
       -0.06969641 -0.05194113 -0.12926418 0.18496187
0000a0 39 e7 2e be c4 73 9d 3e ff 66 4d be 53 94 9c bd
       -0.17080392 0.30752385 -0.20058821 -0.07645478
0000b0 bd da 78 be 9c f8 27 be f8 c4 10 be c7 b8 8c be
       -0.24302192 -0.1640343 -0.14137638 -0.27484724
0000c0 b8 f5 8f bc e6 ec 31 3e 85 97 0d bc fd 87 93 3e
       -0.017573223 0.17375526 -0.008642082 0.28814688
0000d0 a9 fb fd 3d aa 22 74 be 58 70 a8 3e 96 16 f9 bd
       0.12401516 -0.23841348 0.3289821 -0.12162511
0000e0 bf 1d 1e be cf 8b 41 be 9a 45 8c be d1 4c b7 bd
       -0.15441035 -0.18900989 -0.27396852 -0.089501984
0000f0 bf b6 a2 3d 58 da af bb 44 19 2f bd 13 46 43 be
       0.07945012 -0.005366605 -0.042748705 -0.190697
000100 de 68 10 3d d9 d0 a8 3e 88 d0 47 3e a0 0a 24 3e
       0.03525626 0.32971838 0.19513142 0.16019678
000110 63 c0 7a be d2 cc ab 3e d0 8c 08 3e d0 45 fb 3d
       -0.24487452 0.33554703 0.13334966 0.12269175
000120 ec 3a 4d 3e 52 37 a2 3e b1 01 45 3e bf 9a 92 bb
       0.20042008 0.3168283 0.19238926 -0.0044740136
000130 03 d1 6b 3e a9 5b 11 3e 37 28 36 be f9 e0 87 be
       0.2302895 0.14195122 -0.17788778 -0.26538828
000140 d8 4f 9c bd f4 9e 08 3e 59 f1 0b 3e 11 b3 99 3e
       -0.076324165 0.13341886 0.13666286 0.3001943
000150 de c2 f6 3d 55 b2 d2 3d 4c 3a 40 3e a0 94 77 be
       0.12048887 0.102879204 0.18772238 -0.2417779
000160 bd 63 4c 3e 33 1b cf bd 17 0e 60 3e d5 2a bd 3d
       0.19959922 -0.1011261 0.21880375 0.09236685
000170 64 6f 24 3d 27 ef ec bd 13 2e 1e 3e ec ac 3b 3e
       0.040145293 -0.11569052 0.15447263 0.18327683
000180 45 cc 40 3c 87 35 09 be 4f 22 a0 3e e0 59 ab 3d
       0.011767452 -0.13399325 0.31276175 0.08366752
000190 2c 9c 73 3e b6 46 09 be 5f cd 2a bd 31 9f 6a 3e
       0.23790044 -0.1340588 -0.041699763 0.22912289
0001a0 ae b8 9b 3b 08 14 15 be 18 36 6a 3e 33 e2 6e 3e
       0.00475224 -0.14558423 0.22872198 0.23328476
0001b0 e4 7f e2 3d 60 2a 81 3e 39 7f c6 3d 42 ab 77 3b
       0.110595495 0.25227642 0.096922345 0.0037791287
0001c0 1d 90 fa bd 75 c4 48 be bf 40 b8 bd 54 7b 16 3e
       -0.12234519 -0.19606192 -0.08996724 0.14695483
0001d0 9b 8b 8d 3d 3d 04 58 be cc 46 6d be e6 fe fd bd
       0.06911393 -0.21095367 -0.23171538 -0.12402134
0001e0 c0 b5 4e bd 2a 64 3e 3e 28 c2 2b 3e 85 9b 6b 3e
       -0.0504663 0.18592897 0.16773283 0.23008545
0001f0 7f 80 84 3e 0f 53 a4 3d f1 8c c6 bd f7 7e 08 be
       0.25879285 0.08023655 -0.09694851 -0.13329683
000200 25 6b 11 be a2 1a 74 3e b1 40 58 bd fa c3 4c 3e
       -0.14201029 0.23838285 -0.05279607 0.19996634
000210 57 ed 2b be 6a 9a 5e be 11 91 91 bc 9f 8f 5e be
       -0.16789757 -0.21738592 -0.017769368 -0.21734475
000220 1a 66 8b 3c c0 8b 15 3d 29 ec 8f 3c 66 95 fa bd
       0.01701646 0.03651023 0.017568665 -0.12235527
000230 17 82 98 bd 56 99 70 be e8 97 83 3e 72 cd ad bd
       -0.07446688 -0.23495993 0.25701833 -0.08486451
000240 e5 a0 4a 3e 1b c7 d6 bd 32 62 8f bc 7b 3a 94 be
       0.19787939 -0.10487195 -0.017502878 -0.28950867
000250 8f a3 85 3d 91 3d 30 3e 96 c4 10 3e 9d b8 78 3d
       0.06525337 0.17210986 0.14137492 0.060722936
000260 c7 e0 72 3d 89 98 7a 3e 3b 1b 39 3e 8b bc 17 3e
       0.059296396 0.2447225 0.18076794 0.14818017
000270 d2 88 e2 3d 52 44 fa bc af 29 9f be 66 71 99 3d
       0.11061253 -0.030550156 -0.3108649 0.07492332
000280 6e 7e 67 3e ad 3a 8a 3e 41 14 92 3d f1 5d 7b be
       0.22606823 0.2699789 0.071327694 -0.24547555
000290 ff 50 68 3c 49 a7 14 3e 12 0d 15 bd b9 6c 34 be
       0.014179467 0.14516939 -0.036389418 -0.176196
0002a0 18 40 24 3e c1 74 82 3e 6d 52 d6 3d 86 bb ee bd
       0.16040075 0.254797 0.1046494 -0.11656861
0002b0 b1 62 d9 bd a7 55 6d be 6f 60 18 be 85 e3 f3 bd
       -0.10614527 -0.23177205 -0.14880536 -0.1190863
0002c0 72 7a be 3c 39 e5 83 3c fb 10 ca bd cd 31 80 3e
       0.023251746 0.016100513 -0.0986652 0.25037995
0002d0 a1 ec 17 be 66 64 ef 3c 51 c0 0e 3e 2d 4d 2e be
       -0.1483636 0.029222678 0.1394055 -0.17021628
0002e0 a5 53 c6 bd 0e d6 8b 3d c5 6e 1a be da db 8a bd
       -0.09683923 0.06827937 -0.15081318 -0.067802146
0002f0 3f f2 3b be 7b 41 b2 3d d2 e0 00 be e9 f4 66 3e
       -0.18354128 0.08703896 -0.12585762 0.22554363
000300 89 4d 86 3c 1d 65 23 3e 5d dd 69 bd e5 04 21 be
       0.016394394 0.1595654 -0.057095874 -0.15724523
000310 6e da 6b bc 4c f4 27 be 3d ee 81 3e 20 f4 25 be
       -0.014395339 -0.16401786 0.25377074 -0.16206408
000320 d3 96 31 3e ac 76 87 3e 7d 54 1f 3e cf b3 6b 3e
       0.17342691 0.26457727 0.15559573 0.2301781
000330 d2 50 15 3e 04 28 01 be ec cb 3c 3e 28 48 ae bd
       0.14581612 -0.12612921 0.18437165 -0.085098565
000340 cf f7 88 be 82 99 a5 3d 39 e8 24 3d 29 79 bb 3d
       -0.26751563 0.0808592 0.040260527 0.09153969
000350 eb 34 b6 bd a6 02 b4 3b 3e ed bf 3d 6e 82 32 3e
       -0.08896812 0.00549348 0.09371422 0.17432567
000360 74 86 ab 3e b3 48 10 3e 39 4f 63 3e 38 a3 3b 3a
       0.33501017 0.14090233 0.2219819 0.00071578054
000370 e9 d8 d6 3d 5f f1 54 3e 54 4a c9 3c 70 67 f5 3d
       0.10490591 0.20795201 0.024571575 0.1198262
000380 c7 42 01 3c 5e b8 6e 3e ac 33 60 be 77 70 c1 3c
       0.007889456 0.23312518 -0.21894711 0.023613198
000390 c2 f9 64 be df 6e e9 bd 8a 67 92 bd 57 78 19 3e
       -0.223609 -0.113981 -0.07148655 0.14987312
0003a0 fa f4 90 be 29 74 f0 bd de a0 ae bd d4 ea 9d 3e
       -0.28311902 -0.11740906 -0.08526777 0.30843222
0003b0 92 7e 9b 3b 60 c6 c3 3d c4 da 18 3e 5a 55 50 3d
       0.004745313 0.095593214 0.14927202 0.050862648
0003c0 c1 ed 9d 3d 7b 75 60 3e 7f 13 85 3e c3 c9 63 3d
       0.077113636 0.21919815 0.25991437 0.055612337
0003d0 38 37 1f 3d 41 d3 1e be a0 41 ba 3d 62 76 54 be
       0.03887102 -0.15510274 0.09094548 -0.20748284
0003e0 46 aa 4d be 97 47 9e 3d 3e cb eb 3d c1 8e d1 bd
       -0.20084485 0.077284984 0.11513375 -0.10232306
0003f0 91 d6 37 3d d2 75 89 bd 76 8b 77 3c 5a 71 d6 3d
       0.04488236 -0.067119256 0.015108934 0.10470839

linear2.bias f4 [3]
000000 b0 64 16 bc e9 52 88 bd 04 dd 93 bd
       -0.009179279 -0.06656439 -0.0721989

onnx::MatMul_12 f4 [14, 512]
000000 ae 49 fa ba 2d dc bb bb 2a 7a 8e 3e e5 00 1a be
       -0.0019095445 -0.005733034 0.2782758 -0.15039404
000010 25 28 ea bd 0a 7a 55 be 4f 3e 50 3d c3 a1 8d be
       -0.11433438 -0.20847335 0.050840672 -0.27662477
000020 56 5f 7d bd 72 18 a9 3e dd 24 b8 3d fd f4 7d be
       -0.061858498 0.33026463 0.08991406 -0.24800487
000030 e9 6e 38 3e 82 7f 1a be 06 f2 06 3e 45 46 fe 3d
       0.18011059 -0.15087703 0.13178262 0.124157466
000040 d4 81 7b be 31 de 32 3e 95 21 5b be c0 18 80 3e
       -0.24561244 0.17467572 -0.2139953 0.25018883
000050 94 b9 9d 3e 2e 7d 65 be 99 74 8d 3e a9 a0 ea bb
       0.30805647 -0.22411034 0.2762802 -0.0071602655
000060 00 19 1c 3e 31 07 61 be f8 aa 0f 3d ab bd dc 3c
       0.15243912 -0.219754 0.035075158 0.02694591
000070 e0 2f 51 3e f6 f3 db bd 36 86 79 3e 4e fa 2b 3e
       0.20428419 -0.10739891 0.24367604 0.16794702
000080 c4 1e 1e bd 4b 0a 5f 3e ca c3 69 be 12 9a d3 3d
       -0.03860356 0.2178127 -0.22828594 0.10332121
000090 be 84 e9 bd 0e ca 7f bc e3 d8 88 3c 40 5a 76 3d
       -0.11402272 -0.015612138 0.016704982 0.060144663
0000a0 a0 01 a2 3e d7 b2 6f 3e b5 49 06 be f3 ca 3f 3e
       0.31641865 0.23408066 -0.13114055 0.18729763
0000b0 5c 8c d1 3c 85 c5 15 3e ae 59 29 3e 19 6e 2d 3e
       0.025579624 0.14626129 0.16538116 0.1693653
0000c0 67 25 e1 3b a5 50 96 3d 84 1c 37 bd 1a c7 03 3e
       0.006870914 0.073396005 -0.04470493 0.1286892
0000d0 fb e9 fc bd 41 fa b0 bd 31 f5 a9 bd fa cd 74 bc
       -0.12349316 -0.08641482 -0.0829872 -0.014941687
0000e0 9a 91 24 3e 74 0c 4a be e7 58 82 be 43 b7 23 3e
       0.16071168 -0.19731313 -0.25458452 0.15987878
0000f0 4b d0 6d be 06 03 56 bd 3b 2d fb bd 3d 69 3b 3d
       -0.23223989 -0.052248977 -0.122644864 0.04575466
000100 81 de f7 3d 48 e5 71 bd 72 48 c4 bd 9e ac 64 bd
       0.12102986 -0.05905655 -0.0958413 -0.055828683
000110 8f 6b 88 be d2 3e 1d be f5 57 16 3e b1 c2 a2 3e
       -0.2664456 -0.15355995 0.1468199 0.31789163
000120 d1 b9 b4 3d d5 e5 18 be f5 d0 52 be 82 5e cd 3d
       0.08824504 -0.14931424 -0.20587523 0.100277916
000130 7d 18 3d be 0d 30 96 3d c9 71 40 3e 85 a7 48 be
       -0.18466373 0.07333384 0.18793406 -0.19595154
000140 85 ee 99 be 43 08 fb bc 7b be fb bd a0 de 84 3e
       -0.30064788 -0.030643588 -0.12292191 0.259511
000150 5c d3 f4 3d eb 34 cb 3d 6c 43 02 be 03 89 67 be
       0.11954376 0.09922203 -0.12721032 -0.2261086
000160 27 e2 78 be 7d 3a 80 be 74 8a 1a be e8 55 10 3d
       -0.2430502 -0.25044623 -0.15091878 0.035238177
000170 03 4d 12 3e f2 d0 72 3d 3d 65 eb 3d 3c 74 21 3e
       0.1428719 0.059281297 0.11493919 0.15766996
000180 d7 25 01 be 63 3a 76 bd cd 27 1b be a3 5f 97 3c
       -0.12612091 -0.060114276 -0.15151902 0.01847822
000190 f6 cb 41 3d f1 50 5f 3e e3 5c 84 3e 66 78 77 3d
       0.047313653 0.2180822 0.25852117 0.060417555
0001a0 8a df a1 bd cb ce c5 bd ce 34 05 be 08 38 4b be
       -0.07903965 -0.09658583 -0.13008425 -0.19845593
0001b0 89 42 07 bd 6b 92 0e 3c 38 c5 e7 bc 0d 90 aa bd
       -0.033022437 0.008701901 -0.028292283 -0.08328257
0001c0 52 88 f0 bd d2 01 7e bd b5 47 f0 bd e2 70 3b 3e
       -0.11744751 -0.062013455 -0.11732427 0.1830478
0001d0 66 4d 92 be d2 2e 24 3e d2 19 c9 bd af 2f 46 bd
       -0.28574675 0.16033486 -0.09819378 -0.04838532
0001e0 95 b1 85 3e 72 a3 f4 3d aa fe 53 be 08 32 85 bd
       0.26112047 0.11945237 -0.20702615 -0.06503683
0001f0 aa 9b 54 3e 40 ff 64 3e 63 f8 52 be 60 09 51 bd
       0.20762506 0.22362995 -0.20602565 -0.05103433
000200 e9 c4 1c 3e f0 60 02 3e 58 e2 80 3e f5 1f 91 3d
       0.1530949 0.12732291 0.25172687 0.070861734
000210 38 ec 84 be a6 a4 5e be 88 17 7e 3d 08 08 a6 3d
       -0.2596147 -0.21742496 0.06203416 0.081070006
000220 be a6 1d 3e 18 c7 80 bd 6b 04 24 3e e7 e0 83 bd
       0.15395638 -0.06287974 0.1601731 -0.06439381
000230 27 01 87 3d 89 70 80 bd 51 32 a8 3d e6 25 aa bd
       0.06592017 -0.062714644 0.08212722 -0.0830801
000240 60 6f 85 bc cf ea 8d be d3 cc b0 bd f0 6d 84 bd
       -0.01628846 -0.27718207 -0.08632817 -0.064662814
000250 69 86 1e 3d 68 33 ba 3d 68 2f e9 3d 77 8d 13 bd
       0.038702402 0.09091836 0.11385995 -0.036023583
000260 b3 66 e2 3d 4e e6 97 3e f7 d1 88 bb b8 21 1c be
       0.110547446 0.29667896 -0.0041754204 -0.15247238
000270 2b 8e 03 3e 85 d2 12 bd e7 b6 96 3d 1a 80 ed bd
       0.12847202 -0.0358453 0.073591046 -0.11596699
000280 4b 98 73 3e b0 60 6e 3d ed 4c 7d 3d f4 b7 3e 3e
       0.23788564 0.058197677 0.06184094 0.1862486
000290 6b a1 40 3d 48 1d c0 3d cd c7 a2 bc 18 2e 62 3e
       0.04702894 0.09380585 -0.019870663 0.22087896
0002a0 17 ed 48 bd cb 9a 97 3d 1a 11 92 3d 87 ab a1 bd
       -0.04905423 0.07402571 0.07132168 -0.07894044
0002b0 2a b7 82 be 7b 6b 66 be b6 a3 41 3c 79 64 28 be
       -0.25530368 -0.22501938 0.011818817 -0.16444577
0002c0 a6 cd 8d be 90 9d 5e 3e 5b 4a bb 3a 35 a8 86 bc
       -0.2769596 0.21739793 0.0014289127 -0.01643763
0002d0 ec af 16 3e 66 3b 01 bd 0b 42 8c be 8f fa 30 be
       0.14715546 -0.031550787 -0.27394137 -0.1728308
0002e0 a7 15 8b 3e 81 34 ab 3d f8 dc 76 be 0e e8 0b 3d
       0.27164957 0.08359624 -0.2410773 0.03415685
0002f0 a9 d0 e8 bd b8 16 a3 3c cb 26 48 3e f2 25 f4 bc
       -0.11367924 0.019908294 0.19546048 -0.02980325
000300 2a 27 47 be 69 1e 0c be bf ab 87 be 27 f3 21 be
       -0.19448534 -0.13683476 -0.2649822 -0.15815412
000310 1f 68 dd bd 20 87 c5 3d 0d b5 3a 3e f5 af 39 be
       -0.10810875 0.09644914 0.18233128 -0.18133529
000320 37 f1 fa 3d 84 81 a6 bc ab 81 f8 3d e9 06 83 be
       0.12253039 -0.02032543 0.12134107 -0.2559121
000330 89 8e 77 3d 1e e2 58 be 9d 9d 10 be 46 2b 2f be
       0.060438666 -0.21180007 -0.14122625 -0.17106351
000340 ec a4 5a bc d5 ef dc bd a6 dc 7a 3e 56 29 3b 3e
       -0.0133449845 -0.10787932 0.24498233 0.18277487
000350 13 f7 5c be 30 e9 2b 3d 6c 5c 7a 3e f9 f7 fd 3d
       -0.21578626 0.04197043 0.24449319 0.12400813
000360 28 67 ab 3e f5 79 1c be 1d a7 8e 3e 2d 92 b0 bd
       0.3347714 -0.15280898 0.27861872 -0.08621631
000370 37 86 00 be ea 85 0d 3c 50 c5 82 bc ee 22 0c 3e
       -0.12551199 0.008637885 -0.015963227 0.136852
000380 ae 71 d7 bd 1b 54 f5 3d 5b 9f 5f be 11 8d 76 be
       -0.105197296 0.119789325 -0.21838133 -0.2407725
000390 de d3 67 be 00 2a ed bd dd b4 1f 3e 27 b1 20 bd
       -0.22639415 -0.115802765 0.15596338 -0.039231446
0003a0 39 7d 7a 3c 1f c2 1d be 61 23 85 be c3 52 96 3d
       0.0152886445 -0.15406083 -0.26003554 0.07340004
0003b0 07 75 b2 3c 1e b7 cc bd 88 37 4e be ed 5a 58 3e
       0.021784319 -0.09995864 -0.20138371 0.21128435
0003c0 b8 71 95 3c 27 97 34 be 63 bd 65 be 96 21 94 be
       0.018242702 -0.17635785 -0.22435527 -0.28931874
0003d0 b9 e7 96 3d 85 ea 6f 3e 4f d8 c7 bd 49 af e8 bd
       0.07368416 0.23429306 -0.097580545 -0.11361558
0003e0 24 e0 05 3e 8a 5a 2e be 96 44 43 bd 5e f2 12 be
       0.13073784 -0.17026725 -0.04767283 -0.14350268
0003f0 e7 b7 97 bd 53 a3 18 3c 4d 03 0d bd 30 95 3e be
       -0.074081235 0.009316283 -0.034426976 -0.18611598

onnx::MatMul_13 f4 [512, 3]
000000 c7 d9 78 bd a4 11 ad bd 71 f9 4d bd fc c1 44 bc
       -0.060754564 -0.0845063 -0.050286714 -0.01200914
000010 09 e0 cc 3c 31 94 31 3c 92 d9 66 bd 28 e6 9c bd
       0.025009172 0.010838554 -0.056359835 -0.07661086
000020 25 42 98 3d 58 c8 18 bd ec 5a b1 3d c8 c2 11 bd
       0.07434491 -0.037300438 0.0865992 -0.03558615
000030 bd 92 b5 3d 36 10 4e bd 43 08 b5 3b 2c 5a fa bc
       0.08865879 -0.05030843 0.0055246665 -0.030560575
000040 dd 6a 64 3c a6 26 57 bd 3b 98 b1 bb bf d1 56 3d
       0.013941494 -0.052527092 -0.0054197586 0.052446123
000050 37 28 25 bb 26 a3 ac bd b6 34 b0 bd 4e cc 17 3d
       -0.0025200972 -0.084295556 -0.08603804 0.037060075
000060 32 f2 05 3d b6 74 48 bd e4 48 8a bd 7f 19 97 bd
       0.03270168 -0.04893943 -0.06752184 -0.0737791
000070 6a 90 8c bd 29 9c 2b bd 4f 34 95 3d 7a b5 ad 3d
       -0.06863482 -0.041896973 0.07285368 0.084818795
000080 a4 dc 42 bd ca 0f 9a 3c 5f 30 88 ba 69 22 1f bc
       -0.0475737 0.018806357 -0.0010390392 -0.009712794
000090 a6 15 0e bd 1d bf 91 bc 46 ca 28 bd c0 22 48 bd
       -0.034688614 -0.017791325 -0.041208528 -0.048861265
0000a0 7e 11 60 bc 49 ef a7 3c 1f de 77 3c 2c af 8f bd
       -0.013676045 0.020499842 0.015128641 -0.07015833
0000b0 da 4f bf bc 79 8f 88 bd 48 f8 84 3c c5 ea f3 3c
       -0.023353506 -0.0666799 0.016231671 0.029775033
0000c0 5a c3 aa bc 8b 33 ce bc fd e0 ad bb d6 12 ac bc
       -0.020845104 -0.025171062 -0.0053063617 -0.021005075
0000d0 14 d1 80 bd 55 31 80 bc 24 6b f2 3c 6c 3a fb 3c
       -0.062898785 -0.015648523 0.029592104 0.030667506
0000e0 58 59 96 bb dd 6a bd bd ea 45 25 bd 81 3c 51 bd
       -0.0045882873 -0.09248898 -0.04034988 -0.05108309
0000f0 f6 36 87 bd 92 56 8c bc 1a 10 e7 3a d4 c3 66 3a
       -0.0660228 -0.017131124 0.00176287 0.00088029844
000100 cd cd 28 bd cc 30 c7 bc e7 f3 53 bd 15 55 6c bd
       -0.041211892 -0.02431526 -0.051746275 -0.057698328
000110 17 51 9b bd a8 5a 22 bc b4 44 73 bd 3e 3d 81 bd
       -0.07583826 -0.009909309 -0.059391692 -0.06310509
000120 cc ce 7a bd 71 f0 27 bc e5 b7 33 bc 1c 29 51 bd
       -0.061232373 -0.010250197 -0.010969137 -0.051064596
000130 64 f3 2f bd a5 82 2f bd 32 17 bb bd 1e d2 99 3c
       -0.042956725 -0.0428492 -0.091352835 0.01877695
000140 99 eb ba bb e2 be d5 bc 36 43 81 bd 48 dc 8d bb
       -0.005704355 -0.026091997 -0.063116476 -0.004329238
000150 5e 9c 8b bd 52 ed b9 bd 11 88 e1 bb 3b 73 07 bd
       -0.06816934 -0.090784684 -0.0068826755 -0.033068877
000160 22 e5 70 bd 72 47 ae 3b e8 ba b5 bc 0f ac 2d bd
       -0.058812268 0.0053185755 -0.02218385 -0.042400416
000170 49 22 86 bd f3 eb 80 bd 2b 06 54 bd 54 37 ea bc
       -0.06549508 -0.06295004 -0.051763695 -0.028590836
000180 19 e3 84 bd c1 e4 d5 bb ef a7 78 bd 78 29 62 bd
       -0.06488628 -0.0065275137 -0.06070703 -0.05521533
000190 e5 79 90 bd da 2d a4 bd 1e 2a 05 bd c0 99 8d bd
       -0.070544995 -0.08016558 -0.03251087 -0.06914091
0001a0 00 45 f9 bc 2d e9 81 bd eb fb 43 bd db f9 22 bd
       -0.03042841 -0.06343303 -0.04784767 -0.039789062
0001b0 28 18 88 bd 9d 37 80 bd 48 3b c8 bc 32 60 f6 bc
       -0.066452324 -0.062606074 -0.02444233 -0.030075166
0001c0 88 d8 07 bc ba 70 1c 3d 64 4b 4a bd 02 62 9b 3b
       -0.008291371 0.038193442 -0.049388304 0.004741908
0001d0 0e b5 73 bd 0f ed 7c bd f4 62 31 bd b2 fe 62 3d
       -0.05949884 -0.061749514 -0.04330726 0.055418678
0001e0 ad 32 0d bd 40 d8 1e bc c2 54 5e bd e0 7a 94 bd
       -0.034472156 -0.009695113 -0.05428005 -0.07249999
0001f0 b2 1d f3 bc 8e 34 1b bd b8 7c 80 3d 00 06 41 3c
       -0.029677246 -0.037891917 0.06273788 0.011781216
000200 f2 3c d3 bc 4c f4 bc bd 90 3a 87 bd fc 91 a7 bd
       -0.025785897 -0.092262834 -0.06602967 -0.08182141
000210 32 a6 4e bc ba 29 d5 3c 41 60 76 3d f4 f5 53 bd
       -0.012612866 0.026020873 0.06015039 -0.05174823
000220 36 45 df bb bd 72 50 bd 1f 81 52 bd 46 f0 84 bd
       -0.0068136705 -0.050890673 -0.05139267 -0.06491141
000230 68 c7 3b bd 85 29 b2 3c ba 6b 46 3c 67 32 da bb
       -0.045844465 0.021748314 0.012110645 -0.0066588405
000240 bc 03 b0 bc 6d a0 74 bc 64 5c 99 bd d1 05 2f bc
       -0.021486156 -0.014930827 -0.07488325 -0.010682539
000250 0b 2e 98 bc d0 f0 ab bd 6b 18 5c 3c ba 79 42 bd
       -0.018576642 -0.08395541 0.013433556 -0.04747937
000260 ae a8 48 3c 9a b9 b5 bd e5 91 16 bd bc 19 0c bd
       0.012247248 -0.08873291 -0.03676023 -0.03420423
000270 66 dc f5 bc 6e 03 bc bd ca bf e3 bc 4b 01 d0 3c
       -0.03001232 -0.09180342 -0.027801413 0.025391242
000280 a1 60 e0 3c 25 6e 17 bd 3a f1 c5 bd 07 14 d1 bc
       0.027389826 -0.036970276 -0.09665151 -0.025522245
000290 62 c0 5b bd 81 6b eb 3c aa c9 27 3a bd 9e 60 3c
       -0.053650267 0.028737785 0.0006400595 0.013709721
0002a0 77 42 6f bc 0d ca 37 3c 20 14 85 bc 7c 6c 2f bc
       -0.014603249 0.011217606 -0.016244948 -0.010707017
0002b0 15 a3 a7 3b 47 86 92 3c 00 40 56 3c d2 96 d1 3b
       0.0051158764 0.017886294 0.013076782 0.006396153
0002c0 70 6c 27 bc 99 07 ab bd 43 85 9a bc af a0 ce bb
       -0.010218725 -0.083510585 -0.018862372 -0.006305776
0002d0 f1 88 81 3d 1a a2 af bb a9 9c f2 3c 86 e9 2e bd
       0.063249476 -0.0053599 0.029615717 -0.042703174
0002e0 e5 cf b5 bd 16 c2 02 bb ed 00 32 bd 95 13 5c bd
       -0.08877543 -0.001995211 -0.043457914 -0.053729612
0002f0 87 2f ab 3c d4 ac 3b bd 36 42 dd bc 58 e4 b3 3c
       0.020896686 -0.04581912 -0.02700911 0.021959469
000300 3d bf 8f bd 42 ad 67 3d c1 7d 6e bd 5e b2 dc bc
       -0.07018898 0.056561716 -0.058225397 -0.02694052
000310 4e 70 52 bd 14 94 2f bd c3 cf 54 bd 72 14 58 bd
       -0.051376633 -0.042865828 -0.05195595 -0.052753873
000320 b7 05 1f bd a0 f6 6c bd 6b e9 65 bd 13 ec 89 bd
       -0.03882381 -0.057852387 -0.056130808 -0.06734481
000330 a8 34 0e bd 83 31 6b 3c 1c f9 2f bc 01 e2 a7 bc
       -0.034718186 0.014355066 -0.010740545 -0.02049351
000340 1f a4 c2 bd 00 6e ca bc 27 5e 98 bd 5c b1 ea bc
       -0.0950396 -0.024710655 -0.07439833 -0.028649025
000350 81 3f 1d bd f3 2e b5 bd 71 6c f2 bc a8 9e 28 bd
       -0.03839064 -0.088468455 -0.029592725 -0.04116693
000360 4e 4b bd bb fb 7a 7e bd 8e 49 6a bd 1f 04 85 bd
       -0.0057767993 -0.062129002 -0.057199053 -0.06494927
000370 7e 49 aa bd 7d 52 8d bd 43 af 6d bc ec a9 3d 39
       -0.08314799 -0.06900499 -0.014507118 0.00018087745
000380 ab e9 d8 bc 1c 3c 32 bd 7d 66 ac 3d c1 33 a7 bc
       -0.02647861 -0.043514356 0.084179856 -0.02041042
000390 d1 a8 6a bd 17 f9 9c 3b 6f ae 82 bd 91 4d 74 bd
       -0.057289902 0.004790436 -0.06380927 -0.059644286
0003a0 e0 2f 9e bd e6 37 85 bd 2e 17 88 bc 1d bf 34 3c
       -0.07723975 -0.065048024 -0.016612615 0.011031893
0003b0 99 b9 19 3d ef ad 23 bc a7 db 51 3c 4e 57 9c ba
       0.037530515 -0.0099901995 0.012808717 -0.0011927874
0003c0 1f 79 b3 bd 98 91 55 bd 48 4a 89 3c 4a 89 7c bd
       -0.087633364 -0.052140802 0.016759053 -0.061654367
0003d0 e4 8e 48 bc a8 0d 79 bd ea de 69 3d 1e fb e3 bc
       -0.012241099 -0.06080404 0.057097353 -0.027829703
0003e0 a9 2f 90 bd bc 41 90 bd 46 b3 a4 bd 36 ba da bc
       -0.070403405 -0.07043788 -0.08042006 -0.02670012
0003f0 f6 00 ae bd 5e 7d 5a bd 18 a1 58 bd 3b 31 4d bd
       -0.08496277 -0.053342216 -0.052888006 -0.050095778
