models/300-games-model.onnx (onnx, 37455 bytes, 4 tensors)

linear1.bias f4 [512]
00000000: 8e80 c4bd a4cc b4be 1730 20bf 83ca 6d3f
00000010: 1a24 2dbf 7c0c 91bf a741 cf3e 2700 8cbe
00000020: 286c abbe f04f a3be 8576 94be a665 37bf
00000030: 4824 72be 9574 91bf b90c db3e e867 96be
00000040: 5fb3 6ebe a5fa 5dbf a8df 403f ac8f 06bf
00000050: dbb2 45be 8efe 91bb 0e7d 91be bbea 53be
00000060: 5f5b 1abe 4865 0f3d cb1c edbe f051 a5bd
00000070: 8abf fbbd d40d 0bbf b018 923e 0d2f 6fbe
00000080: 983e d6be e9cf 91be b4a9 d3bd 97f8 dcbe
00000090: 8d53 c1be 64b5 1cbe 4358 c4be f86a f63d
000000a0: 0408 d7be e1dd f4bd a0fe 87bf 6670 10bf
000000b0: 995b 89be a620 b1be 18b9 e7be 314d b4be
000000c0: f1ea 043f cb2c ed3d 7a4f 9abd c650 51be
000000d0: 920f 61bf 46e1 f6be a82e 97be 0b1e 37be
000000e0: 8f03 88be 2f23 e9be bfbd 94be 99db 3cbf
000000f0: b425 0cbe ffe5 3cbf 89c1 a5be ef93 f9bf
00000100: 2279 053e c7d1 81be 8a13 3bbd 37d3 dfbe
00000110: ffaa a6be 32e9 a0be e36a 28be 92d8 b8bd
00000120: 194a b6bf 6070 50be f6d3 1bbe 21e9 d2bd
00000130: 870a abbe b37e eabe 8256 1abf dba2 35bf
00000140: bf4e c1bf 39da 47be 468b 0cbd d8dd 53be
00000150: 91c9 343e e100 5ebe 14a3 32be a094 77be
00000160: 2dc6 d83b 8926 9abe 68f3 a3be d09f 90be
00000170: b281 72be a7d1 efbe b831 043b 4262 99be
00000180: 482c 79bf 6753 2abd 13eb ef3d 3129 ccbc
00000190: 41ee 7abe a4a1 85be b196 82be 2f30 23be
000001a0: 0b74 a5be 2199 9ebe ba78 813f 3ce0 a83e
000001b0: 62d2 89bd 8306 5bbe ba25 edbe ba0d b8bf
000001c0: a553 8fbd e0b2 f1be da2e ccbe d98d e5bd
000001d0: e634 ccbd 329c bfbe e65e 4dbe 4f55 4ebf
000001e0: 19fd a6be 339e 48bc b4ab 92be 8410 92bd
000001f0: 3a85 f73d 31b5 8c3c e1f4 3cbf 9828 4bbc
00000200: 4ab4 8fbe f778 35bd 9369 66be 2d20 3abd
00000210: ce96 f6be bb3c 43bf bbb2 483d ea5a b1bf
00000220: afc0 b4be 5719 783f c8eb 7bbe eb1a bcbe
00000230: aabb 00bf 7b85 113f 4902 3bbd 3c35 82be
00000240: 201d 07be 154a 0dbf 0f52 f33e bbba 45bf
00000250: cc7a 49be d2e4 5a3d a14c 293f 9c8c 49be
00000260: 0a1e 71bf 1d89 83bd 009d 8ebe 67d7 52be
00000270: 3ee5 9dbe 9a95 81be f55b babf 4cca 47be
00000280: 0e2b 66bd 6137 9abc 4bc8 37be 4b60 b3be
00000290: 712c a73f cf72 b3be a6e5 1bbf cd35 8ebe
000002a0: 3e60 03bf ccbb 8dbe d314 9dbe 0ecc e4be
000002b0: 0178 2ebf 256f 54bf d112 0fbf 292a 9dba
000002c0: 1c5f f13d 9e8f febe 29b0 3bbf 43e5 dabd
000002d0: 9f4a d2be 5788 90be 9029 c2bf 6e29 b4be
000002e0: a2f4 05bf e043 e6be 7f19 d4be d70a 9e3e
000002f0: 178a 5abe 01c7 24be 1810 37be 07f1 9b3d
00000300: 8f31 7a3d f138 12bd b54f adbe 731c 9cbe
00000310: 8c00 4abe 569d bbbe 33b7 30be b594 b1be
00000320: b5dc 19bf e2c0 3ebe 1dc5 00bd 311f cfbd
00000330: a6a4 e3be 40d6 f0be 465e fdbe a245 67be
00000340: 6dcb 91bf c2d1 3abf 3483 8dbe 82d3 9bbe
00000350: 19cc 90bf 3407 b2be 9ce0 2ebe 7cf2 24be
00000360: b601 bdbe 61a2 66be 6827 20be 761c bebe
00000370: f7b1 0bbf 8b7d 7abe 6d6d 58bf 7bae d7bd
00000380: c3d9 dfbe 9e53 01bf 45f3 45bf 994a 03bf
00000390: 267e 483e bfc7 48be e62d aebe 105b cebe
000003a0: c5b8 983e e4bd 9ebe ec45 75be bac4 a9be
000003b0: c9dd 54be bba7 f2bd d591 18be b8ce 0fbf
000003c0: 5595 75be dd7f 87be 93e9 84bd 3ce3 acbf
000003d0: 164f 693e 130a c7be 8f42 51be 7c37 8abe
000003e0: 268b acbe c89f 94be 866f 7bbe a036 dabe
000003f0: 727b 4bbf 0d56 cdbe 6c35 acbe 3035 95be
-0.09594832 -0.35312378 -0.6257338 0.92887133 -0.6763321 -1.1331935 0.40479776 -0.27343866
-0.33480954 -0.31896925 -0.28996673 -0.7163948 -0.23646653 -1.1363703 0.42783144 -0.2937615
-0.23310612 -0.8671058 0.7534127 -0.52562976 -0.19306509 -0.004455394 -0.28415722 -0.20695011
-0.15073918 0.0350087 -0.4631103 -0.08072269 -0.122923926 -0.54317975 0.2853446 -0.23357792
-0.4184463 -0.28478935 -0.10335103 -0.4315841 -0.37759057 -0.1530357 -0.38348588 0.120321214
-0.41998303 -0.119563825 -1.062458 -0.56421506 -0.26827696 -0.3459522 -0.45258403 -0.35215142
0.5192099 0.11580809 -0.0753469 -0.20440969 -0.87914383 -0.48218745 -0.29527783 -0.17882554
-0.26565215 -0.45534655 -0.29051015 -0.7377258 -0.13686258 -0.73788446 -0.32374218 -1.9498271
0.1303449 -0.2535536 -0.04567293 -0.43715832 -0.32552335 -0.31427914 -0.16447024 -0.090256825
-1.4241363 -0.20355368 -0.15217575 -0.10298372 -0.3340647 -0.4579979 -0.6028825 -0.7095162
-1.5102156 -0.19516839 -0.03431251 -0.20690095 0.17655016 -0.21680023 -0.17445022 -0.2417779
0.0066154213 -0.30107525 -0.32021642 -0.28246927 -0.23682287 -0.4683964 0.0020171236 -0.29957777
-0.9733319 -0.041583445 0.11714759 -0.024921985 -0.24504949 -0.26099885 -0.25505593 -0.1593635
-0.32315096 -0.30976203 1.0114968 0.32983577 -0.067295805 -0.21389203 -0.46317846 -1.4379189
-0.06998376 -0.47206783 -0.39879495 -0.11208696 -0.09971027 -0.37423855 -0.20055732 -0.8059892
-0.32614973 -0.012244749 -0.28646624 -0.07132056 0.12085958 0.017176243 -0.73811156 -0.012399815
-0.28067237 -0.044304814 -0.22501211 -0.04544084 -0.4816193 -0.7626454 0.048998576 -1.385587
-0.35303256 0.96913666 -0.24601662 -0.36739287 -0.5028635 0.568443 -0.045656476 -0.2543124
-0.13194704 -0.55191165 0.47523543 -0.77238053 -0.1967575 0.053440876 0.6613255 -0.19682544
-0.9418646 -0.06422637 -0.27854156 -0.20589982 -0.3083896 -0.2530945 -1.4559313 -0.19510764
-0.056193404 -0.018825235 -0.179475 -0.35034403 1.3060437 -0.3504853 -0.6089729 -0.27775422
-0.5131873 -0.2768234 -0.3067995 -0.4468693 -0.6815186 -0.82982093 -0.55888087 -0.0011990714
0.11785719 -0.49718946 -0.73315674 -0.106882595 -0.41072556 -0.2822902 -1.5168934 -0.35187858
-0.52326405 -0.4497366 -0.41425702 0.30867645 -0.2134174 -0.16091539 -0.17877233 0.07614332
0.06108242 -0.035698835 -0.33849874 -0.30490455 -0.19726771 -0.36643475 -0.17257385 -0.34683767
-0.601024 -0.18628266 -0.031437982 -0.10113371 -0.44461554 -0.4703846 -0.49485987 -0.22585157
-1.1390206 -0.72976315 -0.27639163 -0.30434805 -1.1312286 -0.3477112 -0.17077869 -0.16108125
-0.36915368 -0.2252288 -0.15640032 -0.3713109 -0.5456843 -0.24461953 -0.8454197 -0.105313264
-0.43720827 -0.50518215 -0.77324325 -0.512857 0.19579372 -0.19607447 -0.34019393 -0.4030385
0.29828468 -0.3100425 -0.23952454 -0.33157903 -0.2078773 -0.11848398 -0.1489938 -0.561748
-0.23982747 -0.2646474 -0.06489863 -1.3506846 0.22784075 -0.38874874 -0.20435546 -0.26995456
-0.33699912 -0.29028153 -0.24554262 -0.426198 -0.7948524 -0.40104714 -0.33634508 -0.2914214

linear2.bias f4 [3]
00000000: 820c 12bf 01ff 54be 2b75 28b9
-0.57050335 -0.20800401 -0.00016065377

onnx::MatMul_12 f4 [14, 512]
00000000: ec5c 4cbe ef97 463f 48ec 2f3f 5d8a d73c
00000010: 5ca9 19be 4d10 f53e 9324 913d f387 6fbf
00000020: 9121 9f3d ead2 6a3e ad11 8cbc 44cc 5fbe
00000030: e556 0bbe 891b 69bf 1a80 55be 5f3e f1be
00000040: d481 7bbe b9d8 3c3f 6539 69be 1a19 c13c
00000050: ea33 ecbc 3b85 1abc 3e09 643e b5ba 543e
00000060: b3da 7b3d 1e4c acbc 1456 1cbf cbf8 99bc
00000070: 200b da3d cd84 54be 8f37 6fbe e3a0 3ebe
00000080: cb73 41be 4121 4cbe aad7 ccbe f934 1a3e
00000090: f7e5 7cbe 3f26 73be f856 bbbe db5a cdbe
000000a0: 89de b63e 1540 9abd f387 5d3f af47 b73f
000000b0: bbb7 cfbe 9482 18bc a996 b2bd 83a7 563d
000000c0: 0850 2fbe 9269 28be 827f c23e f408 f3bd
000000d0: bbc3 1bbe 6431 81bd a61b 1cbf a08c eebc
000000e0: 47ae 063e de43 46bf e758 82be 60be 91be
000000f0: 5770 113e 42b0 1c3e 6d4f 0fbf 5cb1 45bf
00000100: eafe 38be 9cdd 36be 840b afbe 35be 8bbf
00000110: 5316 93bd 6fed f43d 713e 7c3c 75c3 edbe
00000120: 362f d33e 0189 1cbf ea93 cdbe 5078 dbbe
00000130: 06cb 00bf 84ea e1bd 0bd9 833e a62b 9dbf
00000140: 462f 5bbf 7aa3 84be a9d2 cfbb 97d5 113e
00000150: 12a7 47be e164 20bc c032 b0be 0389 67be
00000160: 41d4 a2be e7a4 bdbe dfa4 783e f954 03be
00000170: ac8e d33e e188 b63e 315e 173e f111 4f3e
00000180: 368b cebf 82c9 d8be c23e aebe 83bc 51be
00000190: ca27 7fbe 0a10 4e3e ece9 ca3f 20c5 8fbe
000001a0: b39f 81bf b442 ebbe 6146 82bc 665f 0b3f
000001b0: 4491 83bd a63c 153e 8ad4 e3be 8ef7 f1be
000001c0: 1bb3 4bbe 5c67 4ebf ccda 843d 849c 84bd
000001d0: c85e 03be d213 fc3d 2e32 f63d 766c 98bf
000001e0: d046 0abe 2262 2abe 7de6 29bf d79d 5e3e
000001f0: 17ec 093f db14 643f 3199 82bf 739a a43c
00000200: 0307 a3bc 3e12 93bd b629 cb3e ad7e 793d
00000210: 28b7 cb3e 8e8b e53d 9270 a7bc a42c 29bf
00000220: b495 b2be ec39 0fbf c9e6 f0bd e265 b8bd
00000230: 4bb2 f4be d266 2c3e 349e 643c 5c81 04be
00000240: 859b 0d3e 117a 463e c8ab 093f 96a3 e73b
00000250: 318a 85be 9e1c 853d 14b2 81be 7c1e 98be
00000260: c721 eebe d697 253e 615a 22be 6475 e0be
00000270: b143 283e 0127 36bc 8a1f cf3e 896a 78be
00000280: ee86 14bc 9007 e53d 4c44 98be 0891 fcbd
00000290: 0135 533f 6905 98be 657f 5bbf 6526 063e
000002a0: 4161 92bf c04b 95bd 48cc 6abe b65d 02bf
000002b0: 6174 833e f008 75be b719 b8be 68c0 82be
000002c0: 2de3 833e 1273 acbe 9c26 3abe 840b 17bd
000002d0: e5b5 e2be 6d64 d4bd 71d1 4b3e 62cb 93bd
000002e0: 9b1f 34bd d1d2 c73f 4b89 1e3f 067b 9cbe
000002f0: a9d0 e8bd 4fab 2cbe a844 75bd 297e 2c3b
00000300: b388 e3be 286f 94be a541 abbe 8225 31bf
00000310: b4f0 abbe 005b e13d 3f40 b7be 743f 403d
00000320: cfcb 2abe f57d a23d 39f7 b1be e93d babe
00000330: d1e3 44be 2df8 f0be 99a7 cbbe b6a2 f8be
00000340: 0097 ab3e 3da4 fbbe cf70 aa3d e5e3 c1bb
00000350: f6e8 153f e2b7 693e ba1b e13d 75ef 0cbe
00000360: 8c36 de3d 995b 1f3e 2ce3 2a3d 66aa 4c3e
00000370: 7759 05bf b1b4 bebe c36b 32bf d3af f8bd
00000380: 936c 02be 4a84 4e3e e698 3b3f d809 153d
00000390: b250 953e 73d6 17be 94ff 90bd 3d25 74be
000003a0: 476a 59bf e6b9 1bbf d258 d437 0e24 bb3d
000003b0: 7d1a 083d 418a 71bf 24b0 073e 6c95 cc3e
000003c0: c555 31be addd da3e 2dcf 26bd f96b 3d3f
000003d0: 5e3b 4abd 38ec 7b3e 367d b23e 49af e8bd
000003e0: 2306 85be 00bb 0c3d f0d8 8ebe a28f d0be
000003f0: 0513 38bf c490 eabe 30c2 1cbf 51e1 b4be
-0.19957322 0.7757558 0.6871991 0.026311094 -0.15006012 0.47864 0.07087054 -0.9356682
0.07770074 0.2293202 -0.017098272 -0.21855265 -0.13607366 -0.9105764 -0.20849648 -0.47117898
-0.24561244 0.7376819 -0.227758 0.02357154 -0.028833348 -0.009431179 0.2226915 0.20774348
0.061487865 -0.02103239 -0.61068845 -0.018795392 0.10646653 -0.20753784 -0.23361038 -0.18616061
-0.18891828 -0.1993456 -0.4000829 0.1505927 -0.246971 -0.23745058 -0.3658979 -0.4010838
0.35716656 -0.07531754 0.8653557 1.4318751 -0.40569863 -0.009308476 -0.087201424 0.052405845
-0.17120373 -0.16446522 0.37987906 -0.11866942 -0.15211384 -0.06308249 -0.6097969 -0.02911979
0.13152419 -0.7744731 -0.25458452 -0.28465557 0.1420301 0.15301612 -0.5598057 -0.77223754
-0.18065992 -0.17857975 -0.34188473 -1.0917422 -0.071819924 0.11959349 0.015395747 -0.46438184
0.41246957 -0.6114655 -0.40151912 -0.4286523 -0.5030979 -0.110310584 0.25751528 -1.2278945
-0.8561901 -0.25905973 -0.0063422513 0.14241634 -0.19497326 -0.009789676 -0.3441372 -0.2261086
-0.31802562 -0.37039873 0.24281643 -0.12825383 0.41319788 0.35651305 0.14782025 0.20221688
-1.6136234 -0.42341238 -0.34032255 -0.20482068 -0.24917522 0.20123306 1.5852637 -0.28080082
-1.0126861 -0.45949328 -0.0159027 0.5444244 -0.064241916 0.14573917 -0.44498092 -0.47259182
-0.19892542 -0.80626464 0.06487045 -0.064751655 -0.12829125 0.12308468 0.1202129 -1.19081
-0.13503575 -0.16638997 -0.6636732 0.21739899 0.5387587 0.8909432 -1.0203 0.020093178
-0.019900804 -0.07181214 0.3968026 0.060911823 0.39788175 0.112082586 -0.02043942 -0.6608374
-0.3487984 -0.55947757 -0.11762769 -0.090038076 -0.47792277 0.16836098 0.013953734 -0.12939972
0.13828857 0.19382502 0.5377774 0.0070690615 -0.26081994 0.06499599 -0.25331175 -0.29710758
-0.46510145 0.16171202 -0.1585479 -0.43839562 0.16432072 -0.011117698 0.4045375 -0.2425939
-0.009065373 0.11183083 -0.29739606 -0.1233235 0.8250275 -0.29691628 -0.85741264 0.13100584
-1.143593 -0.07289839 -0.2292949 -0.5092424 0.25674728 -0.2392919 -0.3595712 -0.2553742
0.2575926 -0.33681542 -0.18178791 -0.036876217 -0.442794 -0.10370717 0.19904114 -0.072165266
-0.043975454 1.5611211 0.6192824 -0.3056261 -0.11367924 -0.16862224 -0.05987993 0.0026320315
-0.4444023 -0.28991055 -0.3344852 -0.6919786 -0.3358208 0.11003685 -0.35791203 0.046935514
-0.1667931 0.07934181 -0.34758928 -0.3637536 -0.1922753 -0.47064343 -0.39776304 -0.4856164
0.3351364 -0.4914874 0.08322298 -0.0059170597 0.58558595 0.22824052 0.109916165 -0.1376322
0.10850248 0.15562285 0.041720554 0.19986877 -0.5208964 -0.37247232 -0.6969568 -0.12142911
-0.1273673 0.20167652 0.7328018 0.03638634 0.29163128 -0.148279 -0.07079998 -0.2384233
-0.8492779 -0.60830534 2.531373e-05 0.09137736 0.033228386 -0.94351584 0.13250786 0.3995775
-0.17317875 0.4274725 -0.040724922 0.7399288 -0.049373023 0.24601829 0.34861153 -0.11361558
-0.25981244 0.034358025 -0.27899885 -0.40734583 -0.7190402 -0.45813572 -0.61233807 -0.35328153

onnx::MatMul_13 f4 [512, 3]
00000000: af7e 1a3d ef1e e7bd 3149 14bd 07e6 af3d
00000010: 3770 ebbd c10f b9bd 9b47 cd3e 9257 e6be
00000020: e780 92be 2a54 f0bd 3f5f 473e 3ad4 1abe
00000030: 515b 8abd 407e 86bd 86b7 823c fc83 933e
00000040: 49bf a93e ce9e 993f 0283 083f d9c5 0f3f
00000050: 2a39 003f a5b5 0ebe f138 f1bb 77cd 333d
00000060: 05ff aa3c f9ac c5bc 33ec 673c 34f3 55bc
00000070: 8fb7 73bd 1a02 44bd 012d 1fbe 4f23 e3ba
00000080: 36bc 2bbd 8ece aaba b277 9a3d 25ac dfbc
00000090: 6c28 d63c aa0e 203d 3d2b 903c 7e4d 24be
000000a0: 1f30 f73c b7f9 7fbe 89b6 983d c6ce 36bf
000000b0: 1afa 0ebf 31dd 90be d332 5abe 581c 24bf
000000c0: 5ac3 aabc 8b33 cebc fde0 adbb 7fee 913e
000000d0: c0b9 5a3f aca8 11bd dff1 c13e adf8 443e
000000e0: f2aa 31be 9e7c 573f d174 1c3e 141a 223e
000000f0: 74e0 933f 9cac 7abf 3c74 e63d d23c 26bc
00000100: c5da 74bd a0b4 c1bd 5ab4 c63b b032 67bc
00000110: 6fb0 3ebd ac76 f6bc b8ca 60be 2683 34be
00000120: 6109 0fbb 8649 f5bc 245e 45bd 8722 223d
00000130: d176 a13b 3e30 c13b 1439 68be 9bf9 a6bc
00000140: 294b 0ebc 8f64 fe37 14b5 8abd 9b00 a1bc
00000150: 505b 0dbd 0c00 eebc 8a18 d43c 86e7 2fbf
00000160: 509f eabd 4726 54bf 54e4 c9be 54e3 6dbf
00000170: 6262 b23e bd38 b1bc d7ee 97bd 15c5 d0bb
00000180: 260a 8b3c 7b70 dc3d 7629 f73c c4e8 cebc
00000190: 0fde 26bd d6b2 e13b 1f49 11bb 6e3a 733b
000001a0: be74 b1bb dd45 0cbe aee2 8cbd feb2 dd3c
000001b0: 79a1 86bc 6693 d9bb 60df f1bc b73a a5bd
000001c0: e19c 72be d99c edbb 5091 2cbe 6284 4c3c
000001d0: c495 153d 66f8 31bd 31ea a4bd 8d4e cd3d
000001e0: fe8d 873d 07ee d8bb ffd0 b3be 8cc9 87bd
000001f0: 6848 d8bb 0340 12bd d2d6 8d3e 4232 8abd
00000200: cb65 423d 8369 c3be 74d9 dcbe 93c8 b9be
00000210: fe6c e2be 3b24 1dbd 19ef 3bbc 901f 01bd
00000220: d342 a2bc 46fd 393d 7992 533d 0093 10bf
00000230: 4594 883e fe35 1c3f c072 9bbf d3e2 2fbf
00000240: 02a1 953e 5d25 713f 6e61 b13f b997 5eb8
00000250: 337b 573e 7f0a bbbd cc19 63bc d992 44be
00000260: 37aa 0b3e a853 3f3c 822a 77bd 6968 86bc
00000270: c647 66bf 55a7 81be 386d 94bd d009 4c3c
00000280: cae8 903d 22c2 133b f233 4f3d d81a 49bd
00000290: 0c85 79be 2acf b93d 0ed8 f5bc ace3 373d
000002a0: 1b18 f33c ba78 6e3c 5911 41bd c156 c6bd
000002b0: a070 8e3d 0709 db3c ed2b 08be ef4c d03b
000002c0: 4457 43bd 7bb9 bfbe 3d8f 9dbe e5b8 abbe
000002d0: 1426 6d3f 799b d8be 04c8 c6be d455 893e
000002e0: 3c7e e13e c1a0 ca3d 9fa7 5f3c 8eae 11bc
000002f0: 6fb6 4a3d 6742 143a af77 33be afea 3b3d
00000300: a475 4fbd 8be6 b3be e8bf 69bf 6a35 b53c
00000310: dffd bcbd fdae bf3c e8e5 203e 6466 533d
00000320: 9110 c63d 7b10 02bf 7005 ab3d 421c 0bbe
00000330: e678 713d 24ef 123e 90b4 2c3d 4fe4 803d
00000340: 6559 c43d daf5 c0be ba09 3c3a 36ed ddbc
00000350: 2011 57bc 63c5 b93d 34dc 3fbe f515 debc
00000360: 904d fc3e d9b5 b73f c303 493f ce24 56be
00000370: c45d b23c e993 8cbc 10ed 4f3c 39ae abbc
00000380: d08c 2fbc ad21 1a3e 8a59 343d 7d47 91be
00000390: 1d61 dfbc fa14 88bb c8a0 0dbd 77ad 1abc
000003a0: 9196 393d 6ad1 9fbc 105d 6e3f 59c8 5c3f
000003b0: ff6d df3e 2a25 aa3d 45bf 8c3f 94f6 843e
000003c0: 0618 b9be 725d 21be 5fe4 853f 5176 86bc
000003d0: 89a9 97bc fb60 9cbb 0f73 e3bc 971a 2f3c
000003e0: 2aa0 923b e3c0 02bc 5b9e 9d3d 37c1 9ebd
000003f0: 4b9e b6be 0952 6c3c d422 afbe fce1 553c
0.03771847 -0.11285197 -0.036202613 0.08588796 -0.11496013 -0.09036208 0.40093693 -0.44988686
-0.2861397 -0.11734803 0.19469927 -0.1512002 -0.067556985 -0.06567049 0.015956651 0.28811634
0.33153751 1.2001588 0.533249 0.56161267 0.50087225 -0.1393648 -0.0073615243 0.04389712
0.020873556 -0.024130331 0.014155435 -0.013058472 -0.059501227 -0.047853567 -0.15544511 -0.0017329248
-0.04192754 -0.0013031529 0.07542361 -0.027303765 0.026142322 0.039076485 0.017598743 -0.16045186
0.030174313 -0.24997602 0.07456691 -0.7140926 -0.55850375 -0.28293756 -0.2130845 -0.6410575
-0.020845104 -0.025171062 -0.0053063617 0.2850227 0.8543968 -0.03556125 0.37879845 0.19235487
-0.17350367 0.84174526 0.15278937 0.1583026 1.1552873 -0.9791963 0.11252639 -0.010146337
-0.059778947 -0.094582796 0.00606398 -0.014111206 -0.04655498 -0.030085884 -0.21952331 -0.17628154
-0.0021825659 -0.029942285 -0.048185483 0.03958371 0.004927494 0.0058956435 -0.22678024 -0.020382693
-0.008684912 3.0325986e-05 -0.06772819 -0.019653609 -0.03451091 -0.029052757 0.025890607 -0.6871265
-0.11456168 -0.82870907 -0.39432013 -0.92925 0.34840685 -0.0216335 -0.07418602 -0.0063711503
0.016972613 0.107636414 0.030171137 -0.025257476 -0.040739115 0.006887774 -0.0022168828 0.0037113684
-0.005415528 -0.13698526 -0.06879173 0.02706289 -0.016434418 -0.0066398857 -0.029525459 -0.080678396
-0.23692657 -0.0072513637 -0.16852307 0.012482734 0.03651978 -0.04344978 -0.08052481 0.10024748
0.0661888 -0.006620172 -0.3512039 -0.06630239 -0.0066004284 -0.035705578 0.27702957 -0.06747867
0.04746036 -0.38166437 -0.43134654 -0.36285838 -0.4422378 -0.03836463 -0.01147058 -0.03152424
-0.019807255 0.045407556 0.05165336 -0.56474304 0.2667562 0.61019886 -1.2144394 -0.6870548
0.29224402 0.94197637 1.3857858 -5.3070227e-05 0.2104309 -0.09132861 -0.013861131 -0.19196643
0.1363915 0.01167766 -0.060343273 -0.016407209 -0.8995327 -0.25322977 -0.07247394 0.012453511
0.07075651 0.0022546132 0.05058665 -0.049097866 -0.2436716 0.090727165 -0.03001025 0.04489486
0.02967458 0.014555151 -0.047135685 -0.09684516 0.06955075 0.026737703 -0.13298006 0.0063568274
-0.047690645 -0.37446198 -0.30773345 -0.335395 0.9263623 -0.42306116 -0.38824475 0.26823294
0.44041622 0.098939426 0.013650804 -0.008891715 0.04949039 0.00056556467 -0.17526124 0.04587811
-0.0506493 -0.35136828 -0.9130845 0.022120196 -0.092281096 0.02339887 0.15712702 0.05161132
0.096711285 -0.508064 0.083506465 -0.13584998 0.05895319 0.14349037 0.042164385 0.062935464
0.09587363 -0.3768757 0.000717308 -0.02709065 -0.0131266415 0.09070852 -0.18736345 -0.02711008
0.49277925 1.435237 0.78521365 -0.20912477 0.021773227 -0.017160373 0.012690797 -0.0209571
-0.010714725 0.15051909 0.044030704 -0.28374854 -0.027267987 -0.004152891 -0.03457716 -0.009440771
0.045309607 -0.019509036 0.9311075 0.86243206 0.43638608 0.0830787 1.0995871 0.25969374
-0.3615114 -0.15758303 1.0460318 -0.01641384 -0.018513458 -0.004772303 -0.027764825 0.010687492
0.0044746595 -0.007980558 0.076962195 -0.077516966 -0.35667643 0.014423856 -0.3420626 0.013054367
