models/400-games-model.onnx (onnx, 37455 bytes, 4 tensors)

linear1.bias f4 [512]
000000 8e 80 c4 bd 31 45 a2 bf dd 2b c7 bf 3c fe 85 3f
       -0.09594832 -1.2677366 -1.5560261 1.0468211
000010 1a 24 2d bf d1 c2 01 c0 c0 6b 2c 3e 27 00 8c be
       -0.6763321 -2.0275156 0.16837978 -0.27343866
000020 28 6c ab be f0 4f a3 be 85 76 94 be a6 65 37 bf
       -0.33480954 -0.31896925 -0.28996673 -0.7163948
000030 48 24 72 be 87 6d fe bf 0a 94 8b bd 53 ea 86 bf
       -0.23646653 -1.9877175 -0.068153456 -1.054026
000040 5f b3 6e be 87 3a 02 c0 be 02 d3 3e ac 8f 06 bf
       -0.23310612 -2.0348222 0.4121303 -0.52562976
000050 71 ed 3a bf 8e fe 91 bb 0e 7d 91 be bb ea 53 be
       -0.73018557 -0.004455394 -0.28415722 -0.20695011
000060 5f 5b 1a be 48 65 0f 3d cb 1c ed be f0 51 a5 bd
       -0.15073918 0.0350087 -0.4631103 -0.08072269
000070 8a bf fb bd 49 a4 0c bf dd 8c 9f bd 0d 2f 6f be
       -0.122923926 -0.5493818 -0.077905394 -0.23357792
000080 98 3e d6 be e9 cf 91 be b4 a9 d3 bd 97 f8 dc be
       -0.4184463 -0.28478935 -0.10335103 -0.4315841
000090 8d 53 c1 be 64 b5 1c be 43 58 c4 be f8 6a f6 3d
       -0.37759057 -0.1530357 -0.38348588 0.120321214
0000a0 04 08 d7 be e1 dd f4 bd 13 7f 01 c0 f0 5d f5 be
       -0.41998303 -0.119563825 -2.023381 -0.4792323
0000b0 99 5b 89 be a6 20 b1 be 5c a1 6c bf 53 af 10 bf
       -0.26827696 -0.3459522 -0.92433715 -0.56517524
0000c0 49 c4 23 3f cb 2c ed 3d b4 83 39 bf c6 50 51 be
       0.6397138 0.11580809 -0.7246659 -0.20440969
0000d0 a8 b8 76 bf 46 e1 f6 be a8 2e 97 be 0b 1e 37 be
       -0.96375513 -0.48218745 -0.29527783 -0.17882554
0000e0 8f 03 88 be 2f 23 e9 be bf bd 94 be 9d 4a ad bf
       -0.26565215 -0.45534655 -0.29051015 -1.3538395
0000f0 f9 15 b1 be ff e5 3c bf 89 c1 a5 be 30 d0 07 c0
       -0.34587076 -0.73788446 -0.32374218 -2.1220818
000100 4e b4 24 3e c7 d1 81 be 8a 13 3b bd 08 c2 0b bf
       0.16084406 -0.2535536 -0.04567293 -0.54592943
000110 ff aa a6 be 32 e9 a0 be e3 6a 28 be 92 d8 b8 bd
       -0.32552335 -0.31427914 -0.16447024 -0.090256825
000120 cb ce 1b c0 60 70 50 be f6 d3 1b be 21 e9 d2 bd
       -2.4344966 -0.20355368 -0.15217575 -0.10298372
000130 87 0a ab be b3 7e ea be 82 56 1a bf 23 64 6a bf
       -0.3340647 -0.4579979 -0.6028825 -0.91559047
000140 1c 1f fc bf 39 da 47 be 46 8b 0c bd d8 dd 53 be
       -1.9696994 -0.19516839 -0.03431251 -0.20690095
000150 42 91 da bd e1 00 5e be 14 a3 32 be a0 94 77 be
       -0.10672237 -0.21680023 -0.17445022 -0.2417779
000160 2d c6 d8 3b 89 26 9a be c2 f5 c3 be d0 9f 90 be
       0.0066154213 -0.30107525 -0.38273436 -0.28246927
000170 9f bc e6 be a7 d1 ef be b8 31 04 3b 42 62 99 be
       -0.4506578 -0.4683964 0.0020171236 -0.29957777
000180 a5 7c 09 c0 67 53 2a bd 13 eb ef 3d 31 29 cc bc
       -2.1482327 -0.041583445 0.11714759 -0.024921985
000190 41 ee 7a be fb 9c 23 bf 08 26 d1 be 2f 30 23 be
       -0.24504949 -0.6391141 -0.40849328 -0.1593635
0001a0 0b 74 a5 be 21 99 9e be 2b 79 7f 3f 01 91 b7 bc
       -0.32315096 -0.30976203 0.9979426 -0.02240801
0001b0 62 d2 89 bd 83 06 5b be ba 25 ed be 26 8b f4 bf
       -0.067295805 -0.21389203 -0.46317846 -1.9104965
0001c0 9b f5 67 be e0 b2 f1 be da 2e cc be d9 8d e5 bd
       -0.22652285 -0.47206783 -0.39879495 -0.11208696
0001d0 e6 34 cc bd 32 9c bf be 20 7e 64 bf 57 d5 c2 bf
       -0.09971027 -0.37423855 -0.8925495 -1.5221356
0001e0 19 fd a6 be 33 9e 48 bc b4 ab 92 be 84 10 92 bd
       -0.32614973 -0.012244749 -0.28646624 -0.07132056
0001f0 c3 72 ff be 56 f4 87 be 3a f0 a7 bf 6f 23 31 3e
       -0.49892244 -0.265536 -1.3120186 0.17298673
000200 4a b4 8f be f7 78 35 bd 60 e4 43 bf 2d 20 3a bd
       -0.28067237 -0.044304814 -0.7652035 -0.04544084
000210 87 ab 9d bf bb 3c 43 bf d1 4a 9d be a1 59 b0 bf
       -1.2317971 -0.7626454 -0.30721143 -1.3777353
000220 af c0 b4 be 76 dc a4 3f c8 eb 7b be df 96 ac be
       -0.35303256 1.2879779 -0.24601662 -0.33708856
000230 2b 7d 51 bf e4 0c 7b 3f 49 02 3b bd 3c 35 82 be
       -0.81831616 0.98066545 -0.045656476 -0.2543124
000240 20 1d 07 be 15 4a 0d bf e2 ac 34 3f 63 8f 89 bf
       -0.13194704 -0.55191165 0.705763 -1.0746883
000250 2e 10 22 bf ba e3 c6 bd 58 4c ea 3e 9c 8c 49 be
       -0.6330594 -0.09711404 0.4576137 -0.19682544
000260 0a 1e 71 bf 1d 89 83 bd 00 9d 8e be 67 d7 52 be
       -0.9418646 -0.06422637 -0.27854156 -0.20589982
000270 3e e5 9d be 9a 95 81 be f5 5b ba bf 4c ca 47 be
       -0.3083896 -0.2530945 -1.4559313 -0.19510764
000280 0e 2b 66 bd 61 37 9a bc 4b c8 37 be 4b 60 b3 be
       -0.056193404 -0.018825235 -0.179475 -0.35034403
000290 2a 0c e3 3f cf 72 b3 be 70 3c 1c bf cd 35 8e be
       1.7738087 -0.3504853 -0.6102972 -0.27775422
0002a0 3e 60 03 bf cc bb 8d be f9 0c 30 bf 0e cc e4 be
       -0.5131873 -0.2768234 -0.68769795 -0.4468693
0002b0 01 78 2e bf 25 6f 54 bf d1 12 0f bf 51 c0 be 3d
       -0.6815186 -0.82982093 -0.55888087 0.09314025
0002c0 76 db 70 bd 9e 8f fe be 2d df be bf 43 e5 da bd
       -0.058803044 -0.49718946 -1.4911858 -0.106882595
0002d0 9f 4a d2 be 57 88 90 be 90 29 c2 bf 6e 29 b4 be
       -0.41072556 -0.2822902 -1.5168934 -0.35187858
0002e0 a2 f4 05 bf 32 f6 dd be f4 07 98 bf fc 5e 6e 3e
       -0.52326405 -0.43351895 -1.1877427 0.23278421
0002f0 17 8a 5a be 01 c7 24 be 18 10 37 be 80 54 ad 3d
       -0.2134174 -0.16091539 -0.17877233 0.08463383
000300 22 6a d1 bd f1 38 12 bd b5 4f ad be 73 1c 9c be
       -0.10225321 -0.035698835 -0.33849874 -0.30490455
000310 8c 00 4a be 56 9d bb be 3a 56 34 be b5 94 b1 be
       -0.19726771 -0.36643475 -0.17611018 -0.34683767
000320 d5 e2 6d bf e2 c0 3e be c6 f3 44 bd 31 1f cf bd
       -0.92924243 -0.18628266 -0.048084043 -0.10113371
000330 a6 a4 e3 be 40 d6 f0 be 9d 36 1a bf a2 45 67 be
       -0.44461554 -0.4703846 -0.60239583 -0.22585157
000340 6d cb 91 bf c2 d1 3a bf 34 83 8d be 82 d3 9b be
       -1.1390206 -0.72976315 -0.27639163 -0.30434805
000350 f5 2c fc bf 34 07 b2 be 9c e0 2e be 7c f2 24 be
       -1.970122 -0.3477112 -0.17077869 -0.16108125
000360 b6 01 bd be 61 a2 66 be 68 27 20 be 76 1c be be
       -0.36915368 -0.2252288 -0.15640032 -0.3713109
000370 f7 b1 0b bf 8b 7d 7a be 0d 80 ab bf 7b ae d7 bd
       -0.5456843 -0.24461953 -1.3398453 -0.105313264
000380 c3 d9 df be 9e 53 01 bf 3d 15 e9 bf 94 fc 52 bf
       -0.43720827 -0.50518215 -1.8209606 -0.82416654
000390 cd 4b 88 3e bf c7 48 be e6 2d ae be 10 5b ce be
       0.2662033 -0.19607447 -0.34019393 -0.4030385
0003a0 55 63 f6 3d e4 bd 9e be ec 45 75 be b2 b1 cf be
       0.12030665 -0.3100425 -0.23952454 -0.40565258
0003b0 c9 dd 54 be 4b 8a 80 be d5 91 18 be b8 ce 0f bf
       -0.2078773 -0.2510551 -0.1489938 -0.561748
0003c0 55 95 75 be dd 7f 87 be 93 e9 84 bd 8b 61 06 c0
       -0.23982747 -0.2646474 -0.06489863 -2.0997036
0003d0 20 ae 7a 3e be 53 53 bf 0a 52 c1 be 7c 37 8a be
       0.24480486 -0.82549655 -0.37757903 -0.26995456
0003e0 26 8b ac be c8 9f 94 be 86 6f 7b be a0 36 da be
       -0.33699912 -0.29028153 -0.24554262 -0.426198
0003f0 c6 0a b9 bf ca be 6e bf 6c 35 ac be 30 35 95 be
       -1.4456413 -0.9325987 -0.33634508 -0.2914214

linear2.bias f4 [3]
000000 65 1e 57 bf c0 53 d3 3d 45 0c 1d 3e
       -0.84030753 0.103187084 0.15336712

onnx::MatMul_12 f4 [14, 512]
000000 ec 5c 4c be 23 87 ee 3e 5b a8 f3 3e f4 31 8e be
       -0.19957322 0.46587476 0.47589383 -0.27772486
000010 5c a9 19 be d9 32 05 3f 50 70 42 3f f3 87 6f bf
       -0.15006012 0.5203071 0.75952625 -0.9356682
000020 91 21 9f 3d ea d2 6a 3e ad 11 8c bc 44 cc 5f be
       0.07770074 0.2293202 -0.017098272 -0.21855265
000030 e5 56 0b be 0a 84 09 bf 02 e8 8e be 7e ab 47 bf
       -0.13607366 -0.537171 -0.27911383 -0.7799605
000040 d4 81 7b be 2c ce 2a 3f 2f 8b 7c 3d 1a 19 c1 3c
       -0.24561244 0.66720843 0.061656173 0.02357154
000050 9e cd 2b be 3b 85 1a bc 3e 09 64 3e b5 ba 54 3e
       -0.16777655 -0.009431179 0.2226915 0.20774348
000060 b3 da 7b 3d 1e 4c ac bc 14 56 1c bf cb f8 99 bc
       0.061487865 -0.02103239 -0.61068845 -0.018795392
000070 20 0b da 3d 84 b3 85 be e9 3c e3 be e3 a0 3e be
       0.10646653 -0.26113522 -0.44382408 -0.18616061
000080 cb 73 41 be 41 21 4c be aa d7 cc be f9 34 1a 3e
       -0.18891828 -0.1993456 -0.4000829 0.1505927
000090 f7 e5 7c be 3f 26 73 be f8 56 bb be db 5a cd be
       -0.246971 -0.23745058 -0.3658979 -0.4010838
0000a0 89 de b6 3e 15 40 9a bd 49 8d 52 3f 6f 7a c4 3f
       0.35716656 -0.07531754 0.82246834 1.5349864
0000b0 bb b7 cf be 94 82 18 bc ba 13 a8 3d c4 a0 ab bd
       -0.40569863 -0.009308476 0.082068875 -0.08380273
0000c0 a4 4f d1 be 92 69 28 be 7c b9 56 3f f4 08 f3 bd
       -0.40881073 -0.16446522 0.83876777 -0.11866942
0000d0 bf 37 c1 be 64 31 81 bd a6 1b 1c bf a0 8c ee bc
       -0.37737843 -0.06308249 -0.6097969 -0.02911979
0000e0 47 ae 06 3e de 43 46 bf e7 58 82 be c2 54 43 be
       0.13152419 -0.7744731 -0.25458452 -0.19075301
0000f0 a2 95 cb 3e 42 b0 1c 3e 6d 4f 0f bf 5c b1 45 bf
       0.39762598 0.15301612 -0.5598057 -0.77223754
000100 c3 03 d4 be 9c dd 36 be 84 0b af be 33 4f 86 bf
       -0.4140912 -0.17857975 -0.34188473 -1.049292
000110 53 16 93 bd 6f ed f4 3d 71 3e 7c 3c 75 c3 ed be
       -0.071819924 0.11959349 0.015395747 -0.46438184
000120 40 bf ec 3e 01 89 1c bf ea 93 cd be 50 78 db be
       0.46239662 -0.6114655 -0.40151912 -0.4286523
000130 06 cb 00 bf 84 ea e1 bd 0b d9 83 3e f7 49 b2 bf
       -0.5030979 -0.110310584 0.25751528 -1.3928822
000140 54 61 1c bf 7a a3 84 be a9 d2 cf bb 97 d5 11 3e
       -0.6108601 -0.25905973 -0.0063422513 0.14241634
000150 cf 4a bb be e1 64 20 bc c0 32 b0 be 03 89 67 be
       -0.36580512 -0.009789676 -0.3441372 -0.2261086
000160 41 d4 a2 be e7 a4 bd be c5 a0 38 3e f9 54 03 be
       -0.31802562 -0.37039873 0.18030079 -0.12825383
000170 50 94 51 bf e1 88 b6 3e 31 5e 17 3e f1 11 4f 3e
       -0.8186693 0.35651305 0.14782025 0.20221688
000180 36 8b ce bf 82 c9 d8 be c2 3e ae be 83 bc 51 be
       -1.6136234 -0.42341238 -0.34032255 -0.20482068
000190 ca 27 7f be d3 1d 00 3f 4a ee f1 3f 20 c5 8f be
       -0.24917522 0.5004551 1.8900845 -0.28080082
0001a0 b3 9f 81 bf b4 42 eb be 52 8e 30 3e 1d 42 86 3f
       -1.0126861 -0.45949328 0.17241791 1.0488926
0001b0 44 91 83 bd a6 3c 15 3e 8a d4 e3 be 10 92 2e bf
       -0.064241916 0.14573917 -0.44498092 -0.68191624
0001c0 ec 97 01 bf 5c 67 4e bf cc da 84 3d 84 9c 84 bd
       -0.5062244 -0.80626464 0.06487045 -0.064751655
0001d0 c8 5e 03 be d2 13 fc 3d 08 11 3c 3d 93 ab 77 bf
       -0.12829125 0.12308468 0.04591468 -0.96746176
0001e0 d0 46 0a be 22 62 2a be 7d e6 29 bf d7 9d 5e 3e
       -0.13503575 -0.16638997 -0.6636732 0.21739899
0001f0 56 14 fa 3e 58 84 55 3f b6 76 76 bf 0f eb be 3e
       0.4884364 0.83405066 -0.9627489 0.3728871
000200 03 07 a3 bc 3e 12 93 bd 87 aa 13 3f ad 7e 79 3d
       -0.019900804 -0.07181214 0.5768208 0.060911823
000210 8c bf 5f 3f 8e 8b e5 3d e3 83 b4 bd ec d9 e9 be
       0.8740165 0.112082586 -0.08814218 -0.45674074
000220 b4 95 b2 be e7 c7 7c bf c9 e6 f0 bd f9 da 05 be
       -0.3487984 -0.98742527 -0.11762769 -0.13071813
000230 47 c8 24 bd 61 86 77 3e 34 9e 64 3c 5c 81 04 be
       -0.04023006 0.24172355 0.013953734 -0.12939972
000240 85 9b 0d 3e 11 7a 46 3e 32 45 42 3f b7 c7 6b 3d
       0.13828857 0.19382502 0.75886834 0.05756351
000250 00 c3 af be 26 cf 6f 3d fc 4e 55 bf 7c 1e 98 be
       -0.3432846 0.05854716 -0.83323646 -0.29710758
000260 c7 21 ee be d6 97 25 3e 61 5a 22 be 64 75 e0 be
       -0.46510145 0.16171202 -0.1585479 -0.43839562
000270 b1 43 28 3e 01 27 36 bc 8a 1f cf 3e 89 6a 78 be
       0.16432072 -0.011117698 0.4045375 -0.2425939
000280 ee 86 14 bc 90 07 e5 3d 4c 44 98 be 08 91 fc bd
       -0.009065373 0.11183083 -0.29739606 -0.1233235
000290 b8 50 1d 3f 69 05 98 be b9 cc 5e bf 65 26 06 3e
       0.6145129 -0.29691628 -0.8703113 0.13100584
0002a0 41 61 92 bf c0 4b 95 bd ad 4a 44 be b6 5d 02 bf
       -1.143593 -0.07289839 -0.19169112 -0.5092424
0002b0 61 74 83 3e f0 08 75 be b7 19 b8 be c6 61 4a bd
       0.25674728 -0.2392919 -0.3595712 -0.04940965
0002c0 5b bc e1 3e 12 73 ac be 1a 23 7f be 84 0b 17 bd
       0.44089016 -0.33681542 -0.24915734 -0.036876217
0002d0 e5 b5 e2 be 6d 64 d4 bd 71 d1 4b 3e 62 cb 93 bd
       -0.442794 -0.10370717 0.19904114 -0.072165266
0002e0 9b 1f 34 bd e2 e7 03 40 ff 72 6b 3e b9 0c 73 bc
       -0.043975454 2.061028 0.22993086 -0.014834576
0002f0 a9 d0 e8 bd 4f ab 2c be a8 44 75 bd 39 60 ab bd
       -0.11367924 -0.16862224 -0.05987993 -0.083679624
000300 68 eb b6 be 28 6f 94 be a5 41 ab be 82 25 31 bf
       -0.35726476 -0.28991055 -0.3344852 -0.6919786
000310 b4 f0 ab be 00 5b e1 3d 18 50 82 3d 74 3f 40 3d
       -0.3358208 0.11003685 0.06362933 0.046935514
000320 bd 75 fd bc f5 7d a2 3d ae 46 91 be e9 3d ba be
       -0.030939931 0.07934181 -0.28374237 -0.3637536
000330 d1 e3 44 be 2d f8 f0 be 2a b4 8b bf b6 a2 f8 be
       -0.1922753 -0.47064343 -1.0914357 -0.4856164
000340 00 97 ab 3e 3d a4 fb be cf 70 aa 3d e5 e3 c1 bb
       0.3351364 -0.4914874 0.08322298 -0.0059170597
000350 cf f2 c0 3e e2 b7 69 3e ba 1b e1 3d 75 ef 0c be
       0.37685248 0.22824052 0.109916165 -0.1376322
000360 8c 36 de 3d 99 5b 1f 3e 2c e3 2a 3d 66 aa 4c 3e
       0.10850248 0.15562285 0.041720554 0.19986877
000370 77 59 05 bf b1 b4 be be 11 31 53 bf d3 af f8 bd
       -0.5208964 -0.37247232 -0.82496744 -0.12142911
000380 93 6c 02 be 4a 84 4e 3e 0e 6e 35 3f c6 77 16 3e
       -0.1273673 0.20167652 0.70871055 0.14694127
000390 6e 37 24 3f 73 d6 17 be 94 ff 90 bd 3d 25 74 be
       0.6414708 -0.148279 -0.07079998 -0.2384233
0003a0 b8 ff 61 bf e6 b9 1b bf d2 58 d4 37 2f ab 58 3d
       -0.8828082 -0.60830534 2.531373e-05 0.05289763
0003b0 7d 1a 08 3d 99 ea a2 bf 24 b0 07 3e 6c 95 cc 3e
       0.033228386 -1.2727844 0.13250786 0.3995775
0003c0 c5 55 31 be ad dd da 3e 2d cf 26 bd 1e 52 15 3f
       -0.17317875 0.4274725 -0.040724922 0.58328426
0003d0 96 dd 93 3d 63 61 f1 3e e9 c9 90 3d 49 af e8 bd
       0.072199985 0.47144613 0.07069761 -0.11361558
0003e0 23 06 85 be 00 bb 0c 3d f0 d8 8e be a2 8f d0 be
       -0.25981244 0.034358025 -0.27899885 -0.40734583
0003f0 b1 49 61 bf 9f 5e e2 3d 30 c2 1c bf 51 e1 b4 be
       -0.8800307 0.11053204 -0.61233807 -0.35328153

onnx::MatMul_13 f4 [512, 3]
000000 af 7e 1a 3d ef 1e e7 bd 31 49 14 bd a1 df 26 3e
       0.03771847 -0.11285197 -0.036202613 0.16296245
000010 c1 26 fe 3d 72 90 a9 3e 57 42 d4 bb 5a 61 83 3d
       0.124097355 0.33118016 -0.006477635 0.06415053
000020 4f 0f 3b 3e da 55 c2 3d 6a 2a 0e 3e cc f2 a9 be
       0.18267559 0.09489031 0.13883367 -0.33193052
000030 51 5b 8a bd 40 7e 86 bd 86 b7 82 3c fc d7 36 3e
       -0.067556985 -0.06567049 0.015956651 0.17855829
000040 8a 9f e8 bc 1a 2c a8 3f 3d 1c ce 3e f2 2c 30 be
       -0.028396387 1.3138459 0.4025592 -0.17204645
000050 fb 84 38 3f a5 b5 0e be f1 38 f1 bb 77 cd 33 3d
       0.7207791 -0.1393648 -0.0073615243 0.04389712
000060 05 ff aa 3c f9 ac c5 bc 33 ec 67 3c 34 f3 55 bc
       0.020873556 -0.024130331 0.014155435 -0.013058472
000070 8f b7 73 bd 1a 02 44 bd 01 2d 1f be 4f 23 e3 ba
       -0.059501227 -0.047853567 -0.15544511 -0.0017329248
000080 36 bc 2b bd 8e ce aa ba b2 77 9a 3d 25 ac df bc
       -0.04192754 -0.0013031529 0.07542361 -0.027303765
000090 6c 28 d6 3c aa 0e 20 3d 3d 2b 90 3c 2c a7 04 be
       0.026142322 0.039076485 0.017598743 -0.12954396
0000a0 5d f1 11 3f 04 6c 1a be 57 a5 83 bd ce 8e 45 bf
       0.57008916 -0.15080267 -0.064280204 -0.7717103
0000b0 7e 46 36 bf 8d ea cf be 02 d3 9b be b0 81 a5 be
       -0.7120131 -0.40608636 -0.30434424 -0.32325506
0000c0 5a c3 aa bc 8b 33 ce bc fd e0 ad bb eb 7d 5f 3e
       -0.020845104 -0.025171062 -0.0053063617 0.21825378
0000d0 9b d7 c5 3f 80 6a 81 3e 56 f3 d2 3e dc e5 4b bd
       1.5456423 0.25276566 0.41201276 -0.049779758
0000e0 48 a8 c0 be 9e 7c 57 3f d1 74 1c 3e 14 1a 22 3e
       -0.37628388 0.84174526 0.15278937 0.1583026
0000f0 e7 c2 d1 3f 7d 46 b0 bf 82 f8 37 bd d2 3c 26 bc
       1.6387604 -1.3771511 -0.04491473 -0.010146337
000100 c5 da 74 bd a0 b4 c1 bd 5a b4 c6 3b b0 32 67 bc
       -0.059778947 -0.094582796 0.00606398 -0.014111206
000110 6f b0 3e bd ac 76 f6 bc b8 ca 60 be 26 83 34 be
       -0.04655498 -0.030085884 -0.21952331 -0.17628154
000120 61 09 0f bb 86 49 f5 bc 24 5e 45 bd 87 22 22 3d
       -0.0021825659 -0.029942285 -0.048185483 0.03958371
000130 d1 76 a1 3b 3e 30 c1 3b 14 39 68 be 9b f9 a6 bc
       0.004927494 0.0058956435 -0.22678024 -0.020382693
000140 29 4b 0e bc 8f 64 fe 37 14 b5 8a bd 9b 00 a1 bc
       -0.008684912 3.0325986e-05 -0.06772819 -0.019653609
000150 50 5b 0d bd 0c 00 ee bc 8a 18 d4 3c f7 aa 12 bf
       -0.03451091 -0.029052757 0.025890607 -0.5729212
000160 13 82 5e bd 47 17 4b bf 05 d0 af be 80 17 7b be
       -0.054323267 -0.79332393 -0.34338394 -0.24520683
000170 a7 b1 06 3e bd 38 b1 bc d7 ee 97 bd 15 c5 d0 bb
       0.13153706 -0.0216335 -0.07418602 -0.0063711503
000180 26 0a 8b 3c 7b 70 dc 3d 76 29 f7 3c c4 e8 ce bc
       0.016972613 0.107636414 0.030171137 -0.025257476
000190 0f de 26 bd d6 b2 e1 3b 1f 49 11 bb 6e 3a 73 3b
       -0.040739115 0.006887774 -0.0022168828 0.0037113684
0001a0 be 74 b1 bb dd 45 0c be ae e2 8c bd fe b2 dd 3c
       -0.005415528 -0.13698526 -0.06879173 0.02706289
0001b0 79 a1 86 bc 66 93 d9 bb 60 df f1 bc b7 3a a5 bd
       -0.016434418 -0.0066398857 -0.029525459 -0.080678396
0001c0 e1 9c 72 be d9 9c ed bb 50 91 2c be 62 84 4c 3c
       -0.23692657 -0.0072513637 -0.16852307 0.012482734
0001d0 c4 95 15 3d 66 f8 31 bd 31 ea a4 bd 8d 4e cd 3d
       0.03651978 -0.04344978 -0.08052481 0.10024748
0001e0 fe 8d 87 3d 07 ee d8 bb ff d0 b3 be 8c c9 87 bd
       0.0661888 -0.006620172 -0.3512039 -0.06630239
0001f0 68 48 d8 bb 03 40 12 bd a1 82 ba 3e 42 9f 07 3e
       -0.0066004284 -0.035705578 0.36427787 0.13244346
000200 4d e8 02 3d eb 41 91 be 7d 93 a5 be 77 e7 a5 be
       0.03195982 -0.28370604 -0.32339087 -0.32403156
000210 fe 6c e2 be 3b 24 1d bd 19 ef 3b bc 90 1f 01 bd
       -0.4422378 -0.03836463 -0.01147058 -0.03152424
000220 d3 42 a2 bc 46 fd 39 3d 6c 55 06 be ca 6c c3 be
       -0.019807255 0.045407556 -0.13118523 -0.38168937
000230 d7 6d 46 3f 70 af 1a 3f 46 91 37 bf 2c 52 2a bf
       0.7751135 0.60423946 -0.71706045 -0.66531634
000240 89 50 d7 3d ee fc 88 3f 11 62 c1 3f b9 97 5e b8
       0.10513408 1.0702188 1.5108052 -5.3070227e-05
000250 33 7b 57 3e 7f 0a bb bd ad 08 2a 3e a9 25 d0 bd
       0.2104309 -0.09132861 0.16604872 -0.10163433
000260 bd 64 38 be a8 53 3f 3c 82 2a 77 bd 69 68 86 bc
       -0.18007179 0.01167766 -0.060343273 -0.016407209
000270 1f 45 46 bf c6 f5 f6 be 18 5b de be d0 09 4c 3c
       -0.7744922 -0.48234385 -0.43428874 0.012453511
000280 ca e8 90 3d 22 c2 13 3b f2 33 4f 3d d8 1a 49 bd
       0.07075651 0.0022546132 0.05058665 -0.049097866
000290 0c 85 79 be 2a cf b9 3d 0e d8 f5 bc ac e3 37 3d
       -0.2436716 0.090727165 -0.03001025 0.04489486
0002a0 1b 18 f3 3c ba 78 6e 3c 59 11 41 bd c1 56 c6 bd
       0.02967458 0.014555151 -0.047135685 -0.09684516
0002b0 a0 70 8e 3d 07 09 db 3c ed 2b 08 be ef 4c d0 3b
       0.06955075 0.026737703 -0.13298006 0.0063568274
0002c0 44 57 43 bd d8 99 42 be 07 f1 a5 bd 7e 7c d9 3d
       -0.047690645 -0.19003999 -0.08102613 0.10619448
0002d0 4c a8 85 3f ea d7 96 be e9 b4 35 bf d4 55 89 3e
       1.0441985 -0.29461604 -0.7097917 0.26823294
0002e0 3c 7e e1 3e c1 a0 ca 3d 9f a7 5f 3c 8e ae 11 bc
       0.44041622 0.098939426 0.013650804 -0.008891715
0002f0 6f b6 4a 3d 7d bd fb 3c d5 dd 1d be 08 70 12 bb
       0.04949039 0.030730003 -0.15416653 -0.0022344608
000300 82 83 ad bd 7e ab 89 bf 86 ae 6f bf 6a 35 b5 3c
       -0.08472349 -1.075546 -0.93625677 0.022120196
000310 df fd bc bd fd ae bf 3c e8 e5 20 3e 64 66 53 3d
       -0.092281096 0.02339887 0.15712702 0.05161132
000320 91 10 c6 3d a2 d9 f0 be 56 53 75 3e 02 03 05 bf
       0.096711285 -0.4704104 0.23957571 -0.51957715
000330 e6 78 71 3d 24 ef 12 3e 90 b4 2c 3d 4f e4 80 3d
       0.05895319 0.14349037 0.042164385 0.062935464
000340 65 59 c4 3d da f5 c0 be ba 09 3c 3a 36 ed dd bc
       0.09587363 -0.3768757 0.000717308 -0.02709065
000350 20 11 57 bc 63 c5 b9 3d 34 dc 3f be f5 15 de bc
       -0.0131266415 0.09070852 -0.18736345 -0.02711008
000360 ee 36 39 3e 9e 17 c5 3f 7b a2 92 3e ce 24 56 be
       0.1808736 1.5397832 0.28639588 -0.20912477
000370 c4 5d b2 3c e9 93 8c bc 10 ed 4f 3c 39 ae ab bc
       0.021773227 -0.017160373 0.012690797 -0.0209571
000380 d0 8c 2f bc ad 21 1a 3e 8a 59 34 3d 7d 47 91 be
       -0.010714725 0.15051909 0.044030704 -0.28374854
000390 1d 61 df bc fa 14 88 bb c8 a0 0d bd 77 ad 1a bc
       -0.027267987 -0.004152891 -0.03457716 -0.009440771
0003a0 91 96 39 3d 6a d1 9f bc 10 5d 6e 3f 59 c8 5c 3f
       0.045309607 -0.019509036 0.9311075 0.86243206
0003b0 ff 6d df 3e c7 f6 3e 3e 4a 14 c4 3f 7f 61 ce 3e
       0.43638608 0.18648826 1.5318692 0.4030876
0003c0 1a a7 72 be d3 29 e4 bd 11 c9 a6 3f 51 76 86 bc
       -0.23696557 -0.1114079 1.3030111 -0.01641384
0003d0 89 a9 97 bc fb 60 9c bb 0f 73 e3 bc 97 1a 2f 3c
       -0.018513458 -0.004772303 -0.027764825 0.010687492
0003e0 2a a0 92 3b e3 c0 02 bc 5b 9e 9d 3d 37 c1 9e bd
       0.0044746595 -0.007980558 0.076962195 -0.077516966
0003f0 63 87 0e bf d2 98 e2 be 28 cc ec be fc e1 55 3c
       -0.55675334 -0.44257218 -0.4624951 0.013054367
