models/5-games-model.onnx (onnx, 37455 bytes, 4 tensors)

linear1.bias f4 [512]
00000000: 0854 883e cceb 0e3e d607 67be 20b0 873d
00000010: 0578 4ebe d954 b83d d814 cdbd 1e68 8b3d
00000020: b1e9 c1bd 1db1 24be a3de 86bd 6062 73be
00000030: a00a 893c a507 57bd 715f 873d c533 c2bd
00000040: 5fb3 6ebe a11e 303c 28d7 303e 9be6 6abe
00000050: 6b0e da3d 8133 6e3e 56f0 fe3c 5cda 843d
00000060: 283a 483e 69ac 1e3e fb35 57be cb69 413e
00000070: 7b43 6c3e 4f48 9c3d ab19 6f3e 6284 32bd
00000080: a918 8f3d 51a3 f23d 72f0 713e 3e61 2bbe
00000090: 812b c2bd 8e66 3bbd 2f33 19be c0f3 183e
000000a0: 2706 63be 2f47 803e f703 34be 9ed4 25be
000000b0: 46fa 65be 2dda 32be 8233 3fbe f350 7ebe
000000c0: bb2b 1abd 5246 203e 72f4 003c fe61 683e
000000d0: 849c af3d fc79 81be ffbc 883e 6f9b dabd
000000e0: 3bd5 18be 6b56 1fbe 15f3 86be aeac 03be
000000f0: c0ef b73d 1108 5abd a7a3 57bd 636b 3ebe
00000100: 74bf 7e3a 2240 843e d98b ed3d 3a50 aa3d
00000110: 6e35 64be b26f 893e 1ee9 953d ad75 7b3d
00000120: 1bbe 1e3e 2752 753e 37b0 5c3e 58fd 87bd
00000130: 93e1 453e a28b 663d 6f3e 1dbe 5d7f 69be
00000140: e9b6 0fbe 34a5 9d3d 0c43 d73d 254e 6f3e
00000150: 0cf1 593d 8851 263d 0691 363e a094 77be
00000160: 9348 393e 2131 1cbe 4d5a 623e 191a c63d
00000170: 3696 adbc 3384 1ebe 31f9 193e 5e6b d23d
00000180: dda2 e13c 7736 1cbe 8e7d 7c3e 54a2 a43d
00000190: 9dda 2b3e 8e50 2dbe 1f71 e6bd 69f4 3e3e
000001a0: fe38 0cbd f7f7 42be d5f3 753e 4e40 383e
000001b0: 1101 313d 9c6e 783e f576 5c3d a26d c2bd
000001c0: 6588 e1bd 3bc7 5dbe 8125 bdbd 422a 1b3e
000001d0: 1903 963d d4ec 37be 935b 6ebe 90e8 11be
000001e0: 7055 c0bd 9a49 0b3e 285f ad3d a583 2b3e
000001f0: 5d77 393e d77d d13d 89a3 2abe 6828 19be
00000200: 54d2 52be 53dc 493e 6958 05be b984 543e
00000210: 13e9 18be 19d6 51be be8c 9e3b 8987 55be
00000220: 21bc 593c 8a6a 5a3d 7e6d 223b 81be 01be
00000230: 0c8b 83bd 60fe 5abe b646 1e3e 8996 c7bd
00000240: d580 183e f4de 9bbd af9a 9abc 94e8 87be
00000250: 7f93 873b 5e34 473e dfcc e83d 0cbf 09b9
00000260: feb2 51bc 88e7 503e 13bb 0c3e e686 943d
00000270: 90bf 213d 3f3d 6bbd 036f 6ebe cf1b 883c
00000280: d8e5 383e e1ba 5c3e 2ae1 283c ec58 83be
00000290: 0935 98bd 9c3d eb3d e4ff 9abd d7cd 4dbe
000002a0: 594a 163e ec97 7a3e 9fbc f43d 143f 22be
000002b0: c254 0bbe a51f 6abe b4e7 20be ab00 14be
000002c0: 01d7 4c3d ee09 4bbb 5767 1fbe c355 4a3e
000002d0: d524 27be 1493 20bd b947 073e 23a4 4cbe
000002e0: 103d 1bbe 6e63 0cbc 4e7f 23be 089d 1bbe
000002f0: 627d 2abe 63a0 343d 754e 2cbe a087 823e
00000300: f5ac 943b 66e8 d43d ea31 55bd 401c 55be
00000310: a41f c0bc 0277 32be 8ae0 533e 09a7 45be
00000320: 56cf fe3d 2549 4e3e afce fb3d 082c 6e3e
00000330: 7425 6f3d b938 1fbe 5f28 183e 99e6 b2bd
00000340: 6aa3 84be 8f60 123d 8a8b 2ebd 30da 0f3d
00000350: 3b9e 11be 1ce3 82bd 5ea2 4c3d e4cb e53d
00000360: 45b2 753e 292b 1a3e f50f 193e 6920 b63c
00000370: 56bb 983d f15d 023e 1b10 323c e55c aa3d
00000380: 478e 92bb 4e46 4c3e de04 83be a591 083d
00000390: 377f 79be 066a d5bd a5a9 c4bd 0206 d83d
000003a0: b7c9 87be 509d 06be 7915 a1bd 1849 833e
000003b0: 07ba f4bc be9a 583d 52c2 0e3e d375 883c
000003c0: 0c9a 023d 5ea1 6b3e 317b 4f3e 49e8 04bc
000003d0: 0149 7d3c 359e 29be 7c69 ea3d 6276 54be
000003e0: c7b6 5cbe c3c6 133b 59c8 fe3c 995c ffbd
000003f0: d4f5 2d3b 0c23 dbbd 4f49 f63c 5f28 853d
0.2662661 0.13957137 -0.22561583 0.0662539 -0.20162971 0.090005584 -0.10013741 0.06806968
-0.09468401 -0.16083188 -0.06585433 -0.23767996 0.0167287 -0.052497525 0.06610001 -0.094825305
-0.23310612 0.01074949 0.17269576 -0.22939532 0.10647281 0.23261835 0.03112046 0.06486961
0.19553435 0.15495457 -0.21016686 0.18888013 0.23072617 0.07630979 0.23349635 -0.04358328
0.069871254 0.118475564 0.23626879 -0.16736314 -0.09480954 -0.0457521 -0.14960931 0.14936733
-0.22170316 0.2505431 -0.17579637 -0.16194388 -0.22458753 -0.1746604 -0.18671992 -0.24835567
-0.03763936 0.15651825 0.00787078 0.22693631 0.08574775 -0.2528838 0.26706693 -0.10674178
-0.14925091 -0.1556031 -0.26357332 -0.12858841 0.089812756 -0.05323035 -0.052646305 -0.18595652
0.000971786 0.2583018 0.115989394 0.08316083 -0.22286007 0.2684303 0.07319854 0.06139152
0.15502207 0.2395712 0.21551596 -0.06640118 0.19324331 0.056285508 -0.15355848 -0.22802491
-0.14034618 0.076975256 0.10510835 0.23369654 0.053208396 0.040605098 0.1782876 -0.2417779
0.18094091 -0.15253116 0.2210476 0.096729465 -0.02118979 -0.15480117 0.15036465 0.10274385
0.02754348 -0.15255152 0.2465727 0.08038774 0.16782613 -0.1692526 -0.11252045 0.18647923
-0.03423404 -0.19039904 0.24018796 0.1799328 0.043213908 0.24260944 0.053824384 -0.09493567
-0.11012343 -0.21658032 -0.09235669 0.15152839 0.073248096 -0.17961437 -0.2327712 -0.14248872
-0.09391296 0.13602296 0.08465415 0.16749437 0.1811194 0.1022908 -0.16663946 -0.1495682
-0.20588046 0.19712953 -0.13022007 0.20753755 -0.14932661 -0.20491828 0.004838555 -0.20852484
0.013289482 0.05332426 0.00247845 -0.12670328 -0.064230055 -0.21386099 0.15456662 -0.09745509
0.14892896 -0.07610884 -0.018872587 -0.2654463 0.004137456 0.1945357 0.11367201 -0.00013136509
-0.012799023 0.20400822 0.13743238 0.07252292 0.03948933 -0.057431456 -0.23284535 0.016614823
0.18056428 0.21555664 0.01030759 -0.2565378 -0.07431991 0.114863604 -0.075683385 -0.20098053
0.14676799 0.24472016 0.11950039 -0.15844375 -0.13606551 -0.22863634 -0.15713388 -0.1445338
0.05000973 -0.003098126 -0.15566765 0.19759278 -0.16322644 -0.039202765 0.13210954 -0.19984488
-0.15160012 -0.008568628 -0.15966532 -0.15196621 -0.16649392 0.04409827 -0.16826804 0.254941
0.0045372196 0.10395889 -0.052049555 -0.20811558 -0.023452587 -0.1742821 0.20691124 -0.19302
0.1244189 0.2014509 0.12295281 0.23258984 0.058385327 -0.15548982 0.1485915 -0.08735389
-0.25905925 0.035736617 -0.042613544 0.03512019 -0.14220516 -0.06390974 0.049959533 0.1122053
0.23993786 0.15055527 0.14947493 0.022232251 0.074576065 0.12731148 0.010868098 0.083184995
-0.004472527 0.19948694 -0.2558965 0.033342022 -0.24364935 -0.10420613 -0.096026696 0.10548021
-0.26521084 -0.13145947 -0.07865424 0.25641704 -0.029873861 0.05288195 0.13941315 0.016657745
0.03188519 0.23010775 0.20261838 -0.008112022 0.0154593 -0.16564257 0.11445901 -0.20748284
-0.21554099 0.002254889 0.031101393 -0.124688335 0.002654423 -0.10700044 0.030064253 0.06501841

linear2.bias f4 [3]
00000000: f79d 003d 0a84 b2bc 9e08 03bd
0.031400647 -0.021791477 -0.03199064

onnx::MatMul_12 f4 [14, 512]
00000000: ed90 a4bd 2a71 89bc 0221 5b3e 575f 3fbe
00000010: d8b6 d4bd 5729 75be 7130 7b3d 2ed4 86be
00000020: 15ff 4abd b829 873e f0da 813d 7ae5 77be
00000030: d237 123e a7a2 2fbe 7f03 0e3e acbe bb3d
00000040: d481 7bbe 8927 393e baf1 63be c41f 4d3e
00000050: f201 843e 11cb 49be e217 533e b6f9 44bc
00000060: 9c0f fe3d ae1b 80be 7829 d7bc 86dc c03c
00000070: cea8 263e 25a0 fdbd d526 613e 62cf e33d
00000080: 6b0b c4bd 6b58 203e bae3 83be 86b2 fc3c
00000090: 1776 00be 3099 4bbd dae1 653b ee07 bf3c
000000a0: 4b24 8a3e 423d 383e 76b7 22be 0f46 003e
000000b0: 0df6 383d 0065 0c3e b739 133e 5ae2 453e
000000c0: 238a 59bc 67d6 a73d 162e 10bd f131 9d3d
000000d0: 3c6a 00be 9659 fcbd 0785 0dbe 5277 08bb
000000e0: e0b1 3f3e 00fb 2cbe e758 82be 6d05 f63d
000000f0: c140 69be 9420 ddbd 9b2c 05be 5077 a23d
00000100: 2f2e ad3d c407 b2bd 2f35 2dbe b52e dcbd
00000110: 8f6b 88be c8e2 3bbe 96e0 c93d 88b0 853e
00000120: bb94 af3d efa5 4cbe 6650 3fbe 6300 443d
00000130: cca6 75be fdde 98ba 698b 623e 85a7 48be
00000140: 7e97 80be 288e a4bd 8221 ecbd a656 553e
00000150: 1ed3 8d3d dc07 073d 162d eabd 0389 67be
00000160: 95d7 7dbe 5474 80be f3a7 08be bc33 563d
00000170: 2940 8d3d 6a20 1f3d 711a e43d e64a c53d
00000180: e57a 05be af0c a0bd 0a23 41be 352f 4c3c
00000190: 74fd 9e3c 5ba8 373e 68be 4a3e a88e 333d
000001a0: 22e4 febd 703e fbbd 4400 07be 9883 73be
000001b0: 8fbc 48bd 5951 c8ba bdc5 0cbd 2c2a 1fbe
000001c0: f335 d5bd f278 a7bd 4655 c1bd 5661 293e
000001d0: bc94 88be 01fe 2c3e 4595 dabd 5ce6 46bd
000001e0: a78a 5a3e 13bc 8e3d 385d 82be b389 b3bd
000001f0: 7861 133e 8ba4 7c3e cf02 81be 0c04 8ebd
00000200: b702 df3d 8732 bb3d eb52 3b3e 51c1 a63d
00000210: 87ec 65be 596e 50be efac cc3d c97e de3d
00000220: d335 2b3e 663a 5ebd 9269 043e 1640 a4bd
00000230: 35df 9f3d 4fde 6fbd 5806 b23c e718 c6bd
00000240: 044a efbc ca64 89be d82f 93bd b37e 64bd
00000250: a53b 4cbc ee1f e83d 4c4c be3d e5c7 6ebd
00000260: 122e 653d be54 793e ec09 02bd 7258 44be
00000270: ff5c 9b3d b784 42bd fa56 fd3d 2588 25be
00000280: c149 493e 30c9 b53c 0e72 f53b c474 2a3e
00000290: a4f7 823a cd63 b73d 132f 16bd 645b 3f3e
000002a0: 7117 96bd 744c 9b3d e4c5 b33d 7ddd 01be
000002b0: de3f 79be e5c4 5dbe 656c 80bb 5b42 15be
000002c0: 9c45 86be aebd 603e c7e7 47bd e08c 6cbd
000002d0: 540a 073e 2752 c2bd 89e2 87be 2827 2ebe
000002e0: 1b8f 6f3e 6eae b53c f8dc 76be 1562 51bd
000002f0: a9d0 e8bd 2f32 4e3c 5de4 1c3e a6a6 53ba
00000300: 0b59 6bbe b1bf 4fbe 26cf 84be d5d7 4abe
00000310: d195 0ebe d3e1 fc3d 7dc2 353e ac47 40be
00000320: d1c6 9a3d 9e31 8cbd 8398 9d3d c86e 87be
00000330: 4554 cfb9 4159 4ebe 3f6b 35be f4cb 2ebe
00000340: eca4 5abc ba25 18be 7f3a 473e aed2 093e
00000350: 1e35 35be 8b16 ecbb 1aea 473e 96a2 843d
00000360: 54d7 863e b0ee 20be 5b4c 643e fbd6 76bd
00000370: c656 0ebe 5cb6 51bd 13b6 d8bc d0ff 063e
00000380: 4757 1bbe f986 a23d 200a 81be 313d 6cbe
00000390: 78cd 4bbe 40b5 babd 114b 123e 240d a4bd
000003a0: bc0e db3c 2f34 2bbe 6123 85be cf00 b03c
000003b0: b56f 913c 0177 f0bd 854b 56be e3c0 503e
000003c0: f084 fc3c 9077 2ebe 948e 81be 6ba6 85be
000003d0: 265d 833d 0134 733e 64fd a2bd 49af e8bd
000003e0: 90c2 dd38 f668 62be 7edd d2bd 535a 46be
000003f0: 314c cdbd 6fdb 15bd 1b32 39bd 1eeb 72be
-0.08035455 -0.016777594 0.2139931 -0.18688713 -0.10386437 -0.23941551 0.061325494 -0.26333755
-0.04955967 0.26399016 0.06340587 -0.24208632 0.14279106 -0.1715189 0.13868521 0.09167227
-0.24561244 0.18081488 -0.2226018 0.20031649 0.25782734 -0.1970637 0.2061458 -0.012022426
0.12405321 -0.25021118 -0.026264891 0.023542654 0.16275331 -0.12384061 0.2198747 0.111235395
-0.0957249 0.15658729 -0.2575968 0.030846845 -0.12545048 -0.049706638 0.0035077245 0.02331921
0.26980814 0.17992118 -0.15890297 0.12526725 0.045156527 0.13710403 0.14377485 0.19324628
-0.013277563 0.08195191 -0.0352002 0.07675541 -0.12540525 -0.12321775 -0.13820277 -0.0020823074
0.18720198 -0.16892624 -0.25458452 0.12012754 -0.22778608 -0.107972294 -0.13005297 0.07932913
0.084560744 -0.086928874 -0.16914819 -0.10751096 -0.2664456 -0.18348229 0.098572895 0.26111245
0.0857329 -0.19985174 -0.18683013 0.04785193 -0.23989409 -0.0011663135 0.22123493 -0.19595154
-0.2511558 -0.08034927 -0.115298286 0.20833835 0.06925033 0.03296648 -0.11434381 -0.2261086
-0.2478927 -0.2508875 -0.13345318 0.05229543 0.06897003 0.03884927 0.11137856 0.09633426
-0.13035162 -0.07814919 -0.18861023 0.012462427 0.019407965 0.17935316 0.19799197 0.04383722
-0.12445857 -0.122677684 -0.13183695 -0.23780668 -0.04900795 -0.0015283033 -0.034368265 -0.15543431
-0.104106806 -0.08177365 -0.09440093 0.16541037 -0.26675975 0.1689377 -0.10673002 -0.04855953
0.21341954 0.06969466 -0.25461745 -0.087664984 0.1439265 0.24672143 -0.25197455 -0.06934366
0.1088919 0.09140497 0.1829335 0.08142341 -0.2245351 -0.20354594 0.09993922 0.10864026
0.16719751 -0.05425491 0.12930897 -0.08020036 0.07806245 -0.05856162 0.02173154 -0.096727185
-0.029210098 -0.26834708 -0.0718686 -0.055784892 -0.012465392 0.11334215 0.09291896 -0.058296103
0.05595214 0.24348733 -0.031747743 -0.19174364 0.07586097 -0.047489848 0.12370105 -0.16165216
0.19657041 0.02219066 0.007490403 0.16646105 0.0009992016 0.08954582 -0.036665987 0.18687207
-0.0732869 0.07582942 0.08777979 -0.12682147 -0.2434077 -0.2165714 -0.0039191716 -0.14576094
-0.26224983 0.21947357 -0.048805024 -0.057751536 0.13187534 -0.094883256 -0.2654002 -0.17007124
0.23394434 0.022177901 -0.2410773 -0.05111893 -0.11367924 0.012585207 0.15321489 -0.0008073844
-0.22983186 -0.20287968 -0.25939292 -0.19808896 -0.13924338 0.1234776 0.17749973 -0.1877734
0.075574525 -0.06845401 0.07695105 -0.26451707 -0.00039544902 -0.20151235 -0.17716692 -0.1706999
-0.0133449845 -0.14858142 0.19455908 0.13459274 -0.17696044 -0.007204836 0.19522896 0.06476323
0.26336157 -0.15716052 0.22294752 -0.060263615 -0.13900289 -0.051199302 -0.026454007 0.13183522
-0.15170012 0.079359 -0.25203037 -0.23070218 -0.19902599 -0.09116602 0.14286448 -0.08010319
0.026740424 -0.16719125 -0.26003554 0.02148476 0.017753461 -0.11741448 -0.20927246 0.2038608
0.030825108 -0.17037797 -0.2530409 -0.2610353 0.06414251 0.23750307 -0.07958487 -0.11361558
0.00010574341 -0.22110352 -0.102961525 -0.19370393 -0.10024298 -0.03658622 -0.0452138 -0.23722503

onnx::MatMul_13 f4 [512, 3]
00000000: bcde 4dbc e386 01bd 22c7 23bc eb78 12ba
00000010: 3f91 073d 943d 0c3d 28df 983c ba3f 0bbd
00000020: 237c e43b b61c 173d 7866 8a3c 164e 79bc
00000030: c29d 2a3d 3975 16bd 1020 edbc dab8 0d3d
00000040: f340 cd3c 0722 29bc 2faf 2ebd 8e9d 1dbd
00000050: 482c 213d 0a38 febc b3ba e7bc e187 383d
00000060: 9688 c1bb 263a 2dbd aa62 22bd 377d 07bd
00000070: b7ef 1ebd 5898 77ba cad9 003d 807f 69bc
00000080: b073 7fbc 44a3 933c 9d23 90bc d984 323d
00000090: 1b72 e4bb e7cc 713c 3c89 9abc 6f8d dfbc
000000a0: 0a0d 3b3c f8ab e13c 9ce1 213d 482a d7bc
000000b0: f8a7 32bb 0971 d7bc 4825 923b f0e7 883b
000000c0: 5ac3 aabc 8b33 cebc fde0 adbb 03af d83c
000000d0: 5bca fbbc 05a3 ac3b 9aec c2bc 7c18 27bd
000000e0: 2e33 6b3c e2a5 4dbd 9485 9c3c d4b0 abbc
000000f0: 1d46 b3bc 555d 9b3c b5aa 793c bcfb 30bc
00000100: 57ed 09bc 922d d03b b668 01bc 7730 32bc
00000110: ecac 17bd 73f8 aa3c 4166 b4bc efd2 e8bc
00000120: e519 40bc 24d1 083d a930 cc3c f02e 0bbd
00000130: 4a5a f83a 041f a1bc 2968 cabc bd2c d33b
00000140: 5ddf 143d 9253 173c 1d1c 02bd fef0 c73c
00000150: d483 63bc 584e 01bd f58a 083d 3b1b 213c
00000160: ff74 13bd d36f be3c acc1 873c ddff f93b
00000170: 0223 27bd f91b ecbc 8ad1 d5bc 16e1 bd3b
00000180: 37d4 76bc d8ed 253d 370d cebc 882f 49ba
00000190: fe3c 9bbb 22b8 1ebd df94 bdbb 7619 03bd
000001a0: 3625 4e3b 5944 9abc c7d8 d5bc 0361 b0bb
000001b0: a472 4cbd 3e9c f5bc cae4 5fba da98 a93c
000001c0: ba39 94bc ee1a 213d 1f3d a83b 5731 273d
000001d0: 6e6c 8dbc a938 28bd eeb7 a5bc 576f 0e3d
000001e0: 7478 f5bb c887 26bd 81e9 fabc a34d e8bc
000001f0: 4de8 873c 8b24 043c c124 153d f21e eb3c
00000200: 9589 e2bc 3b9c 31bd 0592 bdbc e615 2ebd
00000210: 5c49 f93c dbe8 213d 1a1d 1ebb 2730 1abd
00000220: fa12 fbbc bd2a 13bd c58e 12bd e986 12bd
00000230: 97aa f1bc debc 133d 28b1 0f3d 8c4a 8f3c
00000240: a02b 8339 2d79 a43c b389 40bd d985 f53c
00000250: 2d1f ca3c 9a33 36bd 10f4 203c 5360 07bd
00000260: 3233 0a3d 7a27 51bd e80c 923b 29d0 b63a
00000270: 1850 de3c ed4e 2cbd 382a e73b e78e b53c
00000280: f286 e13c 62d7 8dbc 519d 24bd 302c cf3c
00000290: c450 41bc 816b eb3c 4dd8 713c bd9e 603c
000002a0: f053 3f3c aeb9 b13c 5ee5 5e3a 9a7e f73c
000002b0: c5db 1f3d b720 a53c 71b1 a63c 7e26 6c3c
000002c0: a649 0b3c 9e1a 33bd a286 8539 0a74 e03c
000002d0: e3c7 e4ba d193 a33c e9b9 923c 58cc 69ba
000002e0: c3be 3bbd 8fb4 633c eefb d4bc 935c 24bd
000002f0: 4624 ac3c e5b3 15bd 45f5 a5bc 9289 783c
00000300: 943e 2bbd 557d 8b3b d7ff 27bd c2df 7a3c
00000310: e447 bebb beb8 14ba d7ec 49bc 9be7 c4bc
00000320: 5733 1dbc 8d50 1abc 647a cfbc d8ed 02bd
00000330: 2863 20bd 31a7 9a3c 14be d23b 8029 fc3b
00000340: 5e29 31bd 76c7 7c3b c29c 0abd 8211 7e3b
00000350: 21c0 a6bb 0e04 39bd db4d 1f3c 149b 78bc
00000360: 824e ae3c 4253 a7bc 0351 d0bc 24a8 bcbc
00000370: 4cf6 13bd 9dee debc 2446 333c ac88 163d
00000380: 2a3b f33b 68c6 20bc f3f8 67bc 6142 5abc
00000390: 5728 83bc e644 243d 55af 61bc 7f4d d0bc
000003a0: 0348 e6bc 6d5a 2dbd 29f0 443c 2b0f 123d
000003b0: a328 6ebb c3dc ca3c a7db 513c 2e76 903c
000003c0: b1c4 a5bc a694 abbc de4e 873a bdc8 fbbc
000003d0: 22d9 ad3c 7212 c2bc cada f33b 41b4 d1bc
000003e0: 1739 25bd 84dc 0cbd ca0d 32bd 77e0 c13c
000003f0: ffcd 37bd 092f b3bc 9b34 92bc a1c4 dbbb
-0.012565311 -0.03162278 -0.009996207 -0.0005587476 0.0330975 0.034238413 0.018661097 -0.03399632
0.006972806 0.036892615 0.016894564 -0.015216371 0.041654356 -0.036732886 -0.028945953 0.034600116
0.025055384 -0.010323054 -0.042647537 -0.038480334 0.03934887 -0.03103258 -0.028287267 0.04505146
-0.005906175 -0.042291783 -0.039644875 -0.0330784 -0.03880283 -0.0009445003 0.0314577 -0.01425159
-0.015591547 0.018022187 -0.017595107 0.043583725 -0.0069716102 0.014758325 -0.018864267 -0.02728912
0.011416683 0.027547821 0.0395218 -0.026265278 -0.0027260762 -0.026299017 0.0044600107 0.0041780397
-0.020845104 -0.025171062 -0.0053063617 0.02645064 -0.030736139 0.005268457 -0.023794461 -0.040794834
0.014355464 -0.050207026 0.019106664 -0.020958342 -0.021884019 0.018965403 0.015238454 -0.010802206
-0.008418403 0.0063530887 -0.0078985 -0.010875813 -0.037030146 0.020870423 -0.022021415 -0.028420893
-0.011724924 0.033402577 0.024925547 -0.03398031 0.0018947807 -0.01966811 -0.02470787 0.006444542
0.03634583 0.009236233 -0.031765092 0.024406906 -0.013886411 -0.031568855 0.033335645 0.009833152
-0.036000248 0.023246681 0.016571842 0.0076293782 -0.04080487 -0.028821932 -0.026100893 0.0057946546
-0.015065244 0.04051003 -0.025152786 -0.0007674624 -0.0047374954 -0.03874982 -0.005785569 -0.032006703
0.0031455285 -0.018831419 -0.026104344 -0.0053826584 -0.049914017 -0.029981729 -0.0008540867 0.020702768
-0.018093932 0.039332323 0.0051342393 0.04081854 -0.017263617 -0.04106966 -0.020229306 0.03477415
-0.007491166 -0.040656835 -0.030628921 -0.028357333 0.016590262 0.008065353 0.036412004 0.02870128
-0.027653495 -0.043361884 -0.023140917 -0.042501353 0.030430488 0.03952871 -0.0024126233 -0.037643578
-0.030648697 -0.03592943 -0.035780687 -0.03577319 -0.029500289 0.03606879 0.03508106 0.017491601
0.0002501877 0.020077312 -0.04700632 0.02997105 0.024673069 -0.044482805 0.009823814 -0.033050846
0.03374023 -0.05106304 0.004457105 0.0013947535 0.027137801 -0.042067457 0.0070545934 0.022162868
0.027530167 -0.017314617 -0.04018909 0.025289625 -0.011799041 0.028737785 0.014761043 0.013709721
0.011677727 0.021694984 0.00085028063 0.030211736 0.039027948 0.020157201 0.020348283 0.014413474
0.008501446 -0.043726556 0.00025468046 0.027399082 -0.001745459 0.019967945 0.017910914 -0.0008918694
-0.04583622 0.013898029 -0.025999036 -0.04012735 0.02101339 -0.036548514 -0.020258555 0.015169518
-0.041807726 0.004256884 -0.041015472 0.015312137 -0.00580691 -0.00056732807 -0.012324533 -0.02403622
-0.00959476 -0.009418619 -0.025326915 -0.031965107 -0.039157063 0.018878551 0.0064313505 0.007695377
-0.04325234 0.0038571036 -0.033840902 0.003876776 -0.0050888215 -0.045169882 0.009723152 -0.015173692
0.02127767 -0.020425443 -0.025429254 -0.023029394 -0.03612356 -0.027213389 0.010942016 0.036751434
0.0074228244 -0.009812929 -0.014158475 -0.01332149 -0.016010446 0.04010477 -0.013774713 -0.025427578
-0.02811051 -0.042322565 0.012020149 0.035658997 -0.003634014 0.02476347 0.012808717 0.017634477
-0.020235391 -0.020944905 0.0010323187 -0.030735368 0.021221701 -0.023690436 0.007441853 -0.025598647
-0.04033765 -0.034389988 -0.04347018 0.023666603 -0.044874188 -0.021873014 -0.01784735 -0.0067067896
