models/50-games-model.onnx (onnx, 37455 bytes, 4 tensors)

linear1.bias f4 [512]
0.15596342 0.20550446 -0.07379769 0.08186563 -0.14886127 0.13293597 -0.08112394 0.03800705
0.022277724 -0.10749689 0.26461992 -0.11963011 -0.066654354 -0.06764803 0.067029916 -0.04895647
-0.23310612 -0.067365125 0.35752997 -0.17301385 0.08293347 0.40133768 -0.064568184 0.21751317
0.041887823 0.18176793 -0.097273774 -0.07102714 0.1522663 0.0751728 0.16098018 -0.07902381
-0.027226748 0.020187529 -0.034895536 -0.1362763 -0.2995156 0.021896355 -0.21888673 0.33994186
-0.057221398 -0.0028435697 -0.2630615 -0.18639891 -0.16750406 0.009697975 -0.0876599 -0.23059379
0.06901543 0.1606823 0.1157474 0.03141438 -0.02937589 -0.20851023 0.083393864 -0.17882554
0.0452944 -0.15979795 -0.29051015 0.019281384 -0.00046862412 -0.22618571 -0.1104192 -0.2031863
0.11782636 0.0560013 0.05249202 0.0018372849 -0.09546993 0.33161595 -0.16447024 0.031528622
0.113861874 0.15911002 0.19992365 -0.011642132 0.099718004 0.0237495 -0.19136019 -0.24906039
-0.12139993 0.034854595 0.34854063 -0.05374424 0.04108664 0.016455412 -0.03084569 -0.2417779
0.29301256 -0.21103385 0.30928206 -0.008475533 -0.01110768 -0.049950864 0.296359 0.04906515
0.04907392 0.028713278 0.22841087 0.27248633 0.0015784126 0.04240788 -0.073893264 0.10570897
0.020525584 -0.17709528 0.65257925 0.38717046 0.106476665 0.3260239 -0.08878506 -0.16205195
0.008935766 -0.056327216 0.055417832 -0.028414018 0.2269152 -0.08613868 0.06027109 -0.18930498
-0.10196976 0.19839595 -0.058328316 0.2246465 0.09081194 0.070267424 -0.28549784 0.010974142
-0.17913356 0.14299984 -0.12731394 0.28736392 0.072465025 -0.13458608 0.14112629 -0.2724202
-0.12561204 0.11631783 -0.15342455 -0.030608524 -0.011905634 -0.15205213 0.13836306 0.09106012
0.07799974 -0.0031128565 0.17132622 -0.29332823 -0.016451962 0.26413962 0.117773585 -0.11769995
-0.0805625 0.21290128 0.009680592 0.0762207 -0.009476389 0.0002714845 -0.1757845 0.11382568
0.10792086 0.17534807 -0.009672347 -0.30098662 0.07966157 -0.14686877 -0.074107245 -0.27775422
-0.03237065 -0.10016422 0.008893637 -0.14393769 0.04790584 -0.24509557 -0.19154501 0.029618433
0.20155667 -0.090868264 -0.20729464 0.037146345 -0.10357548 -0.03863898 0.19238596 -0.19620489
-0.25026906 -0.08444661 0.035430495 -0.052704915 -0.2134174 -0.040618546 -0.0014501346 0.2607339
0.043883875 0.04730977 -0.21237625 -0.10867502 0.0054012267 -0.10138898 0.102364674 -0.006623311
0.043056875 0.15617898 0.046056714 0.12672104 -0.11984408 -0.16614264 -0.08191566 0.16134016
-0.301786 0.06924313 -0.07834073 -0.053970195 -0.05115983 0.06030963 -0.0060659507 -0.003606039
0.14796981 0.060520142 0.049691275 -0.03224303 -0.10974064 0.0029604563 -0.012196584 0.1859286
-0.15119511 -0.067441404 -0.090358816 0.022669105 -0.032315698 -0.19607447 -0.15133575 0.024770329
-0.17717807 -0.013043768 -0.1099917 0.10557122 0.10675713 0.13787499 0.3077265 0.062112268
-0.013607212 0.23622487 0.29242393 0.04675227 0.09562342 -0.09157358 0.15946987 -0.26995456
-0.17997642 -0.024611346 0.0031235742 -0.124068715 -0.030623434 -0.18184325 0.009642759 0.09884925
00000000: e0b4 1f3e c36f 523e 3e23 97bd 2ba9 a73d
00000010: 176f 18be 5e20 083e 4f24 a6bd 48ad 1b3d
00000020: c67f b63c 5427 dcbd 437c 873e a200 f5bd
00000030: 1482 88bd 0d8b 8abd fb46 893d 9486 48bd
00000040: 5fb3 6ebe baf6 89bd 2b0e b73e 8b2a 31be
00000050: 06d9 a93d 227c cd3e 533c 84bd c6bb 5e3e
00000060: 9192 2b3d 5f21 3a3e 7937 c7bd ad76 91bd
00000070: b2eb 1b3e 32f4 993d fdd7 243e 3cd7 a1bd
00000080: a10a dfbc 5160 a53c 9fee 0ebd 048c 0bbe
00000090: 1c5a 99be fc5f b33c d823 60be dc0c ae3e
000000a0: fc60 6abd 2f5b 3abb ffaf 86be 5bdf 3ebe
000000b0: 2f86 2bbe 41e4 1e3c 0987 b3bd c720 6cbe
000000c0: f657 8d3d e789 243e f90c ed3d 5dac 003d
000000d0: b5a5 f0bc b583 55be 67ca aa3d 0b1e 37be
000000e0: 9f86 393d 13a2 23be bfbd 94be fef3 9d3c
000000f0: aab1 f5b9 3a9d 67be 7623 e2bd 1210 50be
00000100: f24e f13d 9f61 653d df01 573d 0dd1 f03a
00000110: bd85 c3bd 91c9 a93e e36a 28be 2824 013d
00000120: 6a30 e93d bded 223e c9b8 4c3e a4be 3ebc
00000130: f438 cc3d 508e c23c edf3 43be b009 7fbe
00000140: 87a0 f8bd b1c3 0e3d eb73 b23e ec22 5cbd
00000150: 774a 283d 80cd 863c 1ab0 fcbc a094 77be
00000160: be05 963e 4219 58be 385a 9e3e f6dc 0abc
00000170: fdfc 35bc 4799 4cbd 5ebc 973e 8af8 483d
00000180: bc01 493d 1c38 eb3c 8ae4 693e 5483 8b3e
00000190: bde2 ce3a e3b3 2d3d 5a55 97bd f27d d83d
000001a0: 4525 a83c 7758 35be 6f0f 273f 353b c63e
000001b0: 7010 da3d 9bec a63e f1d4 b5bd f2f0 25be
000001c0: 5267 123c 5eb7 66bd cffd 623d 84c4 e8bc
000001d0: 755c 683e 7a69 b0bd d2de 763d 2ad9 41be
000001e0: 86d5 d0bd 4f28 4b3e ace9 6ebd bb09 663e
000001f0: 9cfb b93d 5ee8 8f3d c62c 92be e3cc 333c
00000200: ca6e 37be 8d6e 123e 965e 02be 5d21 933e
00000210: 8b68 943d efd0 09be 6983 103e a97a 8bbe
00000220: 71a0 00be 0b38 ee3d 531b 1dbe babe fabc
00000230: d90f 43bc 8eb3 1bbe 0caf 0d3e ba7d ba3d
00000240: 54be 9f3d 1101 4cbb 2470 2f3e 1e2f 96be
00000250: 44c6 86bc 4f3d 873e 4733 f13d ac0c f1bd
00000260: f4fd a4bd cb02 5a3e 599b 1e3c 9919 9c3d
00000270: db42 1bbc 0856 8e39 da00 34be 701d e93d
00000280: 9d05 dd3d 728e 333e c478 1ebc eb1a 9abe
00000290: 9b25 a33d c464 16be 8ac5 97bd cd35 8ebe
000002a0: 1697 04bd e622 cdbd 9eb6 113c 6764 13be
000002b0: ea38 443d 55fa 7abe 6024 44be 5ba2 f23c
000002c0: df64 4e3e 2419 babd 0c45 54be c426 183d
000002d0: 621f d4bd e843 1ebd d300 453e efe9 48be
000002e0: 4423 80be 58f2 acbd 911f 113d 1ce1 57bd
000002f0: 178a 5abe a25f 26bd 7112 beba ea7e 853e
00000300: 94bf 333d e4c7 413d 2979 59be 0291 debd
00000310: c6fc b03b 07a5 cfbd 92a4 d13d 5c08 d9bb
00000320: 685c 303d 62ed 1f3e f7a5 3c3d 29c3 013e
00000330: d070 f5bd 4c21 2abe 66c3 a7bd 5b36 253e
00000340: b283 9abe 58cf 8d3d 1b71 a0bd da0f 5dbd
00000350: f88c 51bd 3b07 773d e2c4 c6bb 4c53 6cbb
00000360: 6685 173e f8e3 773d 1489 4b3d 4411 04bd
00000370: b3bf e0bd 3704 423b 2ed4 47bc 1164 3e3e
00000380: e4d2 1abe b81e 8abd 0b0e b9bd 8fb4 b93c
00000390: 775d 04bd bfc7 48be c2f7 1abe 25eb ca3c
000003a0: 2b6e 35be 87b5 55bc 5443 e1bd b935 d83d
000003b0: 7ba3 da3d 1a2f 0d3e 548e 9d3e 6f69 7e3d
000003c0: c9f0 5ebc efe4 713e 97b8 953e 4f7f 3f3d
000003d0: 36d6 c33d ee8a bbbd 124c 233e 7c37 8abe
000003e0: bd4b 38be bc9d c9bc e1b4 4c3b bd17 febd
000003f0: ffdd fabc 1e35 3abe aafc 1d3c 7a71 ca3d

linear2.bias f4 [3]
0.060869798 -0.052193247 -0.076600865
00000000: 9c52 793d 96c8 55bd eae0 9cbd

onnx::MatMul_12 f4 [14, 512]
0.0129007315 0.021765588 0.3491224 -0.106043674 0.056496233 -0.44275305 -0.09975428 -0.29274213
0.014650817 0.30226275 0.49244297 -0.016445542 0.08893748 -0.12072829 0.1352413 0.0075746076
-0.24561244 0.061444953 0.14755167 0.06862264 0.28270915 -0.13523036 0.2653496 0.12722611
0.10202767 -0.15095615 -0.13012923 0.0030450555 0.19437788 -0.24340874 0.052581914 0.08620595
-0.016021825 0.2097679 -0.4000829 0.068909064 -0.19396037 0.08285503 -0.16155204 -0.06280273
0.34442434 -0.026145998 -0.14749762 0.19813116 -0.028039144 0.24664284 0.13181333 0.2240003
-0.053184293 -0.25566128 -0.11429967 0.11328488 -0.13468543 -0.113738924 -0.10175296 -0.02911979
0.26617026 -0.38050908 -0.25458452 0.01082129 -0.20517111 -0.018392261 -0.2612243 0.060780138
0.14387144 -0.14050882 -0.22414613 -0.22249903 -0.016216252 -0.08393633 0.015395747 0.09242694
0.19272582 -0.4169187 -0.3897243 0.15562944 -0.1803703 0.09041744 0.08544187 -0.26377264
-0.5246121 -0.0914886 0.035649773 0.20516948 0.008607808 0.14899825 -0.25840878 -0.2261086
-0.12565568 -0.37039873 -0.0381418 0.037501972 0.3035145 0.17523925 0.19823115 0.17345916
-0.23882933 -0.034168683 -0.27077547 -0.09201225 -0.039744005 0.28291014 0.29005885 0.012141514
-0.21101785 -0.27469128 -0.25600982 -0.064207524 -0.036590096 -0.008625062 -0.061934136 -0.11706204
-0.045842066 0.025831595 0.030464884 -0.007093965 -0.36705697 0.42098182 -0.11054401 -0.20401777
0.14637445 0.18419774 -0.23112011 0.016936766 0.19485416 0.50974923 -0.33727026 0.06729082
0.041620795 0.11960325 0.24749374 0.16022202 -0.11835561 -0.24823955 0.04027547 0.034762062
-0.012173249 -0.14702886 -0.04072968 -0.09924641 0.16327642 -0.06908999 0.05417352 -0.18763743
0.0014461045 -0.03602384 0.21090415 -0.031088347 0.012543872 0.09357231 -0.16052617 -0.2787031
0.11783735 0.29555142 -0.092070885 -0.33932635 0.07368583 -0.06366034 0.11248031 -0.18923646
0.031735666 0.11754094 -0.27822864 0.06882577 0.008503219 -0.22791657 -0.12858385 0.13100584
-0.31669405 0.010261357 0.10267325 -0.032804698 -0.07422808 -0.1595916 -0.042812183 -0.08061308
-0.30292064 0.0662258 -0.08137342 -0.07234143 -0.06650502 -0.030470261 -0.1769752 -0.30889
0.21283661 0.106715694 0.24556655 0.06086253 -0.11367924 -0.02985689 0.1977186 -0.030090705
0.0078100413 -0.10821401 -0.20133094 -0.16802652 -0.12442474 0.22373386 0.16375466 -0.040232424
0.015580098 -0.024221648 0.12522525 -0.3203946 -0.032274686 -0.17455138 -0.11455362 -0.109176636
-0.022970159 -0.07772613 0.19485588 0.08755309 0.0016111981 0.0047071464 0.21608949 0.08120065
0.33984625 0.088717006 0.2629511 -0.11982626 -0.31995338 -0.057515625 -0.3301531 -0.046250004
-0.114063405 0.0036318237 -0.07047396 -0.14305346 0.21316437 -0.148279 0.14672336 -0.2571612
-0.07569256 -0.32431602 -0.016272621 -0.00348096 0.067817196 -0.059312772 -0.32376218 0.19912145
-0.12976307 -0.19200213 -0.014920671 -0.34174487 0.14014706 0.40911174 -0.28081387 -0.11361558
0.22907932 -0.16183548 -0.07959085 -0.16288258 -0.2033209 0.054537382 -0.27676263 -0.15712167
00000000: 975d 533c bf4d b23c 2cc0 b23e 6d2d d9bd
00000010: 9868 673d 87b0 e2be f94b ccbd 4ce2 95be
00000020: fb09 703c 2fc2 9a3e 7c21 fc3e cdb8 86bc
00000030: da24 b63d 6540 f7bd b27c 0a3e 6a34 f83b
00000040: d481 7bbe b4ad 7b3d c917 173e 078a 8c3d
00000050: 41bf 903e d479 0abe e7db 873e 9047 023e
00000060: e2f3 d03d 4094 1abe 9940 05be 8e8f 473b
00000070: ff0a 473e 2440 79be 2260 573d bf8c b03d
00000080: 3440 83bc 65cd 563e aad7 ccbe 3220 8d3d
00000090: 8c9d 46be e6af a93d e66d 25be b89e 80bd
000000a0: 6358 b03e 2230 d6bc 9e09 17be e5e2 4a3e
000000b0: 59b2 e5bc f18f 7c3e 13fa 063e 5660 653e
000000c0: c6d7 59bd 09e6 82be f215 eabd e701 e83d
000000d0: faea 09be f4ef e8bd db63 d0bd a08c eebc
000000e0: 7847 883e 16d2 c2be e758 82be c84b 313c
000000f0: 6018 52be 5eab 96bc 31bf 85be 98f4 783d
00000100: 0953 133e 8be1 0fbe 9086 65be c9d6 63be
00000110: f2d7 84bc d0e6 abbd 713e 7c3c 564a bd3d
00000120: eb59 453e 5e76 d5be f289 c7be 535d 1f3e
00000130: feb2 38be c72c b93d 26fc ae3d 350d 87be
00000140: fb4c 06bf 605e bbbd 7f05 123d f317 523e
00000150: c307 0d3c ff92 183e 284e 84be 0389 67be
00000160: e2ab 00be e7a4 bdbe 933a 1cbd ab9b 193d
00000170: 4166 9b3e eb71 333e 1bfd 4a3e 479f 313e
00000180: ad8f 74be 76f4 0bbd 15a3 8abe eb70 bcbd
00000190: 9cca 22bd 99d9 903e 9882 943e 33ed 463c
000001a0: 1015 58be 56a4 8cbe b813 83be 3c7f 83bd
000001b0: 7fdf 15bd 2250 0dbc a6ae 7dbd 39be efbd
000001c0: e4c4 3bbd c89c d33c 7e91 f93c 7e74 e8bb
000001d0: e4ee bbbe ee8a d73e e664 e2bd 09ea 50be
000001e0: 2fe3 153e 559e 3c3e c0aa 6cbe f9be 8a3c
000001f0: d987 473e ed7e 023f b0ae acbe c5cf 893d
00000200: 917a 2a3d 8cf2 f43d 006f 7d3e 3e11 243e
00000210: 6d64 f2bd 8232 7ebe e4f7 243d aa62 0e3d
00000220: 4f72 47bc bc8e 16be 2ad4 26bd b441 cbbd
00000230: ef31 273e 0d7f 8dbd 0ee5 5d3d 0724 40be
00000240: 378b bd3a bc8d 13bd 42f7 573e fdac febc
00000250: d084 4d3c d7a2 bf3d f960 24be 2cb2 8ebe
00000260: b554 f13d 8452 973e a98f bcbd 2fbc adbe
00000270: 99e8 963d 5a60 82bd 145c e63d 34c7 41be
00000280: 42fd 013d 4eb9 f03d fc73 8ebe 86f4 8c3d
00000290: 1651 0b3c f662 69be 7cab 03be 6526 063e
000002a0: b925 a2be 401f 283c 5a46 d23d 385e 06bd
000002b0: e404 98bd fb6b 23be d45b 2fbd 7818 a5bd
000002c0: 6a18 9bbe 64a1 873d 1ca7 a6bd be27 94bd
000002d0: c933 88bd c59c f9bc fd38 35be d526 9ebe
000002e0: d7f1 593e c28d da3d cc75 7b3e fd4a 793d
000002f0: a9d0 e8bd 7096 f4bc bf76 4a3e c880 f6bc
00000300: 60eb ff3b 4f9f ddbd b329 4ebe 250f 2cbe
00000310: 66d2 febd 7d1a 653e 4daf 273e c1ca 24bd
00000320: ab43 7f3c 7a6c c6bc 0c3b 003e c30a a4be
00000330: 7632 04bd 99bd 32be 179b eabd 0098 dfbd
00000340: ea2b bcbc e12e 9fbd 4d88 473e 094f b33d
00000350: d62e d33a 683e 9a3b 9046 5d3e 874c a63d
00000360: 5400 ae3e 43b1 b53d 87a1 863e 7867 f5bd
00000370: eed0 a3be 8195 6bbd d409 a9be a570 3dbd
00000380: 139a e9bd e403 6e3b a754 90bd 9b7c 12be
00000390: c347 5a3e 73d6 17be a63e 163e a2aa 83be
000003a0: b304 9bbd c00c a6be 294e 85bc d120 64bb
000003b0: bee3 8a3d f3f1 72bd 28c4 a5be 7ee6 4b3e
000003c0: 9ce0 04be 359c 44be d475 74bc 2ff9 aebe
000003d0: b682 0f3e 1877 d13e d6c6 8fbe 49af e8bd
000003e0: c593 6a3e 33b8 25be 8700 a3bd b1ca 26be
000003f0: 5b33 50be 9762 5f3d d5b3 8dbe 81e4 20be

onnx::MatMul_13 f4 [512, 3]
-0.062255118 -0.12137945 -0.06591015 0.32543278 0.07251717 -0.03840272 0.012732711 -0.3123796
0.1353514 -0.15382715 0.27002674 0.099320374 0.4181413 -0.30112615 -0.09021846 0.15116784
0.13652825 -0.023599379 0.2768672 0.3505718 0.08985884 -0.27614558 0.008276525 0.121054366
0.18695812 0.05760939 0.014275132 -0.059081163 -0.03164312 -0.06419117 0.3814187 0.38541624
-0.08616971 0.49096736 -0.09617655 -0.22083983 0.036203023 -0.07407319 0.10078944 -0.35146567
0.17461056 0.18293184 0.00049986906 -0.11799276 -0.0698066 -0.2418384 0.3071887 0.21886234
-0.020845104 -0.025171062 -0.0053063617 0.034489922 -0.07014688 -0.041702405 0.25010437 0.24722162
-0.019778507 -0.16641018 -0.015354565 -0.10798298 -0.04718173 -0.28576672 0.033764906 0.18993102
0.02983468 -0.023777723 -0.10122415 -0.07261947 -0.1478695 0.2259624 0.029870968 -0.0014524147
-0.06814318 -0.04651907 -0.055000603 0.14871974 0.041370336 -0.02246854 -0.3525764 0.2078769
0.14263386 -0.013660521 -0.06768608 -0.008493126 -0.06186253 -0.06950238 -0.049810823 -0.41352847
0.21805438 -0.39038754 -0.12834392 -0.25816524 0.17271452 -0.13070402 -0.095196545 -0.07244219
-0.13209318 -0.07122254 -0.107986294 -0.034332037 -0.061641254 -0.08563059 -0.0020362197 -0.03173097
-0.0013967915 -0.14159364 -0.05349484 -0.10052472 -0.14066876 -0.026348881 -0.0146439 -0.1554002
-0.07692839 0.12500677 -0.25944477 0.05198805 0.06581727 0.0897949 0.05579757 0.4300498
-0.076311246 0.094782166 -0.22276424 -0.02842826 0.021519125 -0.018185357 0.044276003 0.04828562
-0.3079133 -0.16106442 -0.12227585 -0.16080546 0.045513522 -0.040237777 0.24340968 -0.15179108
0.14073059 -0.20697466 0.2680999 -0.40860596 0.16750109 0.3032456 -0.17863874 -0.32743677
-0.015820388 0.20398408 -0.17672421 -0.05514782 0.2706039 0.09343032 0.27268276 0.008552193
0.2276355 -0.034109715 -0.014912341 -0.053441096 -0.023851933 -0.082353294 -0.081105284 0.03795965
0.103188366 -0.029921861 -0.08522466 -0.043746267 -0.0991857 0.090727165 -0.03001025 0.04489486
0.0621934 0.21252847 -0.07223648 -0.43580493 0.159465 0.26673 -0.13298006 0.0063568274
-0.047690645 -0.38737768 0.06965866 0.112351395 0.42836836 -0.18613528 0.25878713 0.086335495
-0.07575913 0.055955715 -0.17685327 0.030246738 0.018666442 -0.32028618 -0.35690695 0.19891047
-0.25204322 0.154503 -0.11390678 -0.013932495 0.0032237188 0.0064714425 -0.04349323 0.13905486
0.19889428 -0.052771296 -0.018860342 -0.06589456 0.3125352 0.18527238 0.17521556 0.13676356
-0.09376359 0.012740257 0.000717308 -0.02709065 -0.0131266415 -0.02091026 0.0034815883 0.06598238
0.059602387 -0.14272608 -0.10652075 -0.13263391 0.015690994 0.057911437 0.056516223 0.058533564
0.20217656 0.009755842 0.1888244 -0.045324143 -0.13792111 -0.05733285 -0.04927207 -0.09057866
-0.06929572 -0.09239097 0.0050919186 -0.015905572 0.12527548 -0.31456053 -0.12825286 -0.25006214
-0.12951094 -0.24358734 0.06096615 -0.11866318 -0.018272253 -0.04396769 0.24082877 0.05317713
-0.13736776 -0.019085651 -0.04011447 -0.062446635 -0.08327879 0.17625818 0.0848849 -0.076913625
00000000: 39ff 7ebd ca95 f8bd e7fb 86bd 209f a63e
00000010: e283 943d 2c4c 1dbd dc9c 503c 38f0 9fbe
00000020: 8f99 0a3e dd84 1dbe f240 8a3e 7b68 cb3d
00000030: 9e16 d63e 352d 9abe 75c4 b8bd becb 1a3e
00000040: 10ce 0b3e 7c53 c1bc 8ac1 8d3e 267e b33e
00000050: e907 b83d f462 8dbe 439a 073c 5aeb f73d
00000060: f371 3f3e d3f7 6b3d 3ee2 693c 17ff 71bd
00000070: 379c 01bd a976 83bd 5049 c33e 4755 c53e
00000080: bf79 b0bd 1360 fb3e 36f8 c4bd d623 62be
00000090: 9f49 143d afb3 97bd b26a ce3d 4ff3 b3be
000000a0: 1ccd 323e 7c52 3b3e a509 033a 30a6 f1bd
000000b0: c3f6 8ebd 7ca4 77be d647 9d3e 731d 603e
000000c0: 5ac3 aabc 8b33 cebc fde0 adbb 4e45 0d3d
000000d0: 2ba9 8fbd 24d0 2abd ae0d 803e aa27 7d3e
000000e0: 8906 a2bc 6e67 2abe b791 7bbc 2e26 ddbd
000000f0: a141 41bd 0450 92be 124d 0a3d 477d 423e
00000100: dc67 f43c 80c9 c2bc 9b4e cfbd 84b9 94bd
00000110: 1a6b 17be b062 673e f6b3 f43c f35e beba
00000120: a78e 8bbd c88a 3ebd 5048 61bd fd49 183e
00000130: f173 293d f20f b8bc e584 b4be afdd 543e
00000140: 9c0e 123e 61d0 5fbc 009f 8abd c126 0bbc
00000150: 9063 7dbd 4457 8ebd 6f06 4cbd 01ba d3be
00000160: a649 5f3e e0e0 c7be 976c 03be 3c2e 84be
00000170: 13dc 303e 46d7 05be 68f6 c2bd 925c 94bd
00000180: 6f43 07be 20dd 91bd eb27 ddbd c09f 0cbd
00000190: 8a7b 7cbd 175f afbd 1972 05bb 55f8 01bd
000001a0: 8c14 b7ba ecfd 10be 681d 5bbd e8df cdbd
000001b0: 790b 10be 9cd9 d7bc f8ec 6fbc 3b21 1fbe
000001c0: a28c 9dbd c601 003e f2d5 84be 6cf1 543d
000001d0: 34cb 863d 63e6 b73d fe8b 643d 7d2f dc3e
000001e0: 1249 9cbd 271d c23d 4f1c 64be 62e2 e8bc
000001f0: e048 b03c 75f9 94bc c15a 353d 24c7 453d
00000200: d0a6 9dbe 12ee 24be c36b fabd 30aa 24be
00000210: 636c 3a3d 5ed0 24bd 6340 793e 1f6f 1bbe
00000220: ae1b 103e 2af1 53be 6444 893e cd34 d1be
00000230: 6885 2b3e 0243 9b3e 13ed 36be cba5 a7be
00000240: c299 81bc 34e1 503e 31f7 34be aee2 61bd
00000250: 988c 8a3e 6558 bf3d 139d 8b3e 7f1e 0c3c
00000260: 4819 693e a1b6 0bbd e452 74bc 0de5 5abd
00000270: 2165 c3bc d8a8 a8bd 871a a6bd 947b 1b3d
00000280: 6c54 d33d b11e f5bc 448a aebd 492f 33bd
00000290: df21 cbbd 2acf b93d 0ed8 f5bc ace3 373d
000002a0: 82be 7e3d 10a1 593e b8f0 93bd d321 dfbe
000002b0: cb4a 233e d690 883e ed2b 08be ef4c d03b
000002c0: 4457 43bd 5e56 c6be 33a9 8e3d 7d18 e63d
000002d0: 1953 db3e 3f9a 3ebe bf7f 843e aad0 b03d
000002e0: 9a27 9bbd d231 653d 0619 35be 02c8 f73c
000002f0: 5eea 983c 8dfc a3be 82bc b6be 30af 4b3e
00000300: cf0b 81be 0936 1e3e f547 e9bd 1f45 64bc
00000310: 0745 533b 650e d43b f525 32bd 6664 0e3e
00000320: f1aa 4b3e b726 58bd 0181 9abc baf3 86bd
00000330: 9d04 a03e 0bb8 3d3e b56b 333e bf0b 0c3e
00000340: 2007 c0bd 83bc 503c ba09 3c3a 36ed ddbc
00000350: 2011 57bc fe4b abbc 5c2b 643b c521 873d
00000360: a221 743d c926 12be 8d27 dabd 2fd1 07be
00000370: 668a 803c 8b34 6d3d 8e7d 673d e4c0 6f3d
00000380: 5f07 4f3e f8d6 1f3c 2f5b 413e cfa5 39bd
00000390: 313b 0dbe dad5 6abd 83d1 49bd 4e81 b9bd
000003a0: eaea 8dbd 7a37 bdbd 1cda a63b 674c 82bc
000003b0: 3748 003e 140e a1be b854 03be 2508 80be
000003c0: 849e 04be f66e 79be a4b7 793d ae05 f3bd
000003d0: b1af 95bc 7717 34bd d19b 763e 43d0 593d
000003e0: 22aa 0cbe 8359 9cbc 124f 24bd 0bc8 7fbd
000003f0: 128e aabd 067d 343e 22d8 ad3d e484 9dbd
