models/500-games-model.onnx (onnx, 37455 bytes, 4 tensors)

linear1.bias f4 [512]
-0.09594832 -1.5756148 -1.5560261 1.0098847 -0.6763321 -2.5764556 -0.8904869 -0.27343866
-0.33480954 -0.31896925 -0.28996673 -0.7163948 -0.23646653 -2.729628 -0.66868347 -1.6060401
-0.23310612 -2.855793 -0.12699917 -0.52562976 -1.3598741 -0.004455394 -0.28415722 -0.20695011
-0.15073918 0.0350087 -0.4631103 -0.08072269 -0.122923926 -0.5913171 -0.40509376 -0.23357792
-0.4184463 -0.28478935 -0.10335103 -0.4315841 -0.37759057 -0.1530357 -0.38348588 0.120321214
-0.41998303 -0.119563825 -2.7499306 -0.89274716 -0.26827696 -0.3459522 -1.7031662 -0.9709178
0.4979549 0.11580809 -1.2492398 -0.20440969 -1.2787699 -0.48218745 -0.29527783 -0.17882554
-0.26565215 -0.45534655 -0.29051015 -1.7282116 -0.20536803 -0.73788446 -0.32374218 -2.1220818
0.25819185 -0.2535536 -0.04567293 -0.6363717 -0.32552335 -0.31427914 -0.16447024 -0.090256825
-3.27233 -0.20355368 -0.15217575 -0.10298372 -0.3340647 -0.4579979 -0.6028825 -1.0174705
-2.9485562 -0.19516839 -0.03431251 -0.20690095 -0.6058776 -0.21680023 -0.17445022 -0.2417779
0.0066154213 -0.30107525 -0.38273436 -0.28246927 -0.8476054 -0.4683964 0.0020171236 -0.29957777
-3.1834304 -0.041583445 0.11714759 -0.024921985 -0.24504949 -1.1009687 -0.79098517 -0.1593635
-0.32315096 -0.30976203 0.34828058 -0.853306 -0.067295805 -0.21389203 -0.46317846 -2.9522603
-0.406669 -0.47206783 -0.39879495 -0.11208696 -0.09971027 -0.37423855 -1.4852395 -2.4020267
-0.32614973 -0.012244749 -0.28646624 -0.07132056 -1.2626377 -0.6336125 -2.2352922 0.24182242
-0.28067237 -0.044304814 -1.3609155 -0.04544084 -2.3317125 -0.7626454 -0.6110124 -1.2274823
-0.35303256 1.0670073 -0.24601662 -0.5287685 -1.1935765 1.3863305 -0.045656476 -0.2543124
-0.13194704 -0.55191165 0.76997596 -1.408583 -0.6330594 -0.3599265 0.23798335 -0.19682544
-0.9418646 -0.06422637 -0.27854156 -0.20589982 -0.3083896 -0.2530945 -1.4559313 -0.19510764
-0.056193404 -0.018825235 -0.179475 -0.35034403 2.0901732 -0.3504853 -0.6736439 -0.27775422
-0.5131873 -0.2768234 -1.2708457 -0.4468693 -0.6815186 -0.82982093 -0.55888087 0.09910062
-0.7363413 -0.49718946 -2.104979 -0.106882595 -0.41072556 -0.2822902 -1.5168934 -0.35187858
-0.52326405 -0.7640804 -1.1877427 -0.33760768 -0.2134174 -0.16091539 -0.17877233 -0.22569178
-0.0057274965 -0.035698835 -0.33849874 -0.30490455 -0.19726771 -0.36643475 -0.66427416 -0.34683767
-1.3042482 -0.18628266 -0.18380417 -0.10113371 -0.44461554 -0.4703846 -0.9970215 -0.22585157
-1.1390206 -0.72976315 -0.27639163 -0.30434805 -3.1002572 -0.3477112 -0.17077869 -0.16108125
-0.36915368 -0.2252288 -0.15640032 -0.3713109 -0.5456843 -0.24461953 -2.3384387 -0.105313264
-0.43720827 -0.50518215 -2.1294215 -1.1921706 -0.92430484 -0.19607447 -0.34019393 -0.4030385
-0.18764123 -0.3100425 -0.23952454 -0.40565258 -0.2078773 -0.46292865 -0.1489938 -0.561748
-0.23982747 -0.2646474 -0.06489863 -3.0835598 0.17341587 -1.3223904 -0.37757903 -0.26995456
-0.33699912 -0.29028153 -0.24554262 -0.426198 -1.4456413 -1.8963112 -0.33634508 -0.2914214
00000000: 8e80 c4bd bfad c9bf dd2b c7bf e743 813f
00000010: 1a24 2dbf a6e4 24c0 f3f6 63bf 2700 8cbe
00000020: 286c abbe f04f a3be 8576 94be a665 37bf
00000030: 4824 72be 3ab2 2ec0 d72e 2bbf b992 cdbf
00000040: 5fb3 6ebe 50c5 36c0 120c 02be ac8f 06bf
00000050: 5b10 aebf 8efe 91bb 0e7d 91be bbea 53be
00000060: 5f5b 1abe 4865 0f3d cb1c edbe f051 a5bd
00000070: 8abf fbbd 8f60 17bf 7368 cfbe 0d2f 6fbe
00000080: 983e d6be e9cf 91be b4a9 d3bd 97f8 dcbe
00000090: 8d53 c1be 64b5 1cbe 4358 c4be f86a f63d
000000a0: 0408 d7be e1dd f4bd ddfe 2fc0 148b 64bf
000000b0: 995b 89be a620 b1be 5a01 dabf 128e 78bf
000000c0: f2f3 fe3e cb2c ed3d 17e7 9fbf c650 51be
000000d0: bbae a3bf 46e1 f6be a82e 97be 0b1e 37be
000000e0: 8f03 88be 2f23 e9be bfbd 94be 0a36 ddbf
000000f0: ff4b 52be ffe5 3cbf 89c1 a5be 30d0 07c0
00000100: b931 843e c7d1 81be 8a13 3bbd 41e9 22bf
00000110: ffaa a6be 32e9 a0be e36a 28be 92d8 b8bd
00000120: db6d 51c0 6070 50be f6d3 1bbe 21e9 d2bd
00000130: 870a abbe b37e eabe 8256 1abf 793c 82bf
00000140: 25b5 3cc0 39da 47be 468b 0cbd d8dd 53be
00000150: cb1a 1bbf e100 5ebe 14a3 32be a094 77be
00000160: 2dc6 d83b 8926 9abe c2f5 c3be d09f 90be
00000170: abfc 58bf a7d1 efbe b831 043b 4262 99be
00000180: 53bd 4bc0 6753 2abd 13eb ef3d 3129 ccbc
00000190: 41ee 7abe 8bec 8cbf 017e 4abf 2f30 23be
000001a0: 0b74 a5be 2199 9ebe d551 b23e 4372 5abf
000001b0: 62d2 89bd 8306 5bbe ba25 edbe d5f1 3cc0
000001c0: eb36 d0be e0b2 f1be da2e ccbe d98d e5bd
000001d0: e634 ccbd 329c bfbe 541c bebf ceba 19c0
000001e0: 19fd a6be 339e 48bc b4ab 92be 8410 92bd
000001f0: 1d9e a1bf 6e34 22bf 070f 0fc0 4ca0 773e
00000200: 4ab4 8fbe f778 35bd 7b32 aebf 2d20 3abd
00000210: c73a 15c0 bb3c 43bf 4f6b 1cbf 241e 9dbf
00000220: afc0 b4be b293 883f c8eb 7bbe 5f5d 07bf
00000230: 1dc7 98bf 4773 b13f 4902 3bbd 3c35 82be
00000240: 201d 07be 154a 0dbf 251d 453f 734c b4bf
00000250: 2e10 22bf 4948 b8be e8b1 733e 9c8c 49be
00000260: 0a1e 71bf 1d89 83bd 009d 8ebe 67d7 52be
00000270: 3ee5 9dbe 9a95 81be f55b babf 4cca 47be
00000280: 0e2b 66bd 6137 9abc 4bc8 37be 4b60 b3be
00000290: 66c5 0540 cf72 b3be ed73 2cbf cd35 8ebe
000002a0: 3e60 03bf ccbb 8dbe 12ab a2bf 0ecc e4be
000002b0: 0178 2ebf 256f 54bf d112 0fbf 44f5 ca3d
000002c0: dd80 3cbf 9e8f febe fab7 06c0 43e5 dabd
000002d0: 9f4a d2be 5788 90be 9029 c2bf 6e29 b4be
000002e0: a2f4 05bf c69a 43bf f407 98bf eada acbe
000002f0: 178a 5abe 01c7 24be 1810 37be bf1b 67be
00000300: b9ad bbbb f138 12bd b54f adbe 731c 9cbe
00000310: 8c00 4abe 569d bbbe df0d 2abf b594 b1be
00000320: 9bf1 a6bf e2c0 3ebe 2937 3cbe 311f cfbd
00000330: a6a4 e3be 40d6 f0be cd3c 7fbf a245 67be
00000340: 6dcb 91bf c2d1 3abf 3483 8dbe 82d3 9bbe
00000350: 9d6a 46c0 3407 b2be 9ce0 2ebe 7cf2 24be
00000360: b601 bdbe 61a2 66be 6827 20be 761c bebe
00000370: f7b1 0bbf 8b7d 7abe fba8 15c0 7bae d7bd
00000380: c3d9 dfbe 9e53 01bf 7148 08c0 0c99 98bf
00000390: 3e9f 6cbf bfc7 48be e62d aebe 105b cebe
000003a0: 0625 40be e4bd 9ebe ec45 75be b2b1 cfbe
000003b0: c9dd 54be fc04 edbe d591 18be b8ce 0fbf
000003c0: 5595 75be dd7f 87be 93e9 84bd 0b59 45c0
000003d0: ee93 313e 1744 a9bf 0a52 c1be 7c37 8abe
000003e0: 268b acbe c89f 94be 866f 7bbe a036 dabe
000003f0: c60a b9bf 53ba f2bf 6c35 acbe 3035 95be

linear2.bias f4 [3]
-1.1006112 0.32616362 0.47970462
00000000: d4e0 8cbf ebfe a63e d89b f53e

onnx::MatMul_12 f4 [14, 512]
-0.19957322 0.28226104 0.47589383 -0.77809495 -0.15006012 0.4622766 0.9984596 -0.9356682
0.07770074 0.2293202 -0.017098272 -0.21855265 -0.13607366 -0.70860684 -0.9784526 -1.383431
-0.24561244 0.77285403 0.5463318 0.02357154 0.07452522 -0.009431179 0.2226915 0.20774348
0.061487865 -0.02103239 -0.61068845 -0.018795392 0.10646653 -0.14007302 -0.61194175 -0.18616061
-0.18891828 -0.1993456 -0.4000829 0.1505927 -0.246971 -0.23745058 -0.3658979 -0.4010838
0.35716656 -0.07531754 0.96667457 0.7374289 -0.40569863 -0.009308476 -0.116187654 0.16380501
-0.753422 -0.16446522 0.48976728 -0.11866942 -0.1542116 -0.06308249 -0.6097969 -0.02911979
0.13152419 -0.7744731 -0.25458452 -0.44695446 0.20714144 0.15301612 -0.5598057 -0.77223754
-0.36819172 -0.17857975 -0.34188473 -1.4951009 -0.071819924 0.11959349 0.015395747 -0.46438184
0.6736993 -0.6114655 -0.40151912 -0.4286523 -0.5030979 -0.110310584 0.25751528 -1.3928822
-1.4958646 -0.25905973 -0.0063422513 0.14241634 -0.09730219 -0.009789676 -0.3441372 -0.2261086
-0.31802562 -0.37039873 0.18030079 -0.12825383 -1.315061 0.35651305 0.14782025 0.20221688
-1.6136234 -0.42341238 -0.34032255 -0.20482068 -0.24917522 0.6639883 2.1604276 -0.28080082
-1.0126861 -0.45949328 -0.55759585 1.0377346 -0.064241916 0.14573917 -0.44498092 -0.509107
-0.70760685 -0.80626464 0.06487045 -0.064751655 -0.12829125 0.12308468 0.86006284 -0.38291118
-0.13503575 -0.16638997 -0.6636732 0.21739899 0.67913556 0.0700555 -1.0848376 0.27098027
-0.019900804 -0.07181214 0.91041625 0.060911823 0.65887755 0.112082586 -0.28872928 -0.23961085
-0.3487984 -2.1108062 -0.11762769 -0.060835533 -0.418603 0.46607953 0.013953734 -0.12939972
0.13828857 0.19382502 1.1745054 0.044670235 -0.3432846 -0.06334378 -0.5809868 -0.29710758
-0.46510145 0.16171202 -0.1585479 -0.43839562 0.16432072 -0.011117698 0.4045375 -0.2425939
-0.009065373 0.11183083 -0.29739606 -0.1233235 0.33535352 -0.29691628 -1.2695632 0.13100584
-1.143593 -0.07289839 -0.015146357 -0.5092424 0.25674728 -0.2392919 -0.3595712 0.14653559
0.28717598 -0.33681542 -0.20790356 -0.036876217 -0.442794 -0.10370717 0.19904114 -0.072165266
-0.043975454 2.5716054 0.22993086 0.22594312 -0.11367924 -0.16862224 -0.05987993 0.15964417
-0.0814254 -0.28991055 -0.3344852 -0.6919786 -0.3358208 0.11003685 -0.012929107 0.046935514
-0.18980628 0.07934181 -0.41474572 -0.3637536 -0.1922753 -0.47064343 -1.3840635 -0.4856164
0.3351364 -0.4914874 0.08322298 -0.0059170597 0.88866657 0.22824052 0.109916165 -0.1376322
0.10850248 0.15562285 0.041720554 0.19986877 -0.5208964 -0.37247232 -0.90273017 -0.12142911
-0.1273673 0.20167652 0.44195536 0.20726213 0.4294242 -0.148279 -0.07079998 -0.2384233
0.21782266 -0.60830534 2.531373e-05 0.05289763 0.033228386 -1.258197 0.13250786 0.3995775
-0.17317875 0.4274725 -0.040724922 0.4628527 0.26253337 0.6515046 0.07069761 -0.11361558
-0.25981244 0.034358025 -0.27899885 -0.40734583 -0.8800307 -0.14772905 -0.61233807 -0.35328153
00000000: ec5c 4cbe 8584 903e 5ba8 f33e 3b31 47bf
00000010: 5ca9 19be 85af ec3e 0c9b 7f3f f387 6fbf
00000020: 9121 9f3d ead2 6a3e ad11 8cbc 44cc 5fbe
00000030: e556 0bbe 4267 35bf df7b 7abf 4414 b1bf
00000040: d481 7bbe c3d9 453f 67dc 0b3f 1a19 c13c
00000050: aea0 983d 3b85 1abc 3e09 643e b5ba 543e
00000060: b3da 7b3d 1e4c acbc 1456 1cbf cbf8 99bc
00000070: 200b da3d 4d6f 0fbe 37a8 1cbf e3a0 3ebe
00000080: cb73 41be 4121 4cbe aad7 ccbe f934 1a3e
00000090: f7e5 7cbe 3f26 73be f856 bbbe db5a cdbe
000000a0: 89de b63e 1540 9abd fc77 773f 24c8 3c3f
000000b0: bbb7 cfbe 9482 18bc cbf3 edbd 80bc 273e
000000c0: 44e0 40bf 9269 28be c7c2 fa3e f408 f3bd
000000d0: a5e9 1dbe 6431 81bd a61b 1cbf a08c eebc
000000e0: 47ae 063e de43 46bf e758 82be 37d7 e4be
000000f0: e31c 543e 42b0 1c3e 6d4f 0fbf 5cb1 45bf
00000100: a083 bcbe 9cdd 36be 840b afbe 775f bfbf
00000110: 5316 93bd 6fed f43d 713e 7c3c 75c3 edbe
00000120: 8f77 2c3f 0189 1cbf ea93 cdbe 5078 dbbe
00000130: 06cb 00bf 84ea e1bd 0bd9 833e f749 b2bf
00000140: 7e78 bfbf 7aa3 84be a9d2 cfbb 97d5 113e
00000150: 5f46 c7bd e164 20bc c032 b0be 0389 67be
00000160: 41d4 a2be e7a4 bdbe c5a0 383e f954 03be
00000170: eb53 a8bf e188 b63e 315e 173e f111 4f3e
00000180: 368b cebf 82c9 d8be c23e aebe 83bc 51be
00000190: ca27 7fbe 23fb 293f 7244 0a40 20c5 8fbe
000001a0: b39f 81bf b442 ebbe 9abe 0ebf 7dd4 843f
000001b0: 4491 83bd a63c 153e 8ad4 e3be d654 02bf
000001c0: b925 35bf 5c67 4ebf ccda 843d 849c 84bd
000001d0: c85e 03be d213 fc3d 142d 5c3f ef0c c4be
000001e0: d046 0abe 2262 2abe 7de6 29bf d79d 5e3e
000001f0: d4db 2d3f 4279 8f3d f5db 8abf edbd 8a3e
00000200: 0307 a3bc 3e12 93bd 0a11 693f ad7e 793d
00000210: 33ac 283f 8e8b e53d 53d4 93be 8c5c 75be
00000220: b495 b2be 7317 07c0 c9e6 f0bd ae2e 79bd
00000230: 2253 d6be faa1 ee3e 349e 643c 5c81 04be
00000240: 859b 0d3e 117a 463e 3156 963f 23f8 363d
00000250: 00c3 afbe 62ba 81bd 8dbb 14bf 7c1e 98be
00000260: c721 eebe d697 253e 615a 22be 6475 e0be
00000270: b143 283e 0127 36bc 8a1f cf3e 896a 78be
00000280: ee86 14bc 9007 e53d 4c44 98be 0891 fcbd
00000290: 75b3 ab3e 6905 98be 0c81 a2bf 6526 063e
000002a0: 4161 92bf c04b 95bd 6d28 78bc b65d 02bf
000002b0: 6174 833e f008 75be b719 b8be 6d0d 163e
000002c0: bb08 933e 1273 acbe ace4 54be 840b 17bd
000002d0: e5b5 e2be 6d64 d4bd 71d1 4b3e 62cb 93bd
000002e0: 9b1f 34bd 2f95 2440 ff72 6b3e a25d 673e
000002f0: a9d0 e8bd 4fab 2cbe a844 75bd c379 233e
00000300: 5cc2 a6bd 286f 94be a541 abbe 8225 31bf
00000310: b4f0 abbe 005b e13d 9bd4 53bc 743f 403d
00000320: 945c 42be f57d a23d 8d59 d4be e93d babe
00000330: d1e3 44be 2df8 f0be fe28 b1bf b6a2 f8be
00000340: 0097 ab3e 3da4 fbbe cf70 aa3d e5e3 c1bb
00000350: a77f 633f e2b7 693e ba1b e13d 75ef 0cbe
00000360: 8c36 de3d 995b 1f3e 2ce3 2a3d 66aa 4c3e
00000370: 7759 05bf b1b4 bebe 5319 67bf d3af f8bd
00000380: 936c 02be 4a84 4e3e f947 e23e 863c 543e
00000390: 7ddd db3e 73d6 17be 94ff 90bd 3d25 74be
000003a0: e70c 5f3e e6b9 1bbf d258 d437 2fab 583d
000003b0: 7d1a 083d 990c a1bf 24b0 073e 6c95 cc3e
000003c0: c555 31be addd da3e 2dcf 26bd 07fb ec3e
000003d0: c66a 863e 01c9 263f e9c9 903d 49af e8bd
000003e0: 2306 85be 00bb 0c3d f0d8 8ebe a28f d0be
000003f0: b149 61bf 4946 17be 30c2 1cbf 51e1 b4be

onnx::MatMul_13 f4 [512, 3]
0.03771847 -0.11285197 -0.036202613 0.0057701967 0.11932213 0.21905433 -0.006477635 0.06415053
0.18267559 0.17946424 -0.06858501 -0.38201368 -0.067556985 -0.06567049 0.015956651 0.1372744
-0.009318763 2.2210522 0.26736212 0.06396257 0.2927693 -0.1393648 -0.0073615243 0.04389712
0.020873556 -0.024130331 0.014155435 -0.013058472 -0.059501227 -0.047853567 -0.15544511 -0.0017329248
-0.04192754 -0.0013031529 0.07542361 -0.027303765 0.026142322 0.039076485 0.017598743 -0.18088472
0.68319756 -0.12791038 -0.110667795 -0.6321624 -0.81060344 -0.09053428 -0.64715505 -0.36085498
-0.020845104 -0.025171062 -0.0053063617 0.123994626 1.1632009 0.053057253 0.34872526 -0.10716536
-0.58363557 0.84174526 0.15278937 0.1583026 1.5587864 -1.3113468 -0.16421244 -0.010146337
-0.059778947 -0.094582796 0.00606398 -0.014111206 -0.04655498 -0.030085884 -0.21952331 -0.17628154
-0.0021825659 -0.029942285 -0.048185483 0.03958371 0.004927494 0.0058956435 -0.22678024 -0.020382693
-0.008684912 3.0325986e-05 -0.06772819 -0.019653609 -0.03451091 -0.029052757 0.025890607 -0.5592931
-0.34878236 -0.77888215 -0.42563474 -0.24758455 -0.18644051 -0.0216335 -0.07418602 -0.0063711503
0.016972613 0.107636414 0.030171137 -0.025257476 -0.040739115 0.006887774 -0.0022168828 0.0037113684
-0.005415528 -0.13698526 -0.06879173 0.02706289 -0.016434418 -0.0066398857 -0.029525459 -0.080678396
-0.23692657 -0.0072513637 -0.16852307 0.012482734 0.03651978 -0.04344978 -0.08052481 0.10024748
0.0661888 -0.006620172 -0.3512039 -0.06630239 -0.0066004284 -0.035705578 0.16679488 -0.01778739
-0.28033033 -0.008725694 -0.14448033 -0.046864115 -0.4422378 -0.03836463 -0.01147058 -0.03152424
-0.019807255 0.045407556 -0.13810077 -0.23070468 0.8633872 0.3063459 -0.5223418 -0.93126726
-0.1494764 0.7895263 1.479041 -5.3070227e-05 0.2104309 -0.09132861 0.013629203 -0.14349873
0.08705556 0.01167766 -0.060343273 -0.016407209 -0.95879245 -0.5538659 -0.68569183 0.012453511
0.07075651 0.0022546132 0.05058665 -0.049097866 -0.2436716 0.090727165 -0.03001025 0.04489486
0.02967458 0.014555151 -0.047135685 -0.09684516 0.06955075 0.026737703 -0.13298006 0.0063568274
-0.047690645 0.1243875 -0.025750002 0.11124846 1.0461127 -0.284288 -1.2037542 0.26823294
0.44041622 0.098939426 0.013650804 -0.008891715 0.04949039 0.030730003 -0.15416653 -0.0022344608
-0.046738967 -1.4977916 -1.1921108 0.022120196 -0.092281096 0.02339887 0.15712702 0.05161132
0.096711285 -0.35807735 0.6286662 -0.57673734 0.05895319 0.14349037 0.042164385 0.062935464
0.09587363 -0.3768757 0.000717308 -0.02709065 -0.0131266415 0.09070852 -0.18736345 -0.02711008
0.18967515 1.5586206 0.32681942 -0.20912477 0.021773227 -0.017160373 0.012690797 -0.0209571
-0.010714725 0.15051909 0.044030704 -0.28374854 -0.027267987 -0.004152891 -0.03457716 -0.009440771
0.045309607 -0.019509036 0.9311075 0.86243206 0.43638608 0.5291428 2.2142656 0.42221585
-0.18391277 -0.086453356 1.6573675 -0.01641384 -0.018513458 -0.004772303 -0.027764825 0.010687492
0.0044746595 -0.007980558 0.076962195 -0.077516966 -0.40372133 -0.4659639 -0.71336263 0.013054367
00000000: af7e 1a3d ef1e e7bd 3149 14bd eb13 bd3b
00000010: 295f f43d c74f 603e 5742 d4bb 5a61 833d
00000020: 4f0f 3b3e 79c5 373e 4c76 8cbd 4c97 c3be
00000030: 515b 8abd 407e 86bd 86b7 823c a991 0c3e
00000040: baad 18bc b825 0e40 b0e3 883e cffe 823d
00000050: dce5 953e a5b5 0ebe f138 f1bb 77cd 333d
00000060: 05ff aa3c f9ac c5bc 33ec 673c 34f3 55bc
00000070: 8fb7 73bd 1a02 44bd 012d 1fbe 4f23 e3ba
00000080: 36bc 2bbd 8ece aaba b277 9a3d 25ac dfbc
00000090: 6c28 d63c aa0e 203d 3d2b 903c d839 39be
000000a0: 09e6 2e3f f0fa 02be cca5 e2bd 65d5 21bf
000000b0: b583 4fbf 096a b9bd f4ab 25bf fcc1 b8be
000000c0: 5ac3 aabc 8b33 cebc fde0 adbb e5f0 fd3d
000000d0: c4e3 943f 9052 593d 1e8c b23e 8379 dbbd
000000e0: 2469 15bf 9e7c 573f d174 1c3e 141a 223e
000000f0: 5086 c73f 36da a7bf 4e27 28be d23c 26bc
00000100: c5da 74bd a0b4 c1bd 5ab4 c63b b032 67bc
00000110: 6fb0 3ebd ac76 f6bc b8ca 60be 2683 34be
00000120: 6109 0fbb 8649 f5bc 245e 45bd 8722 223d
00000130: d176 a13b 3e30 c13b 1439 68be 9bf9 a6bc
00000140: 294b 0ebc 8f64 fe37 14b5 8abd 9b00 a1bc
00000150: 505b 0dbd 0c00 eebc 8a18 d43c d52d 0fbf
00000160: 9a93 b2be d264 47bf ccec d9be ce86 7dbe
00000170: 43ea 3ebe bd38 b1bc d7ee 97bd 15c5 d0bb
00000180: 260a 8b3c 7b70 dc3d 7629 f73c c4e8 cebc
00000190: 0fde 26bd d6b2 e13b 1f49 11bb 6e3a 733b
000001a0: be74 b1bb dd45 0cbe aee2 8cbd feb2 dd3c
000001b0: 79a1 86bc 6693 d9bb 60df f1bc b73a a5bd
000001c0: e19c 72be d99c edbb 5091 2cbe 6284 4c3c
000001d0: c495 153d 66f8 31bd 31ea a4bd 8d4e cd3d
000001e0: fe8d 873d 07ee d8bb ffd0 b3be 8cc9 87bd
000001f0: 6848 d8bb 0340 12bd 47cc 2a3e dcb6 91bc
00000200: 7587 8fbe 37f6 0ebc a7f2 13be 96f4 3fbd
00000210: fe6c e2be 3b24 1dbd 19ef 3bbc 901f 01bd
00000220: d342 a2bc 46fd 393d 4a6a 0dbe d93d 6cbe
00000230: f206 5d3f 5fd9 9c3e 31b8 05bf 8867 6ebf
00000240: 5710 19be 651e 4a3f 3751 bd3f b997 5eb8
00000250: 337b 573e 7f0a bbbd 054d 5f3c 55f1 12be
00000260: 2f4a b23d a853 3f3c 822a 77bd 6968 86bc
00000270: 6c73 75bf 28ca 0dbf 8089 2fbf d009 4c3c
00000280: cae8 903d 22c2 133b f233 4f3d d81a 49bd
00000290: 0c85 79be 2acf b93d 0ed8 f5bc ace3 373d
000002a0: 1b18 f33c ba78 6e3c 5911 41bd c156 c6bd
000002b0: a070 8e3d 0709 db3c ed2b 08be ef4c d03b
000002c0: 4457 43bd e0be fe3d abf1 d2bc 3cd6 e33d
000002d0: 05e7 853f 328e 91be 9e14 9abf d455 893e
000002e0: 3c7e e13e c1a0 ca3d 9fa7 5f3c 8eae 11bc
000002f0: 6fb6 4a3d 7dbd fb3c d5dd 1dbe 0870 12bb
00000300: 5c71 3fbd a3b7 bfbf 1697 98bf 6a35 b53c
00000310: dffd bcbd fdae bf3c e8e5 203e 6466 533d
00000320: 9110 c63d ea55 b7be 45f0 203f 0fa5 13bf
00000330: e678 713d 24ef 123e 90b4 2c3d 4fe4 803d
00000340: 6559 c43d daf5 c0be ba09 3c3a 36ed ddbc
00000350: 2011 57bc 63c5 b93d 34dc 3fbe f515 debc
00000360: 343a 423e e180 c73f e054 a73e ce24 56be
00000370: c45d b23c e993 8cbc 10ed 4f3c 39ae abbc
00000380: d08c 2fbc ad21 1a3e 8a59 343d 7d47 91be
00000390: 1d61 dfbc fa14 88bb c8a0 0dbd 77ad 1abc
000003a0: 9196 393d 6ad1 9fbc 105d 6e3f 59c8 5c3f
000003b0: ff6d df3e e775 073f 87b6 0d40 ad2c d83e
000003c0: a153 3cbe 750e b1bd 9e24 d43f 5176 86bc
000003d0: 89a9 97bc fb60 9cbb 0f73 e3bc 971a 2f3c
000003e0: 2aa0 923b e3c0 02bc 5b9e 9d3d 37c1 9ebd
000003f0: 90b4 cebe d292 eebe ef9e 36bf fce1 553c
