models/600-games-model.onnx (onnx, 37455 bytes, 4 tensors)

linear1.bias f4 [512]
0	0xbdc4808e	-0.09594832
1	0xbfc9adbf	-1.5756148
2	0xbfc72bdd	-1.5560261
3	0x3f29c21c	0.6631181
4	0xbf2d241a	-0.6763321
5	0xc05318ae	-3.2983813
6	0xc004a932	-2.0728269
7	0xbe8c0027	-0.27343866
8	0xbeab6c28	-0.33480954
9	0xbeb38ec2	-0.35069853
10	0xbe947685	-0.28996673
11	0xbf3765a6	-0.7163948
12	0xbe722448	-0.23646653
13	0xc065f812	-3.593266
14	0xbf9d0caf	-1.2269496
15	0xbff17e8e	-1.8866746
16	0xbe6eb35f	-0.23310612
17	0xc05f5476	-3.48953
18	0xbfb2b087	-1.3960122
19	0xbf068fac	-0.52562976
20	0xc00dd5b5	-2.2161686
21	0xbb91fe8e	-0.004455394
22	0xbe917d0e	-0.28415722
23	0xbe53eabb	-0.20695011
24	0xbe1a5b5f	-0.15073918
25	0x3d0f6548	0.0350087
26	0xbeed1ccb	-0.4631103
27	0xbda551f0	-0.08072269
28	0xbdfbbf8a	-0.122923926
29	0xbf372b02	-0.7155
30	0xbf3b9f96	-0.73290384
31	0xbe6f2f0d	-0.23357792
32	0xbed63e98	-0.4184463
33	0xbe91cfe9	-0.28478935
34	0xbdd3a9b4	-0.10335103
35	0xbedcf897	-0.4315841
36	0xbec1538d	-0.37759057
37	0xbe1cb564	-0.1530357
38	0xbec45843	-0.38348588
39	0x3df66af8	0.120321214
40	0xbed70804	-0.41998303
41	0xbdf4dde1	-0.119563825
42	0xc05af298	-3.4210567
43	0xbf83dbab	-1.0301412
44	0xbe895b99	-0.26827696
45	0xbeb120a6	-0.3459522
46	0xc0220e35	-2.5321171
47	0xbfb83f6a	-1.4394352
48	0x3e399492	0.18123081
49	0x3ded2ccb	0.11580809
50	0xbf9fe717	-1.2492398
51	0xbe5150c6	-0.20440969
52	0xbfd33431	-1.6500303
53	0xbef6e146	-0.48218745
54	0xbe972ea8	-0.29527783
55	0xbe371e0b	-0.17882554
56	0xbe88038f	-0.26565215
57	0xbee9232f	-0.45534655
58	0xbe94bdbf	-0.29051015
59	0xbfdd360a	-1.7282116
60	0xbeb5621c	-0.35426414
61	0xbf3ce5ff	-0.73788446
62	0xbea5c189	-0.32374218
63	0xc007d030	-2.1220818
64	0x3e413c6d	0.18870707
65	0xbe81d1c7	-0.2535536
66	0xbd3b138a	-0.04567293
67	0xbf6118d6	-0.8792852
68	0xbea6aaff	-0.32552335
69	0xbea0e932	-0.31427914
70	0xbe286ae3	-0.16447024
71	0xbdb8d892	-0.090256825
72	0xc0809e68	-4.0193367
73	0xbe507060	-0.20355368
74	0xbe1bd3f6	-0.15217575
75	0xbdd2e921	-0.10298372
76	0xbeab0a87	-0.3340647
77	0xbeea7eb3	-0.4579979
78	0xbf1a5682	-0.6028825
79	0xbf8cc480	-1.0997467
80	0xc0527e70	-3.2889671
81	0xbe47da39	-0.19516839
82	0xbd0c8b46	-0.03431251
83	0xbe53ddd8	-0.20690095
84	0xbf6eed97	-0.93331283
85	0xbe5e00e1	-0.21680023
86	0xbe32a314	-0.17445022
87	0xbe7794a0	-0.2417779
88	0x3bd8c62d	0.0066154213
89	0xbe9a2689	-0.30107525
90	0xbec3f5c2	-0.38273436
91	0xbe909fd0	-0.28246927
92	0xbfa04db1	-1.252371
93	0xbeefd1a7	-0.4683964
94	0x3b0431b8	0.0020171236
95	0xbe996242	-0.29957777
96	0xc067cb02	-3.6217656
97	0xbd2a5367	-0.041583445
98	0x3defeb13	0.11714759
99	0xbccc2931	-0.024921985
100	0xbe7aee41	-0.24504949
101	0xbfd3a187	-1.6533669
102	0xbf8c2667	-1.094922
103	0xbe23302f	-0.1593635
104	0xbea5740b	-0.32315096
105	0xbe9e9921	-0.30976203
106	0x3d257e83	0.040403854
107	0xbfd934e1	-1.6969262
108	0xbd89d262	-0.067295805
109	0xbe5b0683	-0.21389203
110	0xbeed25ba	-0.46317846
111	0xc03cf1d5	-2.9522603
112	0xbf328f64	-0.69750047
113	0xbef1b2e0	-0.47206783
114	0xbecc2eda	-0.39879495
115	0xbde58dd9	-0.11208696
116	0xbdcc34e6	-0.09971027
117	0xbebf9c32	-0.37423855
118	0xc005022c	-2.0782576
119	0xc03f5905	-2.9898083
120	0xbea6fd19	-0.32614973
121	0xbc489e33	-0.012244749
122	0xbe92abb4	-0.28646624
123	0xbd921084	-0.07132056
124	0xc0171b56	-2.3610435
125	0xbf8bc142	-1.0918353
126	0xc00f0f07	-2.2352922
127	0x3dda3123	0.10653903
128	0xbe8fb44a	-0.28067237
129	0xbd3578f7	-0.044304814
130	0xc006311d	-2.0967476
131	0xbd3a202d	-0.04544084
132	0xc0477622	-3.1165853
133	0xbf433cbb	-0.7626454
134	0xbf1c6b4f	-0.6110124
135	0xbfc68f17	-1.5512418
136	0xbeb4c0af	-0.35303256
137	0x3ea3cef5	0.31993833
138	0xbe7bebc8	-0.24601662
139	0xbf448cfa	-0.76777613
140	0xbfe5954a	-1.7936184
141	0x3feab967	1.833783
142	0xbd3b0249	-0.045656476
143	0xbe82353c	-0.2543124
144	0xbe071d20	-0.13194704
145	0xbf0d4a15	-0.55191165
146	0x3f30e12a	0.69093573
147	0xbfd84165	-1.6894957
148	0xbf22102e	-0.6330594
149	0xbf261357	-0.6487326
150	0x3e16bd9c	0.14720768
151	0xbe498c9c	-0.19682544
152	0xbf711e0a	-0.9418646
153	0xbd83891d	-0.06422637
154	0xbe8e9d00	-0.27854156
155	0xbe52d767	-0.20589982
156	0xbe9de53e	-0.3083896
157	0xbe81959a	-0.2530945
158	0xbfba5bf5	-1.4559313
159	0xbe47ca4c	-0.19510764
160	0xbd662b0e	-0.056193404
161	0xbc9a3761	-0.018825235
162	0xbe37c84b	-0.179475
163	0xbeb3604b	-0.35034403
164	0x4016604e	2.349628
165	0xbeb372cf	-0.3504853
166	0xbf5df7bf	-0.86706156
167	0xbe8e35cd	-0.27775422
168	0xbf03603e	-0.5131873
169	0xbe8dbbcc	-0.2768234
170	0xbff936c6	-1.946984
171	0xbee4cc0e	-0.4468693
172	0xbf2e7801	-0.6815186
173	0xbf546f25	-0.82982093
174	0xbf0f12d1	-0.55888087
175	0xbce6089f	-0.028080283
176	0xbf947b3c	-1.1600108
177	0xbefe8f9e	-0.49718946
178	0xc021d458	-2.5285854
179	0xbddae543	-0.106882595
180	0xbed24a9f	-0.41072556
181	0xbe908857	-0.2822902
182	0xbfc22990	-1.5168934
183	0xbeb4296e	-0.35187858
184	0xbf05f4a2	-0.52326405
185	0xbf9cc95a	-1.2248948
186	0xbf9807f4	-1.1877427
187	0xbf069c30	-0.52582073
188	0xbe5a8a17	-0.2134174
189	0xbe24c701	-0.16091539
190	0xbe371018	-0.17877233
191	0xbe828e9c	-0.25499427
192	0x3e2db7f1	0.169647
193	0xbd1238f1	-0.035698835
194	0xbead4fb5	-0.33849874
195	0xbe9c1c73	-0.30490455
196	0xbe4a008c	-0.19726771
197	0xbebb9d56	-0.36643475
198	0xbf998421	-1.1993448
199	0xbeb194b5	-0.34683767
200	0xbfda3c58	-1.7049665
201	0xbe3ec0e2	-0.18628266
202	0xbea837eb	-0.32855162
203	0xbdcf1f31	-0.10113371
204	0xbee3a4a6	-0.44461554
205	0xbef0d640	-0.4703846
206	0xbf978ddf	-1.1840171
207	0xbe6745a2	-0.22585157
208	0xbf91cb6d	-1.1390206
209	0xbf3ad1c2	-0.72976315
210	0xbe8d8334	-0.27639163
211	0xbe9bd382	-0.30434805
212	0xc0747b71	-3.8200343
213	0xbeb20734	-0.3477112
214	0xbe2ee09c	-0.17077869
215	0xbe24f27c	-0.16108125
216	0xbebd01b6	-0.36915368
217	0xbe66a261	-0.2252288
218	0xbe202768	-0.15640032
219	0xbebe1c76	-0.3713109
220	0xbf0bb1f7	-0.5456843
221	0xbe7a7d8b	-0.24461953
222	0xc015a8fb	-2.3384387
223	0xbdd7ae7b	-0.105313264
224	0xbedfd9c3	-0.43720827
225	0xbf01539e	-0.50518215
226	0xc0084871	-2.1294215
227	0xbfcb6ef4	-1.5893235
228	0xbf6c9f3e	-0.92430484
229	0xbe48c7bf	-0.19607447
230	0xbeae2de6	-0.34019393
231	0xbece5b10	-0.4030385
232	0xbf3cf0af	-0.73804754
233	0xbe9ebde4	-0.3100425
234	0xbe7545ec	-0.23952454
235	0xbecfb1b2	-0.40565258
236	0xbe54ddc9	-0.2078773
237	0xbf3097af	-0.6898145
238	0xbe1891d5	-0.1489938
239	0xbf0fceb8	-0.561748
240	0xbe759555	-0.23982747
241	0xbe877fdd	-0.2646474
242	0xbd84e993	-0.06489863
243	0xc045590b	-3.0835598
244	0xbe467dbd	-0.19383903
245	0xbff02808	-1.8762217
246	0xbec1520a	-0.37757903
247	0xbe8a377c	-0.26995456
248	0xbeac8b26	-0.33699912
249	0xbe949fc8	-0.29028153
250	0xbe7b6f86	-0.24554262
251	0xbeda36a0	-0.426198
252	0xbfb90ac6	-1.4456413
253	0xc017844a	-2.3674493
254	0xbeac356c	-0.33634508
255	0xbe953530	-0.2914214

linear2.bias f4 [3]
0	0xbfb15e15	-1.3856837
1	0x3f0b8e46	0.5451397
2	0x3f72ebb1	0.94890887

onnx::MatMul_12 f4 [14, 512]
0	0xbe4c5cec	-0.19957322
1	0x3e908485	0.28226104
2	0x3ef3a85b	0.47589383
3	0xbf440744	-0.76573586
4	0xbe19a95c	-0.15006012
5	0x3f02c9ee	0.5108937
6	0x3f6ebba9	0.93255097
7	0xbf6f87f3	-0.9356682
8	0x3d9f2191	0.07770074
9	0x3e4a5546	0.19759092
10	0xbc8c11ad	-0.017098272
11	0xbe5fcc44	-0.21855265
12	0xbe0b56e5	-0.13607366
13	0xbf172156	-0.5903524
14	0xbf7e5374	-0.9934609
15	0xbfab4df8	-1.3383169
16	0xbe7b81d4	-0.24561244
17	0x3f183842	0.5946084
18	0x3ec7de1a	0.39036638
19	0x3cc1191a	0.02357154
20	0x3d524a01	0.051340107
21	0xbc1a853b	-0.009431179
22	0x3e64093e	0.2226915
23	0x3e54bab5	0.20774348
24	0x3d7bdab3	0.061487865
25	0xbcac4c1e	-0.02103239
26	0xbf1c5614	-0.61068845
27	0xbc99f8cb	-0.018795392
28	0x3dda0b20	0.10646653
29	0xbe9918a5	-0.29901615
30	0xbf4404dc	-0.76569915
31	0xbe3ea0e3	-0.18616061
32	0xbe4173cb	-0.18891828
33	0xbe4c2141	-0.1993456
34	0xbeccd7aa	-0.4000829
35	0x3e1a34f9	0.1505927
36	0xbe7ce5f7	-0.246971
37	0xbe73263f	-0.23745058
38	0xbebb56f8	-0.3658979
39	0xbecd5adb	-0.4010838
40	0x3eb6de89	0.35716656
41	0xbd9a4015	-0.07531754
42	0x3fa7d783	1.3112644
43	0x3f1a294d	0.6021927
44	0xbecfb7bb	-0.40569863
45	0xbc188294	-0.009308476
46	0xbf6520bd	-0.8950308
47	0x3e6ff212	0.23432186
48	0xbf697442	-0.9119302
49	0xbe286992	-0.16446522
50	0x3efac2c7	0.48976728
51	0xbdf308f4	-0.11866942
52	0xbe53293f	-0.20621203
53	0xbd813164	-0.06308249
54	0xbf1c1ba6	-0.6097969
55	0xbcee8ca0	-0.02911979
56	0x3e06ae47	0.13152419
57	0xbf4643de	-0.7744731
58	0xbe8258e7	-0.25458452
59	0xbee4d737	-0.44695446
60	0x3eaaeb6e	0.33382744
61	0x3e1cb042	0.15301612
62	0xbf0f4f6d	-0.5598057
63	0xbf45b15c	-0.77223754
64	0xbf0057e4	-0.5013411
65	0xbe36dd9c	-0.17857975
66	0xbeaf0b84	-0.34188473
67	0xbfdfd446	-1.7486656
68	0xbd931653	-0.071819924
69	0x3df4ed6f	0.11959349
70	0x3c7c3e71	0.015395747
71	0xbeedc375	-0.46438184
72	0x3f31aa13	0.6940014
73	0xbf1c8901	-0.6114655
74	0xbecd93ea	-0.40151912
75	0xbedb7850	-0.4286523
76	0xbf00cb06	-0.5030979
77	0xbde1ea84	-0.110310584
78	0x3e83d90b	0.25751528
79	0xbfb249f7	-1.3928822
80	0xbfe9a273	-1.82527
81	0xbe84a37a	-0.25905973
82	0xbbcfd2a9	-0.0063422513
83	0x3e11d597	0.14241634
84	0x3de007f9	0.10939021
85	0xbc2064e1	-0.009789676
86	0xbeb032c0	-0.3441372
87	0xbe678903	-0.2261086
88	0xbea2d441	-0.31802562
89	0xbebda4e7	-0.37039873
90	0x3e38a0c5	0.18030079
91	0xbe0354f9	-0.12825383
92	0xbf6fe535	-0.9370912
93	0x3eb688e1	0.35651305
94	0x3e175e31	0.14782025
95	0x3e4f11f1	0.20221688
96	0xbfce8b36	-1.6136234
97	0xbed8c982	-0.42341238
98	0xbeae3ec2	-0.34032255
99	0xbe51bc83	-0.20482068
100	0xbe7f27ca	-0.24917522
101	0x3f6988a0	0.912241
102	0x4010e98d	2.2642548
103	0xbe8fc520	-0.28080082
104	0xbf819fb3	-1.0126861
105	0xbeeb42b4	-0.45949328
106	0xbef552fd	-0.47914878
107	0x3f435ab0	0.76310253
108	0xbd839144	-0.064241916
109	0x3e153ca6	0.14573917
110	0xbee3d48a	-0.44498092
111	0xbf0254d6	-0.509107
112	0xbf4d6a4d	-0.8024033
113	0xbf4e675c	-0.80626464
114	0x3d84dacc	0.06487045
115	0xbd849c84	-0.064751655
116	0xbe035ec8	-0.12829125
117	0x3dfc13d2	0.12308468
118	0x3f8ed82a	1.1159718
119	0xbe7436cc	-0.23849028
120	0xbe0a46d0	-0.13503575
121	0xbe2a6222	-0.16638997
122	0xbf29e67d	-0.6636732
123	0x3e5e9dd7	0.21739899
124	0x3f5501d0	0.8320589
125	0xbc1a9d79	-0.0094369585
126	0xbf8adbf5	-1.0848376
127	0x3ec104e9	0.3769906
128	0xbca30703	-0.019900804
129	0xbd93123e	-0.07181214
130	0x3f893aa7	1.0721024
131	0x3d797ead	0.060911823
132	0x3f38eb9e	0.72234523
133	0x3de58b8e	0.112082586
134	0xbe93d453	-0.28872928
135	0x3e5e4522	0.2170606
136	0xbeb295b4	-0.3487984
137	0xc01e5ac3	-2.4742897
138	0xbdf0e6c9	-0.11762769
139	0xbe6c4be2	-0.23075822
140	0xbf67b449	-0.9050947
141	0x3eaf437a	0.34231168
142	0x3c649e34	0.013953734
143	0xbe04815c	-0.12939972
144	0x3e0d9b85	0.13828857
145	0x3e467a11	0.19382502
146	0x3f9262f9	1.1436454
147	0xbd141223	-0.03615011
148	0xbeafc300	-0.3432846
149	0x3daa1f90	0.08306801
150	0xbf2969cb	-0.6617705
151	0xbe981e7c	-0.29710758
152	0xbeee21c7	-0.46510145
153	0x3e2597d6	0.16171202
154	0xbe225a61	-0.1585479
155	0xbee07564	-0.43839562
156	0x3e2843b1	0.16432072
157	0xbc362701	-0.011117698
158	0x3ecf1f8a	0.4045375
159	0xbe786a89	-0.2425939
160	0xbc1486ee	-0.009065373
161	0x3de50790	0.11183083
162	0xbe98444c	-0.29739606
163	0xbdfc9108	-0.1233235
164	0x3ec4d3b4	0.38442767
165	0xbe980569	-0.29691628
166	0xbfb7e94d	-1.4368073
167	0x3e062665	0.13100584
168	0xbf926141	-1.143593
169	0xbd954bc0	-0.07289839
170	0x3f0f9068	0.5607972
171	0xbf025db6	-0.5092424
172	0x3e837461	0.25674728
173	0xbe7508f0	-0.2392919
174	0xbeb819b7	-0.3595712
175	0x3ec56e2d	0.3856062
176	0x3e6c69e7	0.23087274
177	0xbeac7312	-0.33681542
178	0xbe97473f	-0.29546544
179	0xbd170b84	-0.036876217
180	0xbee2b5e5	-0.442794
181	0xbdd4646d	-0.10370717
182	0x3e4bd171	0.19904114
183	0xbd93cb62	-0.072165266
184	0xbd341f9b	-0.043975454
185	0x403e5a1c	2.9742498
186	0x3e6b72ff	0.22993086
187	0x3e692890	0.2276938
188	0xbde8d0a9	-0.11367924
189	0xbe2cab4f	-0.16862224
190	0xbd7544a8	-0.05987993
191	0x3e94f5ff	0.2909393
192	0xbf161b1d	-0.5863512
193	0xbe946f28	-0.28991055
194	0xbeab41a5	-0.3344852
195	0xbf312582	-0.6919786
196	0xbeabf0b4	-0.3358208
197	0x3de15b00	0.11003685
198	0x3d0f9542	0.035054453
199	0x3d403f74	0.046935514
200	0xbe6a514b	-0.22882573
201	0x3da27df5	0.07934181
202	0xbf85028e	-1.0391405
203	0xbeba3de9	-0.3637536
204	0xbe44e3d1	-0.1922753
205	0xbef0f82d	-0.47064343
206	0xbfbf5f4a	-1.4950955
207	0xbef8a2b6	-0.4856164
208	0x3eab9700	0.3351364
209	0xbefba43d	-0.4914874
210	0x3daa70cf	0.08322298
211	0xbbc1e3e5	-0.0059170597
212	0x3f8f5d99	1.1200439
213	0x3e69b7e2	0.22824052
214	0x3de11bba	0.109916165
215	0xbe0cef75	-0.1376322
216	0x3dde368c	0.10850248
217	0x3e1f5b99	0.15562285
218	0x3d2ae32c	0.041720554
219	0x3e4caa66	0.19986877
220	0xbf055977	-0.5208964
221	0xbebeb4b1	-0.37247232
222	0xbf671953	-0.90273017
223	0xbdf8afd3	-0.12142911
224	0xbe026c93	-0.1273673
225	0x3e4e844a	0.20167652
226	0x3ee247f9	0.44195536
227	0x3f256398	0.64605093
228	0x3edbdd7d	0.4294242
229	0xbe17d673	-0.148279
230	0xbd90ff94	-0.07079998
231	0xbe74253d	-0.2384233
232	0x3f094a6e	0.53629196
233	0xbf1bb9e6	-0.60830534
234	0x37d458d2	2.531373e-05
235	0x3d58ab2f	0.05289763
236	0x3d081a7d	0.033228386
237	0xbfded993	-1.7410148
238	0x3e07b024	0.13250786
239	0x3ecc956c	0.3995775
240	0xbe3155c5	-0.17317875
241	0x3edaddad	0.4274725
242	0xbd26cf2d	-0.040724922
243	0x3eecfb07	0.4628527
244	0x3e0d28c5	0.13785084
245	0x3f5ca9c6	0.86196554
246	0x3d90c9e9	0.07069761
247	0xbde8af49	-0.11361558
248	0xbe850623	-0.25981244
249	0x3d0cbb00	0.034358025
250	0xbe8ed8f0	-0.27899885
251	0xbed08fa2	-0.40734583
252	0xbf6149b1	-0.8800307
253	0xbdeb200f	-0.11480724
254	0xbf1cc230	-0.61233807
255	0xbeb4e151	-0.35328153

onnx::MatMul_13 f4 [512, 3]
0	0x3d1a7eaf	0.03771847
1	0xbde71eef	-0.11285197
2	0xbd144931	-0.036202613
3	0x3bbd13eb	0.0057701967
4	0x3df45f29	0.11932213
5	0x3e604fc7	0.21905433
6	0xbbd44257	-0.006477635
7	0x3d83615a	0.06415053
8	0x3e3b0f4f	0.18267559
9	0x3d73aabd	0.059489
10	0xbe662c92	-0.2247794
11	0xbedf2586	-0.43583316
12	0xbd8a5b51	-0.067556985
13	0xbd867e40	-0.06567049
14	0x3c82b786	0.015956651
15	0x3e87e716	0.26543492
16	0x3da1c2c8	0.0789848
17	0x40291cac	2.642375
18	0x3e5f3e12	0.21801022
19	0x3f1dc8a9	0.6163431
20	0x3c5d8330	0.013520047
21	0xbe0eb5a5	-0.1393648
22	0xbbf138f1	-0.0073615243
23	0x3d33cd77	0.04389712
24	0x3caaff05	0.020873556
25	0xbcc5acf9	-0.024130331
26	0x3c67ec33	0.014155435
27	0x3c98d233	0.018654918
28	0xbd73b78f	-0.059501227
29	0xbd44021a	-0.047853567
30	0xbe1f2d01	-0.15544511
31	0xbae3234f	-0.0017329248
32	0xbd2bbc36	-0.04192754
33	0xbaaace8e	-0.0013031529
34	0x3d9a77b2	0.07542361
35	0xbcdfac25	-0.027303765
36	0x3cd6286c	0.026142322
37	0x3d200eaa	0.039076485
38	0x3c902b3d	0.017598743
39	0xbe9d0938	-0.30671096
40	0x3f851a55	1.0398661
41	0xbf054014	-0.520509
42	0xbc6005b8	-0.013673238
43	0xbf6517c7	-0.89489406
44	0xbf54a452	-0.8306323
45	0xbe252049	-0.16125597
46	0xbf840502	-1.0314028
47	0xbef138f7	-0.47113773
48	0xbcaac35a	-0.020845104
49	0xbcce338b	-0.025171062
50	0xbbade0fd	-0.0053063617
51	0xbbf6be41	-0.0075300043
52	0x3f996262	1.1983149
53	0xbdb9b814	-0.09068313
54	0x3da7064a	0.081554964
55	0x3be04829	0.0068445397
56	0xbb341c4f	-0.0027482694
57	0x3f577c9e	0.84174526
58	0x3e1c74d1	0.15278937
59	0x3e221a14	0.1583026
60	0x3fe4f5a7	1.7887467
61	0xbfb9e347	-1.4522485
62	0xbe6c21df	-0.23059796
63	0xbc263cd2	-0.010146337
64	0xbd74dac5	-0.059778947
65	0xbdc1b4a0	-0.094582796
66	0x3bc6b45a	0.00606398
67	0xbc6732b0	-0.014111206
68	0xbd3eb06f	-0.04655498
69	0xbcf676ac	-0.030085884
70	0xbe60cab8	-0.21952331
71	0xbe348326	-0.17628154
72	0xbb0f0961	-0.0021825659
73	0xbcf54986	-0.029942285
74	0xbd455e24	-0.048185483
75	0x3d222287	0.03958371
76	0x3ba176d1	0.004927494
77	0x3bc1303e	0.0058956435
78	0xbe683914	-0.22678024
79	0xbca6f99b	-0.020382693
80	0xbc0e4b29	-0.008684912
81	0x37fe648f	3.0325986e-05
82	0xbd8ab514	-0.06772819
83	0xbca1009b	-0.019653609
84	0xbd0d5b50	-0.03451091
85	0xbcee000c	-0.029052757
86	0x3cd4188a	0.025890607
87	0xbf22bb3b	-0.6356694
88	0xbefddd6d	-0.49582997
89	0xbf44bf8f	-0.76854795
90	0xbefa4300	-0.48879242
91	0xbed049e3	-0.4068137
92	0xbdd35f55	-0.103209175
93	0xbcb138bd	-0.0216335
94	0xbd97eed7	-0.07418602
95	0xbbd0c515	-0.0063711503
96	0x3c8b0a26	0.016972613
97	0x3ddc707b	0.107636414
98	0x3cf72976	0.030171137
99	0xbccee8c4	-0.025257476
100	0xbd26de0f	-0.040739115
101	0x3be1b2d6	0.006887774
102	0xbb11491f	-0.0022168828
103	0x3b733a6e	0.0037113684
104	0xbbb174be	-0.005415528
105	0xbe0c45dd	-0.13698526
106	0xbd8ce2ae	-0.06879173
107	0x3cddb2fe	0.02706289
108	0xbc86a179	-0.016434418
109	0xbbd99366	-0.0066398857
110	0xbcf1df60	-0.029525459
111	0xbda53ab7	-0.080678396
112	0xbe729ce1	-0.23692657
113	0xbbed9cd9	-0.0072513637
114	0xbe2c9150	-0.16852307
115	0x3c4c8462	0.012482734
116	0x3d1595c4	0.03651978
117	0xbd31f866	-0.04344978
118	0xbda4ea31	-0.08052481
119	0x3dcd4e8d	0.10024748
120	0x3d878dfe	0.0661888
121	0xbbd8ee07	-0.006620172
122	0xbeb3d0ff	-0.3512039
123	0xbd87c98c	-0.06630239
124	0xbbd84868	-0.0066004284
125	0xbd124003	-0.035705578
126	0x3e8f6584	0.28007138
127	0x3eae3d54	0.34031165
128	0xbdc1c087	-0.0946055
129	0x3bab9ae9	0.0052369726
130	0xbd4ed98e	-0.050500445
131	0xbd3ff496	-0.046864115
132	0xbee26cfe	-0.4422378
133	0xbd1d243b	-0.03836463
134	0xbc3bef19	-0.01147058
135	0xbd011f90	-0.03152424
136	0xbca242d3	-0.019807255
137	0x3d39fd46	0.045407556
138	0xbea91be6	-0.33029097
139	0x3b4a54c2	0.0030873273
140	0x3d8e9fa9	0.069640465
141	0x3e655056	0.22393927
142	0xbec6ef30	-0.3885436
143	0xbf22b1da	-0.6355263
144	0xbea832b6	-0.3285119
145	0x3e417346	0.1889163
146	0x3fbd5137	1.479041
147	0xb85e97b9	-5.3070227e-05
148	0x3e577b33	0.2104309
149	0xbdbb0a7f	-0.09132861
150	0x3c5f4d05	0.013629203
151	0xbe12f155	-0.14349873
152	0x3db24a2f	0.08705556
153	0x3c3f53a8	0.01167766
154	0xbd772a82	-0.060343273
155	0xbc866869	-0.016407209
156	0xbf5f97c9	-0.8734098
157	0xbf1e6c21	-0.6188374
158	0xbf7ce3d9	-0.9878517
159	0x3c4c09d0	0.012453511
160	0x3d90e8ca	0.07075651
161	0x3b13c222	0.0022546132
162	0x3d4f33f2	0.05058665
163	0xbd491ad8	-0.049097866
164	0xbe79850c	-0.2436716
165	0x3db9cf2a	0.090727165
166	0xbcf5d80e	-0.03001025
167	0x3d37e3ac	0.04489486
168	0x3cf3181b	0.02967458
169	0x3c6e78ba	0.014555151
170	0xbd411159	-0.047135685
171	0xbdc656c1	-0.09684516
172	0x3d8e70a0	0.06955075
173	0x3cdb0907	0.026737703
174	0xbe082bed	-0.13298006
175	0x3bd04cef	0.0063568274
176	0xbd435744	-0.047690645
177	0x3dfebee0	0.1243875
178	0xbcd2f1ab	-0.025750002
179	0x3de3d63c	0.11124846
180	0x3fa4aa5d	1.2864491
181	0xbecc0afa	-0.39852124
182	0xbfbc48ae	-1.470968
183	0x3e8955d4	0.26823294
184	0x3ee17e3c	0.44041622
185	0x3dcaa0c1	0.098939426
186	0x3c5fa79f	0.013650804
187	0xbc11ae8e	-0.008891715
188	0x3d4ab66f	0.04949039
189	0x3cfbbd7d	0.030730003
190	0xbe1dddd5	-0.15416653
191	0xbb127008	-0.0022344608
192	0xbeb14b26	-0.34627646
193	0xbfd7880b	-1.6838392
194	0xbfa8810c	-1.3164382
195	0x3cb5356a	0.022120196
196	0xbdbcfddf	-0.092281096
197	0x3cbfaefd	0.02339887
198	0x3e20e5e8	0.15712702
199	0x3d536664	0.05161132
200	0x3dc61091	0.096711285
201	0xbeaa83dd	-0.3330373
202	0x3f4b5085	0.7941974
203	0xbd833cf0	-0.06408107
204	0x3d7178e6	0.05895319
205	0x3e12ef24	0.14349037
206	0x3d2cb490	0.042164385
207	0x3d80e44f	0.062935464
208	0x3dc45965	0.09587363
209	0xbec0f5da	-0.3768757
210	0x3a3c09ba	0.000717308
211	0xbcdded36	-0.02709065
212	0xbc571120	-0.0131266415
213	0x3db9c563	0.09070852
214	0xbe3fdc34	-0.18736345
215	0xbcde15f5	-0.02711008
216	0x3e8abd07	0.2709734
217	0x3fe7c024	1.8105512
218	0x3e2df3c8	0.16987526
219	0xbe5624ce	-0.20912477
220	0x3cb25dc4	0.021773227
221	0xbc8c93e9	-0.017160373
222	0x3c4fed10	0.012690797
223	0xbcabae39	-0.0209571
224	0xbc2f8cd0	-0.010714725
225	0x3e1a21ad	0.15051909
226	0x3d34598a	0.044030704
227	0xbe91477d	-0.28374854
228	0xbcdf611d	-0.027267987
229	0xbb8814fa	-0.004152891
230	0xbd0da0c8	-0.03457716
231	0xbc1aad77	-0.009440771
232	0x3d399691	0.045309607
233	0xbc9fd16a	-0.019509036
234	0x3f6e5d10	0.9311075
235	0x3f5cc859	0.86243206
236	0x3edf6dff	0.43638608
237	0x3f220aac	0.63297534
238	0x402dc503	2.7151496
239	0x3f276b9b	0.6539857
240	0xbe0b1944	-0.13583857
241	0xbe782b3e	-0.24235246
242	0x3fd1b542	1.638344
243	0xbc867651	-0.01641384
244	0xbc97a989	-0.018513458
245	0xbb9c60fb	-0.004772303
246	0xbce3730f	-0.027764825
247	0x3c2f1a97	0.010687492
248	0x3b92a02a	0.0044746595
249	0xbc02c0e3	-0.007980558
250	0x3d9d9e5b	0.076962195
251	0xbd9ec137	-0.077516966
252	0xbf3a07ea	-0.72668326
253	0xbf48a607	-0.7837834
254	0xbf7a4d1f	-0.9777393
255	0x3c55e1fc	0.013054367
