models/700-games-model.onnx (onnx, 37455 bytes, 4 tensors)

linear1.bias f4 [512]
-0.09594832 -1.5756148 -1.5560261 0.008951012 -0.6763321 -4.207924 -2.7881193 -0.27343866
-0.33480954 -0.35069853 -0.28996673 -0.7163948 -0.23646653 -4.2638435 -1.8084027 -2.1689754
-0.23310612 -3.48953 -1.5591861 -0.52562976 -2.9006858 -0.004455394 -0.28415722 -0.20695011
-0.15073918 0.0350087 -0.4631103 -0.08072269 -0.122923926 -0.80375254 -1.2145474 -0.23357792
-0.4184463 -0.28478935 -0.10335103 -0.4315841 -0.37759057 -0.1530357 -0.38348588 0.120321214
-0.41998303 -0.119563825 -4.392373 -1.0301412 -0.26827696 -0.3459522 -3.7440896 -2.1994686
0.18123081 0.11580809 -1.2492398 -0.20440969 -1.8464899 -0.48218745 -0.29527783 -0.17882554
-0.26565215 -0.45534655 -0.29051015 -1.7282116 -0.4658302 -0.73788446 -0.32374218 -2.1220818
0.18392558 -0.2535536 -0.04567293 -1.4506174 -0.32552335 -0.31427914 -0.16447024 -0.090256825
-4.622973 -0.20355368 -0.15217575 -0.10298372 -0.3340647 -0.4579979 -0.6028825 -1.1966536
-3.915813 -0.19516839 -0.03431251 -0.20690095 -1.2155555 -0.21680023 -0.17445022 -0.2417779
0.0066154213 -0.30107525 -0.38273436 -0.28246927 -1.6368029 -0.4683964 0.0020171236 -0.29957777
-4.007015 -0.041583445 0.11714759 -0.024921985 -0.24504949 -1.8918904 -1.5041467 -0.1593635
-0.32315096 -0.30976203 -0.33283943 -2.4597707 -0.067295805 -0.21389203 -0.46317846 -2.9522603
-0.8937483 -0.47206783 -0.39879495 -0.11208696 -0.09971027 -0.37423855 -3.273526 -4.008133
-0.32614973 -0.012244749 -0.28646624 -0.07132056 -3.092038 -1.5109177 -2.2352922 0.11549719
-0.28067237 -0.044304814 -2.6760519 -0.04544084 -3.677457 -0.7626454 -0.6110124 -1.9726486
-0.35303256 -0.5097702 -0.24601662 -0.9964401 -1.7936184 2.5102935 -0.045656476 -0.2543124
-0.13194704 -0.55191165 0.8166659 -2.174621 -0.6330594 -0.9692136 0.059224937 -0.19682544
-0.9418646 -0.06422637 -0.27854156 -0.20589982 -0.3083896 -0.2530945 -1.4559313 -0.19510764
-0.056193404 -0.018825235 -0.179475 -0.35034403 2.7058628 -0.3504853 -1.2875103 -0.27775422
-0.5131873 -0.2768234 -2.7947419 -0.4468693 -0.6815186 -0.82982093 -0.55888087 -0.19131678
-1.1600108 -0.49718946 -3.1114223 -0.106882595 -0.41072556 -0.2822902 -1.5168934 -0.35187858
-0.52326405 -1.6693941 -1.1877427 -1.368526 -0.2134174 -0.16091539 -0.17877233 -0.23034126
0.18226528 -0.035698835 -0.33849874 -0.30490455 -0.19726771 -0.36643475 -1.6332706 -0.34683767
-2.1992633 -0.18628266 -0.6101239 -0.10113371 -0.44461554 -0.4703846 -1.5209596 -0.22585157
-1.1390206 -0.72976315 -0.27639163 -0.30434805 -4.7876325 -0.3477112 -0.17077869 -0.16108125
-0.36915368 -0.2252288 -0.15640032 -0.3713109 -0.5456843 -0.24461953 -2.3384387 -0.105313264
-0.43720827 -0.50518215 -2.1294215 -1.9227538 -0.92430484 -0.19607447 -0.34019393 -0.4030385
-1.368932 -0.3100425 -0.23952454 -0.40565258 -0.2078773 -0.84801555 -0.1489938 -0.561748
-0.23982747 -0.2646474 -0.06489863 -3.0835598 -0.517525 -2.291286 -0.37757903 -0.26995456
-0.33699912 -0.29028153 -0.24554262 -0.426198 -1.4456413 -3.444625 -0.33634508 -0.2914214
00000000: 8e80 c4bd bfad c9bf dd2b c7bf 44a7 123c
00000010: 1a24 2dbf 50a7 86c0 8c70 32c0 2700 8cbe
00000020: 286c abbe c28e b3be 8576 94be a665 37bf
00000030: 4824 72be 6871 88c0 bd79 e7bf 7ed0 0ac0
00000040: 5fb3 6ebe 7654 5fc0 6993 c7bf ac8f 06bf
00000050: d6a4 39c0 8efe 91bb 0e7d 91be bbea 53be
00000060: 5f5b 1abe 4865 0f3d cb1c edbe f051 a5bd
00000070: 8abf fbbd bac2 4dbf 4a76 9bbf 0d2f 6fbe
00000080: 983e d6be e9cf 91be b4a9 d3bd 97f8 dcbe
00000090: 8d53 c1be 64b5 1cbe 4358 c4be f86a f63d
000000a0: 0408 d7be e1dd f4bd 528e 8cc0 abdb 83bf
000000b0: 995b 89be a620 b1be 2a9f 6fc0 18c4 0cc0
000000c0: 9294 393e cb2c ed3d 17e7 9fbf c650 51be
000000d0: c859 ecbf 46e1 f6be a82e 97be 0b1e 37be
000000e0: 8f03 88be 2f23 e9be bfbd 94be 0a36 ddbf
000000f0: 4c81 eebe ffe5 3cbf 89c1 a5be 30d0 07c0
00000100: fd56 3c3e c7d1 81be 8a13 3bbd d5ad b9bf
00000110: ffaa a6be 32e9 a0be e36a 28be 92d8 b8bd
00000120: 65ef 93c0 6070 50be f6d3 1bbe 21e9 d2bd
00000130: 870a abbe b37e eabe 8256 1abf f22b 99bf
00000140: ae9c 7ac0 39da 47be 468b 0cbd d8dd 53be
00000150: 5397 9bbf e100 5ebe 14a3 32be a094 77be
00000160: 2dc6 d83b 8926 9abe c2f5 c3be d09f 90be
00000170: c282 d1bf a7d1 efbe b831 043b 4262 99be
00000180: 7839 80c0 6753 2abd 13eb ef3d 3129 ccbc
00000190: 41ee 7abe 7729 f2bf e187 c0bf 2f30 23be
000001a0: 0b74 a5be 2199 9ebe ee69 aabe e26c 1dc0
000001b0: 62d2 89bd 8306 5bbe ba25 edbe d5f1 3cc0
000001c0: b0cc 64bf e0b2 f1be da2e ccbe d98d e5bd
000001d0: e634 ccbd 329c bfbe 7381 51c0 a042 80c0
000001e0: 19fd a6be 339e 48bc b4ab 92be 8410 92bd
000001f0: f3e3 45c0 c065 c1bf 070f 0fc0 ca89 ec3d
00000200: 4ab4 8fbe f778 35bd 6f44 2bc0 2d20 3abd
00000210: 755b 6bc0 bb3c 43bf 4f6b 1cbf c07f fcbf
00000220: afc0 b4be 4d80 02bf c8eb 7bbe b316 7fbf
00000230: 4a95 e5bf a6a8 2040 4902 3bbd 3c35 82be
00000240: 201d 07be 154a 0dbf 0411 513f fe2c 0bc0
00000250: 2e10 22bf 621e 78bf d995 723d 9c8c 49be
00000260: 0a1e 71bf 1d89 83bd 009d 8ebe 67d7 52be
00000270: 3ee5 9dbe 9a95 81be f55b babf 4cca 47be
00000280: 0e2b 66bd 6137 9abc 4bc8 37be 4b60 b3be
00000290: db2c 2d40 cf72 b3be 23cd a4bf cd35 8ebe
000002a0: 3e60 03bf ccbb 8dbe 0ddd 32c0 0ecc e4be
000002b0: 0178 2ebf 256f 54bf d112 0fbf 8ce8 43be
000002c0: 3c7b 94bf 9e8f febe 8b21 47c0 43e5 dabd
000002d0: 9f4a d2be 5788 90be 9029 c2bf 6e29 b4be
000002e0: a2f4 05bf b5ae d5bf f407 98bf dc2b afbf
000002f0: 178a 5abe 01c7 24be 1810 37be 94de 6bbe
00000300: c0a3 3a3e f138 12bd b54f adbe 731c 9cbe
00000310: 8c00 4abe 569d bbbe 030f d1bf b594 b1be
00000320: bbc0 0cc0 e2c0 3ebe 1431 1cbf 311f cfbd
00000330: a6a4 e3be 40d6 f0be ceae c2bf a245 67be
00000340: 6dcb 91bf c2d1 3abf 3483 8dbe 82d3 9bbe
00000350: 4934 99c0 3407 b2be 9ce0 2ebe 7cf2 24be
00000360: b601 bdbe 61a2 66be 6827 20be 761c bebe
00000370: f7b1 0bbf 8b7d 7abe fba8 15c0 7bae d7bd
00000380: c3d9 dfbe 9e53 01bf 7148 08c0 cc1c f6bf
00000390: 3e9f 6cbf bfc7 48be e62d aebe 105b cebe
000003a0: 2a39 afbf e4bd 9ebe ec45 75be b2b1 cfbe
000003b0: c9dd 54be 8c17 59bf d591 18be b8ce 0fbf
000003c0: 5595 75be dd7f 87be 93e9 84bd 0b59 45c0
000003d0: 857c 04bf 6ea4 12c0 0a52 c1be 7c37 8abe
000003e0: 268b acbe c89f 94be 866f 7bbe a036 dabe
000003f0: c60a b9bf bc74 5cc0 6c35 acbe 3035 95be

linear2.bias f4 [3]
-1.6672887 0.7861563 1.2000917
00000000: b769 d5bf 8a41 493f 9b9c 993f

onnx::MatMul_12 f4 [14, 512]
-0.19957322 0.28226104 0.47589383 -0.68376297 -0.15006012 0.5813246 0.79390067 -0.9356682
0.07770074 0.19759092 -0.017098272 -0.21855265 -0.13607366 -0.35559452 -1.1430109 -1.3068843
-0.24561244 0.5946084 0.18528312 0.02357154 0.032364007 -0.009431179 0.2226915 0.20774348
0.061487865 -0.02103239 -0.61068845 -0.018795392 0.10646653 -0.3463263 -0.5430752 -0.18616061
-0.18891828 -0.1993456 -0.4000829 0.1505927 -0.246971 -0.23745058 -0.3658979 -0.4010838
0.35716656 -0.07531754 0.6263393 0.6021927 -0.40569863 -0.009308476 -0.93742496 0.24400318
-0.9119302 -0.16446522 0.48976728 -0.11866942 -0.06450767 -0.06308249 -0.6097969 -0.02911979
0.13152419 -0.7744731 -0.25458452 -0.44695446 0.5805512 0.15301612 -0.5598057 -0.77223754
-0.34571767 -0.17857975 -0.34188473 -1.9393212 -0.071819924 0.11959349 0.015395747 -0.46438184
0.53630763 -0.6114655 -0.40151912 -0.4286523 -0.5030979 -0.110310584 0.25751528 -1.456412
-2.208037 -0.25905973 -0.0063422513 0.14241634 0.05413673 -0.009789676 -0.3441372 -0.2261086
-0.31802562 -0.37039873 0.18030079 -0.12825383 -1.7177869 0.35651305 0.14782025 0.20221688
-1.6136234 -0.42341238 -0.34032255 -0.20482068 -0.24917522 1.3245842 2.1716409 -0.28080082
-1.0126861 -0.45949328 -1.0472285 0.4390637 -0.064241916 0.14573917 -0.44498092 -0.509107
-1.0083747 -0.80626464 0.06487045 -0.064751655 -0.12829125 0.12308468 1.0862612 -0.48832056
-0.13503575 -0.16638997 -0.6636732 0.21739899 0.7911602 -0.065818086 -1.0848376 0.14906625
-0.019900804 -0.07181214 1.3381804 0.060911823 0.16374469 0.112082586 -0.28872928 0.3192245
-0.3487984 -2.4742897 -0.11762769 -0.26581314 -0.9050947 0.21682934 0.013953734 -0.12939972
0.13828857 0.19382502 0.8919207 0.06553754 -0.3432846 -0.12665305 -1.0443243 -0.29710758
-0.46510145 0.16171202 -0.1585479 -0.43839562 0.16432072 -0.011117698 0.4045375 -0.2425939
-0.009065373 0.11183083 -0.29739606 -0.1233235 0.19151148 -0.29691628 -1.5688657 0.13100584
-1.143593 -0.07289839 0.83995426 -0.5092424 0.25674728 -0.2392919 -0.3595712 0.52136934
0.23087274 -0.33681542 -0.4611898 -0.036876217 -0.442794 -0.10370717 0.19904114 -0.072165266
-0.043975454 3.4835877 0.22993086 0.43447766 -0.11367924 -0.16862224 -0.05987993 -0.008994204
-0.44080624 -0.28991055 -0.3344852 -0.6919786 -0.3358208 0.11003685 0.21689314 0.046935514
-0.51216006 0.07934181 -0.8635081 -0.3637536 -0.1922753 -0.47064343 -1.6060021 -0.4856164
0.3351364 -0.4914874 0.08322298 -0.0059170597 1.1667391 0.22824052 0.109916165 -0.1376322
0.10850248 0.15562285 0.041720554 0.19986877 -0.5208964 -0.37247232 -0.90273017 -0.12142911
-0.1273673 0.20167652 0.44195536 0.6442462 0.4294242 -0.148279 -0.07079998 -0.2384233
0.73852855 -0.60830534 2.531373e-05 0.05289763 0.033228386 -2.528592 0.13250786 0.3995775
-0.17317875 0.4274725 -0.040724922 0.4628527 0.5312467 1.042085 0.07069761 -0.11361558
-0.25981244 0.034358025 -0.27899885 -0.40734583 -0.8800307 -0.22174273 -0.61233807 -0.35328153
00000000: ec5c 4cbe 8584 903e 5ba8 f33e 170b 2fbf
00000010: 5ca9 19be b0d1 143f 133d 4b3f f387 6fbf
00000020: 9121 9f3d 4655 4a3e ad11 8cbc 44cc 5fbe
00000030: e556 0bbe 7c10 b6be 2e4e 92bf fc47 a7bf
00000040: d481 7bbe 4238 183f dcba 3d3e 1a19 c13c
00000050: 1f90 043d 3b85 1abc 3e09 643e b5ba 543e
00000060: b3da 7b3d 1e4c acbc 1456 1cbf cbf8 99bc
00000070: 200b da3d ae51 b1be fa06 0bbf e3a0 3ebe
00000080: cb73 41be 4121 4cbe aad7 ccbe f934 1a3e
00000090: f7e5 7cbe 3f26 73be f856 bbbe db5a cdbe
000000a0: 89de b63e 1540 9abd c657 203f 4d29 1a3f
000000b0: bbb7 cfbe 9482 18bc 15fb 6fbf f8db 793e
000000c0: 4274 69bf 9269 28be c7c2 fa3e f408 f3bd
000000d0: 991c 84bd 6431 81bd a61b 1cbf a08c eebc
000000e0: 47ae 063e de43 46bf e758 82be 37d7 e4be
000000f0: 019f 143f 42b0 1c3e 6d4f 0fbf 5cb1 45bf
00000100: e801 b1be 9cdd 36be 840b afbe ad3b f8bf
00000110: 5316 93bd 6fed f43d 713e 7c3c 75c3 edbe
00000120: 754b 093f 0189 1cbf ea93 cdbe 5078 dbbe
00000130: 06cb 00bf 84ea e1bd 0bd9 833e b56b babf
00000140: 7a50 0dc0 7aa3 84be a9d2 cfbb 97d5 113e
00000150: 7abe 5d3d e164 20bc c032 b0be 0389 67be
00000160: 41d4 a2be e7a4 bdbe c5a0 383e f954 03be
00000170: 71e0 dbbf e188 b63e 315e 173e f111 4f3e
00000180: 368b cebf 82c9 d8be c23e aebe 83bc 51be
00000190: ca27 7fbe fa8b a93f 2afc 0a40 20c5 8fbe
000001a0: b39f 81bf b442 ebbe 950b 86bf f5cc e03e
000001b0: 4491 83bd a63c 153e 8ad4 e3be d654 02bf
000001c0: 6c12 81bf 5c67 4ebf ccda 843d 849c 84bd
000001d0: c85e 03be d213 fc3d 9b0a 8b3f 2705 fabe
000001e0: d046 0abe 2262 2abe 7de6 29bf d79d 5e3e
000001f0: 7a89 4a3f a2cb 86bd f5db 8abf d3a4 183e
00000200: 0307 a3bc 3e12 93bd 7f49 ab3f ad7e 793d
00000210: b0ac 273e 8e8b e53d 53d4 93be 6571 a33e
00000220: b495 b2be c35a 1ec0 c9e6 f0bd a918 88be
00000230: 49b4 67bf 8308 5e3e 349e 643c 5c81 04be
00000240: 859b 0d3e 117a 463e ea54 643f 8c38 863d
00000250: 00c3 afbe 56b1 01be 6bac 85bf 7c1e 98be
00000260: c721 eebe d697 253e 615a 22be 6475 e0be
00000270: b143 283e 0127 36bc 8a1f cf3e 896a 78be
00000280: ee86 14bc 9007 e53d 4c44 98be 0891 fcbd
00000290: 961b 443e 6905 98be 97d0 c8bf 6526 063e
000002a0: 4161 92bf c04b 95bd 3e07 573f b65d 02bf
000002b0: 6174 833e f008 75be b719 b8be 7678 053f
000002c0: e769 6c3e 1273 acbe 1221 ecbe 840b 17bd
000002d0: e5b5 e2be 6d64 d4bd 71d1 4b3e 62cb 93bd
000002e0: 9b1f 34bd 1af3 5e40 ff72 6b3e db73 de3e
000002f0: a9d0 e8bd 4fab 2cbe a844 75bd 6d5c 13bc
00000300: 5bb1 e1be 286f 94be a541 abbe 8225 31bf
00000310: b4f0 abbe 005b e13d 3c19 5e3e 743f 403d
00000320: ec1c 03bf f57d a23d de0e 5dbf e93d babe
00000330: d1e3 44be 2df8 f0be 7a91 cdbf b6a2 f8be
00000340: 0097 ab3e 3da4 fbbe cf70 aa3d e5e3 c1bb
00000350: b557 953f e2b7 693e ba1b e13d 75ef 0cbe
00000360: 8c36 de3d 995b 1f3e 2ce3 2a3d 66aa 4c3e
00000370: 7759 05bf b1b4 bebe 5319 67bf d3af f8bd
00000380: 936c 02be 4a84 4e3e f947 e23e 52ed 243f
00000390: 7ddd db3e 73d6 17be 94ff 90bd 3d25 74be
000003a0: 3510 3d3f e6b9 1bbf d258 d437 2fab 583d
000003b0: 7d1a 083d 74d4 21c0 24b0 073e 6c95 cc3e
000003c0: c555 31be addd da3e 2dcf 26bd 07fb ec3e
000003d0: c9ff 073f 0b63 853f e9c9 903d 49af e8bd
000003e0: 2306 85be 00bb 0c3d f0d8 8ebe a28f d0be
000003f0: b149 61bf 8710 63be 30c2 1cbf 51e1 b4be

onnx::MatMul_13 f4 [512, 3]
0.03771847 -0.11285197 -0.036202613 0.0057701967 0.11932213 0.21905433 -0.006477635 0.06415053
0.18267559 0.22761591 -0.20976977 -0.45865005 -0.067556985 -0.06567049 0.015956651 0.22178881
0.3311157 3.2253132 0.063738294 0.71074617 0.17256936 -0.1393648 -0.0073615243 0.04389712
0.020873556 -0.024130331 0.014155435 0.018654918 -0.059501227 -0.047853567 -0.15544511 -0.0017329248
-0.04192754 -0.0013031529 0.07542361 -0.027303765 0.026142322 0.039076485 0.017598743 -0.33736435
1.9355038 -0.71818525 0.06530507 -0.90665305 -0.8738163 -0.11164733 -1.3105974 -0.3403063
-0.020845104 -0.025171062 -0.0053063617 -0.0075300043 1.1983149 -0.09068313 0.02972451 0.0016409651
-0.003697043 0.84174526 0.15278937 0.1583026 1.6892663 -1.5607384 -0.081538536 -0.010146337
-0.059778947 -0.094582796 0.00606398 -0.014111206 -0.04655498 -0.030085884 -0.21952331 -0.17628154
-0.0021825659 -0.029942285 -0.048185483 0.03958371 0.004927494 0.0058956435 -0.22678024 -0.020382693
-0.008684912 3.0325986e-05 -0.06772819 -0.019653609 -0.03451091 -0.029052757 0.025890607 -0.46300995
-0.7215432 -0.7955701 -0.606211 -0.3526619 -0.43926075 -0.0216335 -0.07418602 -0.0063711503
0.016972613 0.107636414 0.030171137 -0.025257476 -0.040739115 0.006887774 -0.0022168828 0.0037113684
-0.005415528 -0.13698526 -0.06879173 0.02706289 -0.016434418 -0.0066398857 -0.029525459 -0.080678396
-0.23692657 -0.0072513637 -0.16852307 0.012482734 0.03651978 -0.04344978 -0.08052481 0.10024748
0.0661888 -0.006620172 -0.3512039 -0.06630239 -0.0066004284 -0.035705578 -0.0074552335 0.52842975
0.19603862 0.0052369726 -0.050500445 -0.046864115 -0.4422378 -0.03836463 -0.01147058 -0.03152424
-0.019807255 0.045407556 -0.17230102 -0.3684451 -0.4417589 0.18918197 -0.17348762 0.11343765
-0.3285119 0.1889163 1.479041 -5.3070227e-05 0.2104309 -0.09132861 0.013629203 -0.14349873
0.08705556 0.01167766 -0.060343273 -0.016407209 -0.9279438 -0.7678073 -1.1931332 0.012453511
0.07075651 0.0022546132 0.05058665 -0.049097866 -0.2436716 0.090727165 -0.03001025 0.04489486
0.02967458 0.014555151 -0.047135685 -0.09684516 0.06955075 0.026737703 -0.13298006 0.0063568274
-0.047690645 0.1243875 -0.025750002 0.11124846 1.5338805 -0.5572801 -1.7055303 0.26823294
0.44041622 0.098939426 0.013650804 -0.008891715 0.04949039 0.030730003 -0.15416653 -0.0022344608
-0.33113077 -1.6032342 -1.4313587 0.022120196 -0.092281096 0.02339887 0.15712702 0.05161132
0.096711285 -0.15925619 1.1875368 -0.31715515 0.05895319 0.14349037 0.042164385 0.062935464
0.09587363 -0.3768757 0.000717308 -0.02709065 -0.0131266415 0.09070852 -0.18736345 -0.02711008
0.29803336 2.264854 0.17919424 -0.20912477 0.021773227 -0.017160373 0.012690797 -0.0209571
-0.010714725 0.15051909 0.044030704 -0.28374854 -0.027267987 -0.004152891 -0.03457716 -0.009440771
0.045309607 -0.019509036 0.9311075 0.86243206 0.43638608 0.49604034 3.3082001 0.19805662
-0.19037634 -0.072798334 1.3765411 -0.01641384 -0.018513458 -0.004772303 -0.027764825 0.010687492
0.0044746595 -0.007980558 0.076962195 -0.077516966 -0.74884015 -1.073808 -1.1293018 0.013054367
00000000: af7e 1a3d ef1e e7bd 3149 14bd eb13 bd3b
00000010: 295f f43d c74f 603e 5742 d4bb 5a61 833d
00000020: 4f0f 3b3e 2514 693e e3cd 56be 2ed4 eabe
00000030: 515b 8abd 407e 86bd 86b7 823c 9b1c 633e
00000040: ff87 a93e 886b 4e40 3989 823d 76f3 353f
00000050: 06b6 303e a5b5 0ebe f138 f1bb 77cd 333d
00000060: 05ff aa3c f9ac c5bc 33ec 673c 33d2 983c
00000070: 8fb7 73bd 1a02 44bd 012d 1fbe 4f23 e3ba
00000080: 36bc 2bbd 8ece aaba b277 9a3d 25ac dfbc
00000090: 6c28 d63c aa0e 203d 3d2b 903c 05bb acbe
000000a0: 97be f73f fdda 37bf aabe 853d 6a1a 68bf
000000b0: 6db2 5fbf 5ba7 e4bd a8c1 a7bf a13c aebe
000000c0: 5ac3 aabc 8b33 cebc fde0 adbb 41be f6bb
000000d0: 6262 993f 14b8 b9bd d180 f33c a715 d73a
000000e0: 174a 72bb 9e7c 573f d174 1c3e 141a 223e
000000f0: e139 d83f 47c6 c7bf adfd a6bd d23c 26bc
00000100: c5da 74bd a0b4 c1bd 5ab4 c63b b032 67bc
00000110: 6fb0 3ebd ac76 f6bc b8ca 60be 2683 34be
00000120: 6109 0fbb 8649 f5bc 245e 45bd 8722 223d
00000130: d176 a13b 3e30 c13b 1439 68be 9bf9 a6bc
00000140: 294b 0ebc 8f64 fe37 14b5 8abd 9b00 a1bc
00000150: 505b 0dbd 0c00 eebc 8a18 d43c a40f edbe
00000160: 0eb7 38bf 7baa 4bbf a530 1bbf 1a90 b4be
00000170: c9e6 e0be bd38 b1bc d7ee 97bd 15c5 d0bb
00000180: 260a 8b3c 7b70 dc3d 7629 f73c c4e8 cebc
00000190: 0fde 26bd d6b2 e13b 1f49 11bb 6e3a 733b
000001a0: be74 b1bb dd45 0cbe aee2 8cbd feb2 dd3c
000001b0: 79a1 86bc 6693 d9bb 60df f1bc b73a a5bd
000001c0: e19c 72be d99c edbb 5091 2cbe 6284 4c3c
000001d0: c495 153d 66f8 31bd 31ea a4bd 8d4e cd3d
000001e0: fe8d 873d 07ee d8bb ffd0 b3be 8cc9 87bd
000001f0: 6848 d8bb 0340 12bd 084b f4bb 2c47 073f
00000200: 59be 483e e99a ab3b 8ed9 4ebd 96f4 3fbd
00000210: fe6c e2be 3b24 1dbd 19ef 3bbc 901f 01bd
00000220: d342 a2bc 46fd 393d ae6f 30be d6a4 bcbe
00000230: 392e e2be ebb8 413e bda6 31be 0052 e83d
00000240: b632 a8be 4673 413e 3751 bd3f b997 5eb8
00000250: 337b 573e 7f0a bbbd 054d 5f3c 55f1 12be
00000260: 2f4a b23d a853 3f3c 822a 77bd 6968 86bc
00000270: ba8d 6dbf 058f 44bf 97b8 98bf d009 4c3c
00000280: cae8 903d 22c2 133b f233 4f3d d81a 49bd
00000290: 0c85 79be 2acf b93d 0ed8 f5bc ace3 373d
000002a0: 1b18 f33c ba78 6e3c 5911 41bd c156 c6bd
000002b0: a070 8e3d 0709 db3c ed2b 08be ef4c d03b
000002c0: 4457 43bd e0be fe3d abf1 d2bc 3cd6 e33d
000002d0: 3256 c43f e9a9 0ebf d14e dabf d455 893e
000002e0: 3c7e e13e c1a0 ca3d 9fa7 5f3c 8eae 11bc
000002f0: 6fb6 4a3d 7dbd fb3c d5dd 1dbe 0870 12bb
00000300: f989 a9be c736 cdbf c336 b7bf 6a35 b53c
00000310: dffd bcbd fdae bf3c e8e5 203e 6466 533d
00000320: 9110 c63d 0e14 23be 3501 983f 2962 a2be
00000330: e678 713d 24ef 123e 90b4 2c3d 4fe4 803d
00000340: 6559 c43d daf5 c0be ba09 3c3a 36ed ddbc
00000350: 2011 57bc 63c5 b93d 34dc 3fbe f515 debc
00000360: d497 983e 5ef3 1040 b27e 373e ce24 56be
00000370: c45d b23c e993 8cbc 10ed 4f3c 39ae abbc
00000380: d08c 2fbc ad21 1a3e 8a59 343d 7d47 91be
00000390: 1d61 dfbc fa14 88bb c8a0 0dbd 77ad 1abc
000003a0: 9196 393d 6ad1 9fbc 105d 6e3f 59c8 5c3f
000003b0: ff6d df3e 00f9 fd3e 8db9 5340 5bcf 4a3e
000003c0: 04f2 42be 4b17 95bd 8032 b03f 5176 86bc
000003d0: 89a9 97bc fb60 9cbb 0f73 e3bc 971a 2f3c
000003e0: 2aa0 923b e3c0 02bc 5b9e 9d3d 37c1 9ebd
000003f0: fdb3 3fbf 8a72 89bf f68c 90bf fce1 553c
