models/75-games-model.onnx (onnx, 37455 bytes, 4 tensors)

linear1.bias f4 [512]
00000000: a424 8bbc f7ba 8a3e 3073 a7bd 3572 053e
00000010: 6f8a 6fbe 0d9f 783e 6564 75bd 8b2d ca3d
00000020: 501f 973d 8c38 15be 4b07 093d 1dae 17be
00000030: 4824 72be 4a55 e2bd 1b0d 483e 92ce e2bd
00000040: 5fb3 6ebe c64d f93c b6bb c23e c046 a5bc
00000050: 956b 1fbd 21bf 963e b3ed 91bd 6636 903e
00000060: 5f5b 1abe 375a 733e f5c7 eabd f051 a5bd
00000070: 8abf fbbd 3ebb e63b 8db1 6b3e 6672 e7bd
00000080: 0792 4bbd 30dd 59bc b4a9 d3bd df56 bcbd
00000090: d058 5dbe d607 663c 4358 c4be 6b1b ab3e
000000a0: 211c 11bd b166 d9bd 7ab6 6cbe c14c 38be
000000b0: b32a 3dbe 2f1f 613c 955c 99bd 9ad7 8fbe
000000c0: a6aa e2bb a5d7 5d3e ddcf c83d 89d5 c2bd
000000d0: 7e27 49be 82ed 89be 8685 cdbc 0b1e 37be
000000e0: 8f7f dcbd c83d 9cbd bfbd 94be 2d8b 4a3d
000000f0: 494c 543d 389f 65be fcc2 56be 456c 8abe
00000100: 4704 143e 5b64 7bbc 41f0 aabd b688 b0bd
00000110: e2d0 15be 1e3a 4e3e e36a 28be 7308 ce3d
00000120: 5f85 1ebe 9251 6fbc a1bd 0b3d e266 2fbd
00000130: f388 4e3d 5702 47be 8e44 cfbd aa7a 6cbe
00000140: 6913 2cbe 5d24 02be b9bd c23e d8dd 53be
00000150: b013 aa3d c63a 7a3b 14a3 32be a094 77be
00000160: e4d0 533e 8926 9abe 5e53 c23e dac1 cdbd
00000170: 422e 9d3b cae5 37bd a70d 8e3e 9c02 bdbd
00000180: f075 493c b078 943d 13eb ef3d 8aeb 553c
00000190: 9656 3bbe 5361 f9bd 09a3 08bd 174e 54bd
000001a0: cc8a 9dbb 2199 9ebe 41c7 493f 815e c53e
000001b0: 827b 533d 260a ae3e 0cf1 1dbe fc86 10be
000001c0: 8fb9 b53c 7111 86bd 6cdb 01be d98d e5bd
000001d0: 144f 7d3e 751d 79be d29d 923d 1505 8abe
000001e0: 22d9 b6bd 506c 593e f0b1 00be 2198 203e
000001f0: 96be 113d 7e55 4f3d b0e6 b5be 25ce d03c
00000200: 4ab4 8fbe 1ab8 543e 45d7 d7bd ff9c ee3d
00000210: f71f 003e 0a20 35be 93d6 2a3e 756a bbbe
00000220: 1418 2ebe 4e19 353d c8eb 7bbe 8e9e ddbd
00000230: 0ded 95bd c500 30be ee6b cc3d 3b14 a03d
00000240: 6719 923d 0d62 6dbd 1296 653e a52b a3be
00000250: e6f9 4fbe c664 923e caf5 523e 9c8c 49be
00000260: 0e1a 12be d6e7 4b3e 009d 8ebe 6576 92bc
00000270: f788 cbbc 9a95 81be 9193 2bbe de0b ffbd
00000280: 0e2b 66bd c3bf 993d 4bc8 37be b75e 24be
00000290: b45d 1f3e 05e0 83be 6c44 1ebe cd35 8ebe
000002a0: 01e9 9dbd ccbb 8dbe 8384 06bd 01d8 0abe
000002b0: 15d5 cd3c 0999 7dbe 5141 5fbe a490 b3bd
000002c0: a4da 943e 35eb 23be 8a8a 3bbe 43e5 dabd
000002d0: 2944 8abd 34d2 233c 66f1 133d 58e3 84be
000002e0: 8ca4 edbe b04d b2bd add4 903c 67b2 13bd
000002f0: 178a 5abe 01c7 24be e258 d53d 144e 4e3e
00000300: 6754 abbc 763e e83b edfe 86be 0b32 36be
00000310: 7ecc bbbd 1f4e 56be c088 95bd 2b6f ca3c
00000320: 057f ffbc ec29 afbb fab2 653d cd48 8ebd
00000330: 9ab4 6bbe 65c5 50be 4ce7 39be b725 653d
00000340: 53c1 5cbe 5b3d fb3d 3483 8dbe 82d3 9bbe
00000350: 9a49 2dbb 6557 213e d65a fdbc 7cf2 24be
00000360: 393d 813d 6ce0 0f3e 878e 443d 5602 1abd
00000370: 6325 55be 6330 01be 8754 8cbc 570d 283e
00000380: a836 75be 19b5 27bd 5285 16be 26a7 a63d
00000390: 0590 613c bfc7 48be 73c7 01be 90a3 d1bd
000003a0: 30cc a6bd 5ffa eebd ff37 26be e618 643e
000003b0: a08a a53b ef3f 5a3e 7926 da3e a220 a93d
000003c0: 29ca 3cbe aeec 3a3e 37e3 723e c22a bf3d
000003d0: c04d 0bbd 11e5 fabd 24bc 693e 7c37 8abe
000003e0: d760 53be a000 b0bd 65bf 4bbd 4717 94be
000003f0: 021d eb3c 4c8d 96be 06cc 833d 2801 8a3d
-0.016985245 0.27095768 -0.08176267 0.13031848 -0.23392652 0.24279423 -0.059910197 0.09871968
0.07379019 -0.14572352 0.03345422 -0.14812513 -0.23646653 -0.11051424 0.1953625 -0.110745564
-0.23310612 0.030432593 0.38033837 -0.020175338 -0.038920958 0.29442695 -0.07125416 0.28166503
-0.15073918 0.23764883 -0.1146392 -0.08072269 -0.122923926 0.007041364 0.23016949 -0.11301117
-0.04969981 -0.013297364 -0.10335103 -0.09196257 -0.2161591 0.014039954 -0.38348588 0.33419356
-0.035427216 -0.1061529 -0.23116484 -0.1799803 -0.1847332 0.013740345 -0.07488362 -0.28094178
-0.0069173155 0.21664293 0.09805272 -0.09513385 -0.19643971 -0.26939017 -0.025088083 -0.17882554
-0.10766517 -0.07628971 -0.29051015 0.049449135 0.051830564 -0.22424018 -0.20972818 -0.27035728
0.14454757 -0.015343751 -0.08346606 -0.086198255 -0.14630464 0.20139357 -0.16447024 0.10060205
-0.15480565 -0.01460685 0.03411639 -0.042822726 0.050423574 -0.19434486 -0.10120498 -0.23093668
-0.1680428 -0.12709184 0.38035372 -0.20690095 0.08304536 0.0038182004 -0.17445022 -0.2417779
0.20685154 -0.30107525 0.3795423 -0.1004674 0.004796774 -0.04489688 0.2774479 -0.09229013
0.012296185 0.07249582 0.11714759 0.013056645 -0.18294749 -0.12176766 -0.033358607 -0.051832285
-0.0048078056 -0.30976203 0.7881966 0.38548663 0.051631458 0.33992118 -0.15423983 -0.14113992
0.022183208 -0.065462954 -0.12681359 -0.11208696 0.24737197 -0.24327643 0.07159008 -0.26957002
-0.089281335 0.21232724 -0.12567878 0.15683033 0.035582148 0.05061864 -0.35527563 0.025488922
-0.28067237 0.20773354 -0.10539106 0.116510384 0.12512194 -0.17688003 0.16683416 -0.36604658
-0.17001373 0.044213586 -0.24601662 -0.108212575 -0.073206045 -0.17187794 0.099815235 0.07816359
0.07133751 -0.057954837 0.22420529 -0.31869236 -0.20310172 0.2859251 0.20601574 -0.19682544
-0.14267752 0.19912657 -0.27854156 -0.01787872 -0.024845583 -0.2530945 -0.16755511 -0.12453435
-0.056193404 0.07507279 -0.179475 -0.16051756 0.15563089 -0.2575685 -0.15455788 -0.27775422
-0.077104576 -0.2768234 -0.032841217 -0.13558961 0.02512602 -0.2476541 -0.2180226 -0.087678224
0.2907306 -0.16007693 -0.18314567 -0.106882595 -0.06751282 0.009998847 0.036118887 -0.259547
-0.46414602 -0.08706224 0.017679537 -0.03605881 -0.2134174 -0.16091539 0.10417344 0.20146972
-0.02091427 0.007087524 -0.26366368 -0.17792527 -0.09169863 -0.20928238 -0.073014736 0.024711212
-0.031188497 -0.0053455736 0.05607889 -0.069474794 -0.23018113 -0.203878 -0.18154639 0.05594417
-0.21558122 0.12267562 -0.27639163 -0.30434805 -0.0026441575 0.15755995 -0.030927103 -0.16108125
0.063105054 0.14050454 0.047987487 -0.037599884 -0.20815043 -0.12616114 -0.01713015 0.16411339
-0.23946631 -0.040944193 -0.14699295 0.0813735 0.013767247 -0.19607447 -0.1267374 -0.10236275
-0.081444144 -0.11668848 -0.16232298 0.22275123 0.005051926 0.21313451 0.42607477 0.08258177
-0.18436493 0.18254349 0.23719488 0.09334327 -0.034009695 -0.12250722 0.22825676 -0.26995456
-0.2064241 -0.08593869 -0.049743075 -0.2892401 0.028700355 -0.29404676 0.06435399 0.06738502

linear2.bias f4 [3]
00000000: 41c0 6ebd e651 54bd 98fb b0bd
-0.058288816 -0.051835917 -0.08641738

onnx::MatMul_12 f4 [14, 512]
00000000: 8684 24be 7c0c 7e3e 84f4 de3e 2aab eebb
00000010: 2c74 debc a155 93bd 765d eb3d 26a8 46bf
00000020: 33b2 913d 644f 953e 150c 903e ee4a d3bc
00000030: e556 0bbe 9e57 2ebe 13a3 a93e 248e 2ebe
00000040: d481 7bbe 34e6 c73e 5708 9d3b 6863 f0bb
00000050: d839 843b 2b5e eebd d85b b73e bfbd 843e
00000060: b3da 7b3d fe8c 5c3e 223e c4be cbf8 99bc
00000070: 200b da3d 6409 8ebe c5da 1abe e3f0 983d
00000080: efc1 d33d f448 a7bd aad7 ccbe e27a 433e
00000090: b647 2cbe 270b 313c f856 bbbe bf38 91bd
000000a0: 87b2 0c3f 1540 9abd 1882 6c3c e351 a73e
000000b0: 7e5c 85bc bda1 c03e 3e3e 4a3e 3797 a03e
000000c0: 0503 c03c ae3f 86be 0db3 e3bc 6a9c 88bd
000000d0: 76c8 16be 59f9 b53d 9947 8ebe a08c eebc
000000e0: 840d 833e 367e 13bf e758 82be f9f4 803d
000000f0: ea70 3cbe dd38 863e 6d4f 0fbf 39b6 56be
00000100: cdeb f13d 020c a43a b79e acbe 3916 45be
00000110: 366b a13d 3530 473e 713e 7c3c 149f afbd
00000120: a798 043d 0189 1cbf ea93 cdbe 82dd b33b
00000130: 9792 67be 616a b53c 8049 293d 8ba6 fbbe
00000140: 7f6f febe 5eec 69be 5def 1d3e 97d5 113e
00000150: dedc 063e 4a89 3a3e c032 b0be 0389 67be
00000160: a0c1 77be e7a4 bdbe 02ea 523c 3f6e 14bd
00000170: b5d8 fa3e 8639 653e 2924 773e 1193 813e
00000180: b256 bdbe 766e d43b c23e aebe 3627 33be
00000190: ca27 7fbe dabc 8b3e 9b84 dd3e 4ddc b5bd
000001a0: bf52 c1be b442 ebbe 923e 57be 5571 5ebd
000001b0: b66d d03c 5d6c 1f3e 29b7 96be 25c6 dcbd
000001c0: 5028 51bd 835b de3d 2840 f43d 849c 84bd
000001d0: b464 603c 0eb5 7e3e 1e03 7abd e1e2 b9be
000001e0: 8fe2 5cbd 226d 893e b6a3 1bbf c5bf 4a3e
000001f0: 173f ca3e cfa3 133f 0359 b6be 111e 7a3d
00000200: 0307 a3bc 8641 533e 3038 ce3e d5a8 0d3e
00000210: 0ef1 6bbd 2fcd 05bf 4852 72bb 9fee 51be
00000220: e4f0 02be b169 4a3c c9e6 f0bd 0b7d 54bd
00000230: f98b fc3d 6bea be3c 2224 e33d e09c 32be
00000240: 517d 343d 70e4 3d3e 55b1 543e 5267 813d
00000250: f7e3 00bd 0662 e53d 4b30 8c3b 7c1e 98be
00000260: 364f 693e 1de2 bc3e 615a 22be f6aa f2be
00000270: 68d2 e23d 0127 36bc 00aa 373e 896a 78be
00000280: ee86 14bc 4670 573e 4c44 98be 9895 cabd
00000290: c37a 323e e05c 8dbe d222 3cbe 6526 063e
000002a0: b675 05bf c04b 95bd 0191 1f3e 92d8 433d
000002b0: 3532 68bd 0e0f b8bd 96aa e2bd 4675 eebd
000002c0: b410 efbd 945f d43d d7f1 73bd 840b 17bd
000002d0: dd57 79bd 3e7b 003d 63a6 b7bc 4855 f8bc
000002e0: 531c 1e3d 278c 793e 0946 7f3e 1441 1bbd
000002f0: a9d0 e8bd 4fab 2cbe adb3 603e 0d66 e8bd
00000300: c888 67bd 6440 83be b329 4ebe 1011 c1be
00000310: b4f0 abbe 1d14 303e 8fa1 0bbe 40bf 4bbc
00000320: 6ae7 f0bb 040c 28bd 0c34 153e e93d babe
00000330: 3ccc 21be d3a4 96be 243d d8bd cbba 81be
00000340: 8150 0cbd d6d5 333e cf70 aa3d e5e3 c1bb
00000350: cdcd 7b3e 0a5e b73e 9342 8a3e 75ef 0cbe
00000360: bcbf db3e e58a 903e c7a7 9f3e 0d65 2ebc
00000370: 6831 bfbe 154c b0be 7315 d6be 0278 62bd
00000380: 0ca7 30bd 08c7 313e bde6 41be 2618 173d
00000390: 4240 443e 73d6 17be fc54 ff3d c795 94be
000003a0: 794b 49bd 45d1 06bf c4bc 1cba c53e d73d
000003b0: 5048 46bd e486 1f3d 5e91 043d 7d91 c43e
000003c0: c555 31be 74fd 8abd e842 a6bb c328 ccbd
000003d0: cec2 d93d 9c48 823e 6cc2 88be 49af e8bd
000003e0: 2232 033e cb76 373d d0cd 0ebe a28f d0be
000003f0: 875a 8ebe 5926 c23c c6ed b4be 8b7d 3dbe
-0.16066179 0.2480945 0.43545926 -0.007283588 -0.027155004 -0.07194067 0.11492436 -0.77600324
0.07114067 0.29162133 0.28134218 -0.025792565 -0.13607366 -0.17025611 0.33132228 -0.1704641
-0.24561244 0.3904282 0.004792254 -0.007336069 0.004035216 -0.11639055 0.3581226 0.25926015
0.061487865 0.21538159 -0.38328654 -0.018795392 0.10646653 -0.2774154 -0.15122516 0.074678205
0.10339724 -0.081682116 -0.4000829 0.19089845 -0.1682423 0.010805882 -0.3658979 -0.070909016
0.5495991 -0.07531754 0.014435314 0.32679662 -0.016279455 0.37623397 0.19750306 0.31365368
0.02343894 -0.2622046 -0.027795339 -0.066704586 -0.14724907 0.0888545 -0.27789 -0.02911979
0.2559625 -0.5761446 -0.25458452 0.06296725 -0.18402448 0.26215258 -0.5598057 -0.2096795
0.118125536 0.0012515786 -0.3371484 -0.19246759 0.07881777 0.19451983 0.015395747 -0.085752636
0.032372143 -0.6114655 -0.40151912 0.0054890523 -0.22614513 0.022145452 0.04132986 -0.491505
-0.4969444 -0.22844073 0.15423341 0.14241634 0.13170192 0.18216434 -0.3441372 -0.2261086
-0.24194956 -0.37039873 0.012873175 -0.03623795 0.4899346 0.22385225 0.24134888 0.25307515
-0.36980206 0.0064828945 -0.34032255 -0.17495427 -0.24917522 0.2729252 0.43265232 -0.0887991
-0.37758443 -0.45949328 -0.21019962 -0.0543073 0.02544294 0.15568681 -0.29436615 -0.107799806
-0.051063836 0.10857298 0.11926299 -0.064751655 0.0136958845 0.24873754 -0.06103813 -0.36305907
-0.053927 0.26841074 -0.6079668 0.19799717 0.3950126 0.5767183 -0.35614786 0.06106383
-0.019900804 0.20630464 0.40277243 0.13833936 -0.057602935 -0.5226621 -0.0036975313 -0.20501183
-0.12787205 0.0123543 -0.11762769 -0.051877063 0.12331385 0.023305139 0.11090876 -0.17442656
0.044064824 0.18544173 0.20770772 0.06318535 -0.031467404 0.11200337 0.004278218 -0.29710758
0.22784123 0.3689126 -0.1585479 -0.47396058 0.11075288 -0.011117698 0.17935944 -0.2425939
-0.009065373 0.21038923 -0.29739606 -0.09891814 0.17429642 -0.2760992 -0.18372658 0.13100584
-0.5213274 -0.07289839 0.15582658 0.04781396 -0.056688506 -0.089872465 -0.11067693 -0.11643462
-0.11673108 0.103697926 -0.05955681 -0.036876217 -0.06087481 0.031367533 -0.022418207 -0.030314103
0.03860123 0.2436987 0.2492906 -0.03790386 -0.11367924 -0.16862224 0.21943541 -0.1134759
-0.05652693 -0.25635064 -0.20133094 -0.3770833 -0.3358208 0.17195173 -0.13635848 -0.012435734
-0.0073518055 -0.041027084 0.14570636 -0.3637536 -0.15800565 -0.29422626 -0.10558537 -0.25337824
-0.034256462 0.1756204 0.08322298 -0.0059170597 0.24590226 0.35813934 0.27003917 -0.1376322
0.4291972 0.28230968 0.3118269 -0.01064421 -0.3734238 -0.34433046 -0.4181324 -0.05529023
-0.04312806 0.1736108 -0.18935676 0.036888264 0.19165137 -0.148279 0.12467381 -0.2902052
-0.049144242 -0.5266307 -0.0005979056 0.10510019 -0.048408806 0.038947 0.032365195 0.3839225
-0.17317875 -0.067866236 -0.005073894 -0.09968712 0.10632859 0.25446022 -0.26710832 -0.11361558
0.12812093 0.044791024 -0.13945699 -0.40734583 -0.27803442 0.023699926 -0.35337657 -0.18504922

onnx::MatMul_13 f4 [512, 3]
00000000: d69d 0fbc a21a c6bd 0c8f 383c 7763 f73e
00000010: ef3d ab3d 0973 92bd d9ea 0dbb 4769 0abf
00000020: 764c 123e 3d09 9cbd 7778 d73e 5cbe 3f3a
00000030: 7b32 c23e 595f 74be d0fc 23be 7b71 683e
00000040: f802 323e b659 fe3c 925b e33e 8a3c e13e
00000050: 3a29 07bd cba1 88be e3f3 1abd be0b 3e3e
00000060: 9f39 5d3e c674 de3d 8614 d33d da1a ab3d
00000070: 8880 9dbd aff2 cfbc 9fed 793e 5ff3 b33e
00000080: 8890 0cbe d226 c23e 54a3 3fbe 9e9b adbe
00000090: 6c28 d63c aa0e 203d 3d2b 903c e418 b4be
000000a0: 80db 1a3e fb59 443e 6c1b 3a3e 092f 91be
000000b0: ed13 28be 7f35 a4bd fae7 953e effd 023e
000000c0: 5ac3 aabc 8b33 cebc fde0 adbb 5095 dc3d
000000d0: 3b84 59bc ccea 31be bedc 783e 7247 a93e
000000e0: 4f22 f5bd e544 88be 8f8a 273e 5283 24be
000000f0: ab05 85bc 2e22 07be 633a 103e 0c0b 163e
00000100: 499e 823c b9e1 dbbc 4038 1ebe 21a1 9ebd
00000110: e162 06be ec8d 453e 488e 50b9 c13a 3a3d
00000120: 6109 0fbb 8649 f5bc 245e 45bd d934 1d3e
00000130: 4b49 c63c 3043 39bc fba8 89be 973d 353e
00000140: 54d5 2e3e 8f64 fe37 14b5 8abd 9b00 a1bc
00000150: 505b 0dbd 0c00 eebc 8a18 d43c 4879 17bf
00000160: 3fff ae3d d5f5 3bbf e657 aebe 6eaf f8be
00000170: ec83 b93e 1fc2 b5bd 7ca1 05be cafd 23bc
00000180: 5448 3fbe 45a6 eebd d958 0fbe 0ea7 c9bc
00000190: e45d 14be 3232 cfbc 1f49 11bb 6e3a 733b
000001a0: be74 b1bb 064d 7ebe b02a cdbd 1b21 f3bd
000001b0: fa50 03bd 76d7 e4bd b9fa fdbc 0f7e 07be
000001c0: a954 38bd 16f8 873d 5091 2cbe 6284 4c3c
000001d0: c495 153d fcd4 be3d 88a0 4b3c 6593 cd3e
000001e0: fe7c 11be 1d05 f13d f21a 75be 8cc9 87bd
000001f0: 5744 95bc 0340 12bd aaa9 563e 0282 82bc
00000200: abf8 40be c1b6 89be 9250 2ebe 6e3d 3dbe
00000210: dfa8 7abc 5197 a83d 9b27 6a3e 25a8 1fbe
00000220: 9d7c 203e 17af 14be b265 9d3e 8ceb 14bf
00000230: f167 963e d59e e63e 30d9 a4be 6f37 82be
00000240: bc71 1e3d e041 623e f398 3b3c 1257 123d
00000250: 67fa ae3e 0376 f13d 462c 9e3e ba78 2cbe
00000260: b030 863e c42a 21bd d729 95bd 3297 1dbd
00000270: 051e 38bd bf4e 4bbd 32b8 03be b8de 5e3e
00000280: 505e bf3d b5ab d13b 723b 4abd 6a04 23bd
00000290: bf69 a5bd 2acf b93d 0ed8 f5bc ace3 373d
000002a0: 343a b83c 2d21 9a3d 610c 98bd 4ac3 00bf
000002b0: fc1c 1e3d 2b08 583e ed2b 08be ef4c d03b
000002c0: 4457 43bd 8dd7 f2be 01c6 2e3d 2e70 673c
000002d0: 4d4d 0d3f 38d9 02bf 88b0 973e 9996 963e
000002e0: 9c5b 883d 307b a53c b02c b2bc 73e5 32bd
000002f0: 3e75 923d 3e22 63be dd36 2ebe 7945 553e
00000300: 2055 82be 50d5 823e 8caa 89bc d4ed ce3c
00000310: 521c 1a3d 42f6 813e 4edf cbbb 3278 703d
00000320: 26f9 8a3e bfb3 32be f18b 9cbc c2ae 4a3d
00000330: b6c3 553e 9d47 5f3e 25b0 a43d e7e7 383d
00000340: 3e02 cfbc 36de 15bd ba09 3c3a 36ed ddbc
00000350: 2011 57bc ae6d e7bb 161b 4bbd 48be 313e
00000360: ba5c 923c da58 0fbc c3b2 cfbc bb68 11be
00000370: b581 3dbd ee95 9d3d a3d1 e33d da1c 6dbb
00000380: b556 1c3e 8abc 97bb c0aa 4a3e 0f60 0bbe
00000390: 3ac1 1ebe bf9c 8abd 6ac7 42bd 5ab9 eabb
000003a0: 81ff a3bd e3ab e03b bf48 123c 0204 763d
000003b0: eafb 443e 8996 03bf 891f abbe b7f6 f9bd
000003c0: 422d 08be 5775 13be 2381 21bb 4ce0 a03a
000003d0: 1a24 103d 3119 eabc 7ceb 843e 74e2 583d
000003e0: f68b 47be e3c0 02bc 5b9e 9d3d 37c1 9ebd
000003f0: 26ca 0abe d256 773e f390 a73d be8a 17be
-0.008765658 -0.096730486 0.011264574 0.48318073 0.08361422 -0.071508475 -0.0021654873 -0.5406689
0.1428698 -0.076189496 0.42084095 0.00073144375 0.3792914 -0.23864497 -0.16014409 0.2269954
0.17383945 0.031048637 0.444058 0.439915 -0.0329983 -0.26685938 -0.037830245 0.18559167
0.21604012 0.108621165 0.10306649 0.08354731 -0.07690531 -0.025384275 0.24407052 0.35146615
-0.1372701 0.37920243 -0.18714648 -0.3390779 0.026142322 0.039076485 0.017598743 -0.3517524
0.15122795 0.1917495 0.18174523 -0.28356197 -0.16413851 -0.08018016 0.29278547 0.1279218
-0.020845104 -0.025171062 -0.0053063617 0.107706666 -0.013276155 -0.17374724 0.24302956 0.3306232
-0.119694345 -0.26615062 0.1636145 -0.1606572 -0.016238054 -0.13196632 0.14084773 0.14652652
0.015944617 -0.026841031 -0.15451145 -0.07745577 -0.13123657 0.1929242 -0.0001988943 0.04546619
-0.0021825659 -0.029942285 -0.048185483 0.15352191 0.02420487 -0.011307523 -0.26886734 0.17699276
0.17073566 3.0325986e-05 -0.06772819 -0.019653609 -0.03451091 -0.029052757 0.025890607 -0.59169436
0.08544778 -0.73421985 -0.34051436 -0.48571342 0.3623346 -0.08874916 -0.13049883 -0.0100092385
-0.18679935 -0.11652807 -0.13998736 -0.02461579 -0.14488941 -0.02529249 -0.0022168828 0.0037113684
-0.005415528 -0.2483407 -0.100179076 -0.11871549 -0.032059647 -0.111739084 -0.031003343 -0.13231681
-0.045002613 0.066391155 -0.16852307 0.012482734 0.03651978 0.09317967 0.01242841 0.40151516
-0.14207837 0.117685534 -0.2393606 -0.06630239 -0.018221064 -0.035705578 0.20963159 -0.015931133
-0.1884486 -0.26897243 -0.17022923 -0.18480465 -0.015299051 0.08231986 0.22866671 -0.15591486
0.15672536 -0.14519916 0.3074165 -0.58171916 0.29376176 0.45043054 -0.3219695 -0.25432917
0.038682684 0.22095442 0.01145004 0.035727568 0.34175417 0.11790087 0.30893153 -0.16842929
0.2620902 -0.039347425 -0.07283371 -0.03847427 -0.044950504 -0.049635645 -0.12863234 0.21764648
0.093441606 0.006398643 -0.049373098 -0.03979913 -0.0807681 0.090727165 -0.03001025 0.04489486
0.02248869 0.07525859 -0.07424236 -0.5029799 0.03860186 0.21096866 -0.13298006 0.0063568274
-0.047690645 -0.47430077 0.0426693 0.014125867 0.55196077 -0.511127 0.2962687 0.29411772
0.06658098 0.020200342 -0.021749824 -0.04367585 0.071512684 -0.22181031 -0.17013116 0.20827283
-0.2545557 0.2555337 -0.016804956 0.02525989 0.037624665 0.25383192 -0.0062216884 0.058708377
0.2714321 -0.1745138 -0.019109698 0.04948307 0.20875439 0.21804662 0.080414094 0.045143034
-0.025269624 -0.03658887 0.000717308 -0.02709065 -0.0131266415 -0.0070626354 -0.049586378 0.17357743
0.017866481 -0.008749211 -0.025353795 -0.14200108 -0.046266276 0.076946124 0.111239694 -0.0036180527
0.15267451 -0.00463063 0.19791698 -0.13610862 -0.15503398 -0.06768178 -0.047553457 -0.007163209
-0.08007718 0.006856428 0.008928477 0.060062416 0.19236723 -0.51401573 -0.33422497 -0.1220526
-0.13298514 -0.1440023 -0.0024643622 0.0012273877 0.03519068 -0.028576465 0.2596091 0.052950338
-0.19486985 -0.007980558 0.076962195 -0.077516966 -0.13553676 0.24154213 0.08181944 -0.1479902
