models/900-games-model.onnx (onnx, 37455 bytes, 4 tensors)

linear1.bias f4 [512]
000000 8e 80 c4 bd bf ad c9 bf dd 2b c7 bf c7 dd 82 bf
       -0.09594832 -1.5756148 -1.5560261 -1.0223931
000010 1a 24 2d bf 7e d4 b2 c0 f3 33 8c c0 27 00 8c be
       -0.6763321 -5.588439 -4.3813415 -0.27343866
000020 28 6c ab be c2 8e b3 be 85 76 94 be a6 65 37 bf
       -0.33480954 -0.35069853 -0.28996673 -0.7163948
000030 48 24 72 be 63 5f a8 c0 ef 86 44 c0 91 b5 17 c0
       -0.23646653 -5.261644 -3.0707357 -2.370457
000040 5f b3 6e be 76 54 5f c0 69 93 c7 bf ac 8f 06 bf
       -0.23310612 -3.48953 -1.5591861 -0.52562976
000050 37 64 82 c0 8e fe 91 bb 0e 7d 91 be bb ea 53 be
       -4.0747333 -0.004455394 -0.28415722 -0.20695011
000060 5f 5b 1a be 48 65 0f 3d cb 1c ed be f0 51 a5 bd
       -0.15073918 0.0350087 -0.4631103 -0.08072269
000070 8a bf fb bd ba b5 a3 bf f7 86 0f c0 0d 2f 6f be
       -0.122923926 -1.2789834 -2.2426126 -0.23357792
000080 98 3e d6 be e9 cf 91 be b4 a9 d3 bd 97 f8 dc be
       -0.4184463 -0.28478935 -0.10335103 -0.4315841
000090 8d 53 c1 be 64 b5 1c be 43 58 c4 be f8 6a f6 3d
       -0.37759057 -0.1530357 -0.38348588 0.120321214
0000a0 04 08 d7 be e1 dd f4 bd 52 8e 8c c0 ab db 83 bf
       -0.41998303 -0.119563825 -4.392373 -1.0301412
0000b0 99 5b 89 be a6 20 b1 be d8 5d 9f c0 93 a6 3c c0
       -0.26827696 -0.3459522 -4.9802055 -2.947667
0000c0 92 94 39 3e cb 2c ed 3d 17 e7 9f bf c6 50 51 be
       0.18123081 0.11580809 -1.2492398 -0.20440969
0000d0 42 ff 19 c0 46 e1 f6 be a8 2e 97 be 0b 1e 37 be
       -2.4062047 -0.48218745 -0.29527783 -0.17882554
0000e0 8f 03 88 be 2f 23 e9 be bf bd 94 be 0a 36 dd bf
       -0.26565215 -0.45534655 -0.29051015 -1.7282116
0000f0 03 e7 40 bf ff e5 3c bf 89 c1 a5 be 30 d0 07 c0
       -0.75352496 -0.73788446 -0.32374218 -2.1220818
000100 1f 41 4c bf c7 d1 81 be 8a 13 3b bd 47 e0 19 c0
       -0.79786867 -0.2535536 -0.04567293 -2.4043138
000110 ff aa a6 be 32 e9 a0 be e3 6a 28 be 92 d8 b8 bd
       -0.32552335 -0.31427914 -0.16447024 -0.090256825
000120 f3 5f bc c0 60 70 50 be f6 d3 1b be 21 e9 d2 bd
       -5.8867126 -0.20355368 -0.15217575 -0.10298372
000130 87 0a ab be b3 7e ea be 82 56 1a bf 59 bc f9 bf
       -0.3340647 -0.4579979 -0.6028825 -1.9510604
000140 b1 de a2 c0 39 da 47 be 46 8b 0c bd d8 dd 53 be
       -5.089684 -0.19516839 -0.03431251 -0.20690095
000150 2b 1b 9c bf e1 00 5e be 14 a3 32 be a0 94 77 be
       -1.2195791 -0.21680023 -0.17445022 -0.2417779
000160 2d c6 d8 3b 89 26 9a be c2 f5 c3 be d0 9f 90 be
       0.0066154213 -0.30107525 -0.38273436 -0.28246927
000170 56 8e 18 c0 a7 d1 ef be b8 31 04 3b 42 62 99 be
       -2.3836875 -0.4683964 0.0020171236 -0.29957777
000180 a3 c5 93 c0 67 53 2a bd 13 eb ef 3d 31 29 cc bc
       -4.6178756 -0.041583445 0.11714759 -0.024921985
000190 41 ee 7a be e6 de 5c c0 29 ab 28 c0 2f 30 23 be
       -0.24504949 -3.4511046 -2.6354468 -0.1593635
0001a0 0b 74 a5 be 21 99 9e be 9b 86 56 bf e2 6c 1d c0
       -0.32315096 -0.30976203 -0.8379914 -2.4597707
0001b0 62 d2 89 bd 83 06 5b be ba 25 ed be d5 f1 3c c0
       -0.067295805 -0.21389203 -0.46317846 -2.9522603
0001c0 18 ef ba bf e0 b2 f1 be da 2e cc be d9 8d e5 bd
       -1.4604216 -0.47206783 -0.39879495 -0.11208696
0001d0 e6 34 cc bd 32 9c bf be 5e f0 a1 c0 8f 4a c0 c0
       -0.09971027 -0.37423855 -5.0605917 -6.0091014
0001e0 19 fd a6 be 33 9e 48 bc b4 ab 92 be 84 10 92 bd
       -0.32614973 -0.012244749 -0.28646624 -0.07132056
0001f0 9e 1d 80 c0 fc 88 24 c0 07 0f 0f c0 9e d4 5b be
       -4.0036154 -2.5708609 -2.2352922 -0.21467826
000200 4a b4 8f be f7 78 35 bd 7a 06 87 c0 2d 20 3a bd
       -0.28067237 -0.044304814 -4.2195406 -0.04544084
000210 75 5b 6b c0 bb 3c 43 bf 4f 6b 1c bf 01 c3 2a c0
       -3.677457 -0.7626454 -0.6110124 -2.668152
000220 af c0 b4 be f3 82 22 bf c8 eb 7b be c7 95 98 bf
       -0.35303256 -0.6348106 -0.24601662 -1.1920708
000230 4a 95 e5 bf 32 80 80 40 49 02 3b bd 3c 35 82 be
       -1.7936184 4.015649 -0.045656476 -0.2543124
000240 20 1d 07 be 15 4a 0d bf 42 3c 4d 3f 74 e2 58 c0
       -0.13194704 -0.55191165 0.8017007 -3.3888216
000250 2e 10 22 bf 43 e3 f5 bf 44 35 6b be 9c 8c 49 be
       -0.6330594 -1.920998 -0.22969538 -0.19682544
000260 0a 1e 71 bf 1d 89 83 bd 00 9d 8e be 67 d7 52 be
       -0.9418646 -0.06422637 -0.27854156 -0.20589982
000270 3e e5 9d be 9a 95 81 be f5 5b ba bf 4c ca 47 be
       -0.3083896 -0.2530945 -1.4559313 -0.19510764
000280 0e 2b 66 bd 61 37 9a bc 4b c8 37 be 4b 60 b3 be
       -0.056193404 -0.018825235 -0.179475 -0.35034403
000290 1b 2b 50 40 cf 72 b3 be 66 84 bb bf cd 35 8e be
       3.252631 -0.3504853 -1.464978 -0.27775422
0002a0 3e 60 03 bf cc bb 8d be 46 14 81 c0 0e cc e4 be
       -0.5131873 -0.2768234 -4.033725 -0.4468693
0002b0 01 78 2e bf 25 6f 54 bf d1 12 0f bf e8 90 0c bf
       -0.6815186 -0.82982093 -0.55888087 -0.5490861
0002c0 3c 7b 94 bf 9e 8f fe be b9 33 6f c0 43 e5 da bd
       -1.1600108 -0.49718946 -3.737532 -0.106882595
0002d0 9f 4a d2 be 57 88 90 be 90 29 c2 bf 6e 29 b4 be
       -0.41072556 -0.2822902 -1.5168934 -0.35187858
0002e0 a2 f4 05 bf c9 4c 41 c0 f4 07 98 bf 00 d4 66 c0
       -0.52326405 -3.0203116 -1.1877427 -3.6066895
0002f0 17 8a 5a be 01 c7 24 be 18 10 37 be 71 e5 67 bd
       -0.2134174 -0.16091539 -0.17877233 -0.056615297
000300 39 a4 4c bf f1 38 12 bd b5 4f ad be 73 1c 9c be
       -0.79938084 -0.035698835 -0.33849874 -0.30490455
000310 8c 00 4a be 56 9d bb be 3c f0 16 c0 b5 94 b1 be
       -0.19726771 -0.36643475 -2.3584127 -0.34683767
000320 3e 14 3b c0 e2 c0 3e be 70 8c 9e bf 31 1f cf bd
       -2.9231105 -0.18628266 -1.2386608 -0.10113371
000330 a6 a4 e3 be 40 d6 f0 be fd f2 1d c0 a2 45 67 be
       -0.44461554 -0.4703846 -2.4679558 -0.22585157
000340 6d cb 91 bf c2 d1 3a bf 34 83 8d be 82 d3 9b be
       -1.1390206 -0.72976315 -0.27639163 -0.30434805
000350 ea 3a bd c0 34 07 b2 be 9c e0 2e be 7c f2 24 be
       -5.9134417 -0.3477112 -0.17077869 -0.16108125
000360 b6 01 bd be 61 a2 66 be 68 27 20 be 76 1c be be
       -0.36915368 -0.2252288 -0.15640032 -0.3713109
000370 f7 b1 0b bf 8b 7d 7a be fb a8 15 c0 7b ae d7 bd
       -0.5456843 -0.24461953 -2.3384387 -0.105313264
000380 c3 d9 df be 9e 53 01 bf 71 48 08 c0 7e 56 2e c0
       -0.43720827 -0.50518215 -2.1294215 -2.724029
000390 3e 9f 6c bf bf c7 48 be e6 2d ae be 10 5b ce be
       -0.92430484 -0.19607447 -0.34019393 -0.4030385
0003a0 23 e4 6c c0 e4 bd 9e be ec 45 75 be b2 b1 cf be
       -3.7014244 -0.3100425 -0.23952454 -0.40565258
0003b0 c9 dd 54 be ab f4 af bf d5 91 18 be b8 ce 0f bf
       -0.2078773 -1.3746542 -0.1489938 -0.561748
0003c0 55 95 75 be dd 7f 87 be 93 e9 84 bd 0b 59 45 c0
       -0.23982747 -0.2646474 -0.06489863 -3.0835598
0003d0 fe 3f 04 c0 8a bf 6e c0 0a 52 c1 be 7c 37 8a be
       -2.0664058 -3.7304406 -0.37757903 -0.26995456
0003e0 26 8b ac be c8 9f 94 be 86 6f 7b be a0 36 da be
       -0.33699912 -0.29028153 -0.24554262 -0.426198
0003f0 c6 0a b9 bf f8 49 44 c0 6c 35 ac be 30 35 95 be
       -1.4456413 -3.0670147 -0.33634508 -0.2914214

linear2.bias f4 [3]
000000 0f 36 16 c0 93 96 b1 3f 27 6c d7 3f
       -2.3470495 1.3874077 1.682988

onnx::MatMul_12 f4 [14, 512]
000000 ec 5c 4c be 85 84 90 3e 5b a8 f3 3e 54 3b 8c bf
       -0.19957322 0.28226104 0.47589383 -1.0955606
000010 5c a9 19 be 09 ff 64 3f 89 3b 19 3f f3 87 6f bf
       -0.15006012 0.8945165 0.5985647 -0.9356682
000020 91 21 9f 3d 46 55 4a 3e ad 11 8c bc 44 cc 5f be
       0.07770074 0.19759092 -0.017098272 -0.21855265
000030 e5 56 0b be 1e 72 9d bd 6c 77 98 bf 21 d4 ba bf
       -0.13607366 -0.07687782 -1.1911445 -1.4595987
000040 d4 81 7b be 42 38 18 3f dc ba 3d 3e 1a 19 c1 3c
       -0.24561244 0.5946084 0.18528312 0.02357154
000050 ba 18 cd bd 3b 85 1a bc 3e 09 64 3e b5 ba 54 3e
       -0.10014482 -0.009431179 0.2226915 0.20774348
000060 b3 da 7b 3d 1e 4c ac bc 14 56 1c bf cb f8 99 bc
       0.061487865 -0.02103239 -0.61068845 -0.018795392
000070 20 0b da 3d 0f bc 15 be f9 c2 67 bf e3 a0 3e be
       0.10646653 -0.1462252 -0.9053188 -0.18616061
000080 cb 73 41 be 41 21 4c be aa d7 cc be f9 34 1a 3e
       -0.18891828 -0.1993456 -0.4000829 0.1505927
000090 f7 e5 7c be 3f 26 73 be f8 56 bb be db 5a cd be
       -0.246971 -0.23745058 -0.3658979 -0.4010838
0000a0 89 de b6 3e 15 40 9a bd c6 57 20 3f 4d 29 1a 3f
       0.35716656 -0.07531754 0.6263393 0.6021927
0000b0 bb b7 cf be 94 82 18 bc d4 f5 73 bf bd e4 15 3f
       -0.40569863 -0.009308476 -0.9529698 0.5855215
0000c0 42 74 69 bf 92 69 28 be c7 c2 fa 3e f4 08 f3 bd
       -0.9119302 -0.16446522 0.48976728 -0.11866942
0000d0 08 34 82 bd 64 31 81 bd a6 1b 1c bf a0 8c ee bc
       -0.063575804 -0.06308249 -0.6097969 -0.02911979
0000e0 47 ae 06 3e de 43 46 bf e7 58 82 be 37 d7 e4 be
       0.13152419 -0.7744731 -0.25458452 -0.44695446
0000f0 21 06 65 3f 42 b0 1c 3e 6d 4f 0f bf 5c b1 45 bf
       0.89462477 0.15301612 -0.5598057 -0.77223754
000100 34 02 38 be 9c dd 36 be 84 0b af be 0f 27 07 c0
       -0.1796959 -0.17857975 -0.34188473 -2.111759
000110 53 16 93 bd 6f ed f4 3d 71 3e 7c 3c 75 c3 ed be
       -0.071819924 0.11959349 0.015395747 -0.46438184
000120 c5 af 82 3f 01 89 1c bf ea 93 cd be 50 78 db be
       1.0209891 -0.6114655 -0.40151912 -0.4286523
000130 06 cb 00 bf 84 ea e1 bd 0b d9 83 3e ad 06 01 3f
       -0.5030979 -0.110310584 0.25751528 0.5040081
000140 71 11 10 c0 7a a3 84 be a9 d2 cf bb 97 d5 11 3e
       -2.2510645 -0.25905973 -0.0063422513 0.14241634
000150 6f c2 a7 bc e1 64 20 bc c0 32 b0 be 03 89 67 be
       -0.020478455 -0.009789676 -0.3441372 -0.2261086
000160 41 d4 a2 be e7 a4 bd be c5 a0 38 3e f9 54 03 be
       -0.31802562 -0.37039873 0.18030079 -0.12825383
000170 11 ff 9f bf e1 88 b6 3e 31 5e 17 3e f1 11 4f 3e
       -1.2499715 0.35651305 0.14782025 0.20221688
000180 36 8b ce bf 82 c9 d8 be c2 3e ae be 83 bc 51 be
       -1.6136234 -0.42341238 -0.34032255 -0.20482068
000190 ca 27 7f be 93 4d 9b 3f 39 78 14 3f 20 c5 8f be
       -0.24917522 1.2133049 0.57995945 -0.28080082
0001a0 b3 9f 81 bf b4 42 eb be 7d 6a df bf f5 cc e0 3e
       -1.0126861 -0.45949328 -1.7454373 0.4390637
0001b0 44 91 83 bd a6 3c 15 3e 8a d4 e3 be d6 54 02 bf
       -0.064241916 0.14573917 -0.44498092 -0.509107
0001c0 5b 21 c2 bf 5c 67 4e bf cc da 84 3d 84 9c 84 bd
       -1.5166429 -0.80626464 0.06487045 -0.064751655
0001d0 c8 5e 03 be d2 13 fc 3d 3d a3 a3 3f b7 c8 3e bf
       -0.12829125 0.12308468 1.2784191 -0.74525017
0001e0 d0 46 0a be 22 62 2a be 7d e6 29 bf d7 9d 5e 3e
       -0.13503575 -0.16638997 -0.6636732 0.21739899
0001f0 f8 41 47 3f be 0d 33 3f f5 db 8a bf 3e 73 11 3d
       0.77835035 0.69942844 -1.0848376 0.035510294
000200 03 07 a3 bc 3e 12 93 bd 16 34 bd 3f ad 7e 79 3d
       -0.019900804 -0.07181214 1.478152 0.060911823
000210 b0 ac 27 3e 8e 8b e5 3d 53 d4 93 be 52 c1 8e 3e
       0.16374469 0.112082586 -0.28872928 0.27881867
000220 b4 95 b2 be c3 5a 1e c0 c9 e6 f0 bd 04 4b 83 be
       -0.3487984 -2.4742897 -0.11762769 -0.2564317
000230 49 b4 67 bf 80 d2 de be 34 9e 64 3c 5c 81 04 be
       -0.9050947 -0.43519974 0.013953734 -0.12939972
000240 85 9b 0d 3e 11 7a 46 3e a1 e7 89 3f ea 96 3f 3f
       0.13828857 0.19382502 1.0773813 0.7483965
000250 00 c3 af be 68 d0 48 3e 65 5b 36 c0 7c 1e 98 be
       -0.3432846 0.1961075 -2.8493283 -0.29710758
000260 c7 21 ee be d6 97 25 3e 61 5a 22 be 64 75 e0 be
       -0.46510145 0.16171202 -0.1585479 -0.43839562
000270 b1 43 28 3e 01 27 36 bc 8a 1f cf 3e 89 6a 78 be
       0.16432072 -0.011117698 0.4045375 -0.2425939
000280 ee 86 14 bc 90 07 e5 3d 4c 44 98 be 08 91 fc bd
       -0.009065373 0.11183083 -0.29739606 -0.1233235
000290 a2 37 90 bc 69 05 98 be 12 d7 d5 bf 65 26 06 3e
       -0.017604653 -0.29691628 -1.6706259 0.13100584
0002a0 41 61 92 bf c0 4b 95 bd 11 c1 d0 3f b6 5d 02 bf
       -1.143593 -0.07289839 1.6308919 -0.5092424
0002b0 61 74 83 3e f0 08 75 be b7 19 b8 be ee 9e 7d 3f
       0.25674728 -0.2392919 -0.3595712 0.9907063
0002c0 e7 69 6c 3e 12 73 ac be 26 e7 08 bd 84 0b 17 bd
       0.23087274 -0.33681542 -0.033423565 -0.036876217
0002d0 e5 b5 e2 be 6d 64 d4 bd 71 d1 4b 3e 62 cb 93 bd
       -0.442794 -0.10370717 0.19904114 -0.072165266
0002e0 9b 1f 34 bd b2 15 98 40 ff 72 6b 3e 79 44 39 3f
       -0.043975454 4.7526484 0.22993086 0.72370106
0002f0 a9 d0 e8 bd 4f ab 2c be a8 44 75 bd 10 54 61 be
       -0.11367924 -0.16862224 -0.05987993 -0.22004724
000300 64 b7 67 3e 28 6f 94 be a5 41 ab be 82 25 31 bf
       0.22628552 -0.28991055 -0.3344852 -0.6919786
000310 b4 f0 ab be 00 5b e1 3d 9c b1 82 3e 74 3f 40 3d
       -0.3358208 0.11003685 0.2552613 0.046935514
000320 11 85 3d bf f5 7d a2 3d a2 f1 8f bf e9 3d ba be
       -0.7403117 0.07934181 -1.1245615 -0.3637536
000330 d1 e3 44 be 2d f8 f0 be cc 6c 28 c0 b6 a2 f8 be
       -0.1922753 -0.47064343 -2.6316404 -0.4856164
000340 00 97 ab 3e 3d a4 fb be cf 70 aa 3d e5 e3 c1 bb
       0.3351364 -0.4914874 0.08322298 -0.0059170597
000350 65 b9 c9 3f e2 b7 69 3e ba 1b e1 3d 75 ef 0c be
       1.5759703 0.22824052 0.109916165 -0.1376322
000360 8c 36 de 3d 99 5b 1f 3e 2c e3 2a 3d 66 aa 4c 3e
       0.10850248 0.15562285 0.041720554 0.19986877
000370 77 59 05 bf b1 b4 be be 53 19 67 bf d3 af f8 bd
       -0.5208964 -0.37247232 -0.90273017 -0.12142911
000380 93 6c 02 be 4a 84 4e 3e f9 47 e2 3e 4d c4 00 3f
       -0.1273673 0.20167652 0.44195536 0.5029953
000390 7d dd db 3e 73 d6 17 be 94 ff 90 bd 3d 25 74 be
       0.4294242 -0.148279 -0.07079998 -0.2384233
0003a0 e8 5b 83 3f e6 b9 1b bf d2 58 d4 37 2f ab 58 3d
       1.0262423 -0.60830534 2.531373e-05 0.05289763
0003b0 7d 1a 08 3d f9 1e 1d c0 24 b0 07 3e 6c 95 cc 3e
       0.033228386 -2.4550154 0.13250786 0.3995775
0003c0 c5 55 31 be ad dd da 3e 2d cf 26 bd 07 fb ec 3e
       -0.17317875 0.4274725 -0.040724922 0.4628527
0003d0 bb e4 47 3f ea 35 99 3f e9 c9 90 3d 49 af e8 bd
       0.7808339 1.1969578 0.07069761 -0.11361558
0003e0 23 06 85 be 00 bb 0c 3d f0 d8 8e be a2 8f d0 be
       -0.25981244 0.034358025 -0.27899885 -0.40734583
0003f0 b1 49 61 bf 16 e8 03 c0 30 c2 1c bf 51 e1 b4 be
       -0.8800307 -2.0610404 -0.61233807 -0.35328153

onnx::MatMul_13 f4 [512, 3]
000000 af 7e 1a 3d ef 1e e7 bd 31 49 14 bd eb 13 bd 3b
       0.03771847 -0.11285197 -0.036202613 0.0057701967
000010 29 5f f4 3d c7 4f 60 3e 57 42 d4 bb 5a 61 83 3d
       0.11932213 0.21905433 -0.006477635 0.06415053
000020 4f 0f 3b 3e 00 5d 35 3d 89 d1 e5 bd e2 bc 52 bf
       0.18267559 0.044278145 -0.11221606 -0.8231946
000030 51 5b 8a bd 40 7e 86 bd 86 b7 82 3c 58 d8 87 3e
       -0.067556985 -0.06567049 0.015956651 0.26532245
000040 d7 30 0a bc 80 d6 68 40 59 1e 10 bd 14 28 e0 3e
       -0.008434496 3.638092 -0.03518519 0.43780577
000050 78 9a 2c 3f a5 b5 0e be f1 38 f1 bb 77 cd 33 3d
       0.674232 -0.1393648 -0.0073615243 0.04389712
000060 05 ff aa 3c f9 ac c5 bc 33 ec 67 3c 33 d2 98 3c
       0.020873556 -0.024130331 0.014155435 0.018654918
000070 8f b7 73 bd 1a 02 44 bd 01 2d 1f be 4f 23 e3 ba
       -0.059501227 -0.047853567 -0.15544511 -0.0017329248
000080 36 bc 2b bd 8e ce aa ba b2 77 9a 3d 25 ac df bc
       -0.04192754 -0.0013031529 0.07542361 -0.027303765
000090 6c 28 d6 3c aa 0e 20 3d 3d 2b 90 3c 49 7a d6 be
       0.026142322 0.039076485 0.017598743 -0.4189017
0000a0 d4 34 89 40 b1 2a ee be 14 9e 2c 3d 71 bb 77 bf
       4.2876987 -0.46516946 0.042142943 -0.9677039
0000b0 4b e1 55 bf a7 ba a3 3d 90 4d 08 c0 be 0b ee be
       -0.83546895 0.079945855 -2.129734 -0.46493334
0000c0 5a c3 aa bc 8b 33 ce bc fd e0 ad bb 41 be f6 bb
       -0.020845104 -0.025171062 -0.0053063617 -0.0075300043
0000d0 62 62 99 3f 14 b8 b9 bd d1 80 f3 3c a7 15 d7 3a
       1.1983149 -0.09068313 0.02972451 0.0016409651
0000e0 17 4a 72 bb 9e 7c 57 3f d1 74 1c 3e 14 1a 22 3e
       -0.003697043 0.84174526 0.15278937 0.1583026
0000f0 5c bf 45 3f 1e fc da bf 71 2e 3f be d2 3c 26 bc
       0.77245116 -1.710819 -0.1867006 -0.010146337
000100 c5 da 74 bd a0 b4 c1 bd 5a b4 c6 3b b0 32 67 bc
       -0.059778947 -0.094582796 0.00606398 -0.014111206
000110 6f b0 3e bd ac 76 f6 bc b8 ca 60 be 26 83 34 be
       -0.04655498 -0.030085884 -0.21952331 -0.17628154
000120 61 09 0f bb 86 49 f5 bc 24 5e 45 bd 87 22 22 3d
       -0.0021825659 -0.029942285 -0.048185483 0.03958371
000130 d1 76 a1 3b 3e 30 c1 3b 14 39 68 be 9b f9 a6 bc
       0.004927494 0.0058956435 -0.22678024 -0.020382693
000140 29 4b 0e bc 8f 64 fe 37 14 b5 8a bd 9b 00 a1 bc
       -0.008684912 3.0325986e-05 -0.06772819 -0.019653609
000150 50 5b 0d bd 0c 00 ee bc 8a 18 d4 3c ce c0 67 bf
       -0.03451091 -0.029052757 0.025890607 -0.9052857
000160 62 eb 76 bf 8c 5c 7a bf 54 49 80 bf 21 80 d1 be
       -0.96452916 -0.97797465 -1.0022378 -0.40918067
000170 12 a9 f3 bd bd 38 b1 bc d7 ee 97 bd 15 c5 d0 bb
       -0.11897482 -0.0216335 -0.07418602 -0.0063711503
000180 26 0a 8b 3c 7b 70 dc 3d 76 29 f7 3c c4 e8 ce bc
       0.016972613 0.107636414 0.030171137 -0.025257476
000190 0f de 26 bd d6 b2 e1 3b 1f 49 11 bb 6e 3a 73 3b
       -0.040739115 0.006887774 -0.0022168828 0.0037113684
0001a0 be 74 b1 bb dd 45 0c be ae e2 8c bd fe b2 dd 3c
       -0.005415528 -0.13698526 -0.06879173 0.02706289
0001b0 79 a1 86 bc 66 93 d9 bb 60 df f1 bc b7 3a a5 bd
       -0.016434418 -0.0066398857 -0.029525459 -0.080678396
0001c0 e1 9c 72 be d9 9c ed bb 50 91 2c be 62 84 4c 3c
       -0.23692657 -0.0072513637 -0.16852307 0.012482734
0001d0 c4 95 15 3d 66 f8 31 bd 31 ea a4 bd 8d 4e cd 3d
       0.03651978 -0.04344978 -0.08052481 0.10024748
0001e0 fe 8d 87 3d 07 ee d8 bb ff d0 b3 be 8c c9 87 bd
       0.0661888 -0.006620172 -0.3512039 -0.06630239
0001f0 68 48 d8 bb 03 40 12 bd 08 4b f4 bb 2c 47 07 3f
       -0.0066004284 -0.035705578 -0.0074552335 0.52842975
000200 59 be 48 3e e9 9a ab 3b 8e d9 4e bd 96 f4 3f bd
       0.19603862 0.0052369726 -0.050500445 -0.046864115
000210 fe 6c e2 be 3b 24 1d bd 19 ef 3b bc 90 1f 01 bd
       -0.4422378 -0.03836463 -0.01147058 -0.03152424
000220 d3 42 a2 bc 46 fd 39 3d de 83 61 be fe bd ff be
       -0.019807255 0.045407556 -0.2202296 -0.4994964
000230 37 34 eb 3e 0f 18 d7 3e b6 d8 08 bf fb 28 41 3e
       0.45938274 0.42010543 -0.53455675 0.18863289
000240 b6 32 a8 be 46 73 41 3e 37 51 bd 3f b9 97 5e b8
       -0.3285119 0.1889163 1.479041 -5.3070227e-05
000250 33 7b 57 3e 7f 0a bb bd 05 4d 5f 3c 55 f1 12 be
       0.2104309 -0.09132861 0.013629203 -0.14349873
000260 2f 4a b2 3d a8 53 3f 3c 82 2a 77 bd 69 68 86 bc
       0.08705556 0.01167766 -0.060343273 -0.016407209
000270 bd c1 2c bf bb b8 2f bf f5 47 e8 bf d0 09 4c 3c
       -0.6748312 -0.6864125 -1.814696 0.012453511
000280 ca e8 90 3d 22 c2 13 3b f2 33 4f 3d d8 1a 49 bd
       0.07075651 0.0022546132 0.05058665 -0.049097866
000290 0c 85 79 be 2a cf b9 3d 0e d8 f5 bc ac e3 37 3d
       -0.2436716 0.090727165 -0.03001025 0.04489486
0002a0 1b 18 f3 3c ba 78 6e 3c 59 11 41 bd c1 56 c6 bd
       0.02967458 0.014555151 -0.047135685 -0.09684516
0002b0 a0 70 8e 3d 07 09 db 3c ed 2b 08 be ef 4c d0 3b
       0.06955075 0.026737703 -0.13298006 0.0063568274
0002c0 44 57 43 bd e0 be fe 3d ab f1 d2 bc 3c d6 e3 3d
       -0.047690645 0.1243875 -0.025750002 0.11124846
0002d0 13 2d 99 3f 0e 7b d9 be 89 2d 08 c0 d4 55 89 3e
       1.196688 -0.42476696 -2.1277792 0.26823294
0002e0 3c 7e e1 3e c1 a0 ca 3d 9f a7 5f 3c 8e ae 11 bc
       0.44041622 0.098939426 0.013650804 -0.008891715
0002f0 6f b6 4a 3d 7d bd fb 3c d5 dd 1d be 08 70 12 bb
       0.04949039 0.030730003 -0.15416653 -0.0022344608
000300 ec ab 5a be e3 12 2f be ec 88 99 bf 6a 35 b5 3c
       -0.21354645 -0.17097048 -1.199491 0.022120196
000310 df fd bc bd fd ae bf 3c e8 e5 20 3e 64 66 53 3d
       -0.092281096 0.02339887 0.15712702 0.05161132
000320 91 10 c6 3d 2f c6 9a be 11 66 44 40 e2 b9 f5 3d
       0.096711285 -0.30229327 3.0687296 0.11998345
000330 e6 78 71 3d 24 ef 12 3e 90 b4 2c 3d 4f e4 80 3d
       0.05895319 0.14349037 0.042164385 0.062935464
000340 65 59 c4 3d da f5 c0 be ba 09 3c 3a 36 ed dd bc
       0.09587363 -0.3768757 0.000717308 -0.02709065
000350 20 11 57 bc 63 c5 b9 3d 34 dc 3f be f5 15 de bc
       -0.0131266415 0.09070852 -0.18736345 -0.02711008
000360 59 24 df 3e a5 d4 44 40 6e 43 f3 3c ce 24 56 be
       0.4358242 3.0754788 0.029695239 -0.20912477
000370 c4 5d b2 3c e9 93 8c bc 10 ed 4f 3c 39 ae ab bc
       0.021773227 -0.017160373 0.012690797 -0.0209571
000380 d0 8c 2f bc ad 21 1a 3e 8a 59 34 3d 7d 47 91 be
       -0.010714725 0.15051909 0.044030704 -0.28374854
000390 1d 61 df bc fa 14 88 bb c8 a0 0d bd 77 ad 1a bc
       -0.027267987 -0.004152891 -0.03457716 -0.009440771
0003a0 91 96 39 3d 6a d1 9f bc 10 5d 6e 3f 59 c8 5c 3f
       0.045309607 -0.019509036 0.9311075 0.86243206
0003b0 ff 6d df 3e 84 09 80 3e 50 81 82 40 59 12 68 bd
       0.43638608 0.2500726 4.078285 -0.056658123
0003c0 e9 89 19 be 2e ee e0 bc 19 c5 26 40 51 76 86 bc
       -0.14994015 -0.027457323 2.60578 -0.01641384
0003d0 89 a9 97 bc fb 60 9c bb 0f 73 e3 bc 97 1a 2f 3c
       -0.018513458 -0.004772303 -0.027764825 0.010687492
0003e0 2a a0 92 3b e3 c0 02 bc 5b 9e 9d 3d 37 c1 9e bd
       0.0044746595 -0.007980558 0.076962195 -0.077516966
0003f0 ec 70 1a bf 00 f5 d2 bf eb 74 f4 bf fc e1 55 3c
       -0.60328555 -1.6481018 -1.909818 0.013054367
