models/model-20.onnx (onnx, 37455 bytes, 4 tensors)

linear1.bias f4 [512]
000000 28 59 d9 3d 06 f1 d5 3d 3e 64 2d be 91 2b 00 be
       0.10612708 0.10446362 -0.1693277 -0.1251662
000010 db 2f c1 3d e8 70 42 be e1 a9 26 3e 84 c0 13 be
       0.09432956 -0.18988383 0.16275741 -0.14428908
000020 5e a1 a3 bd da 96 4f 3e 29 5a 6c be c3 4b ae 3e
       -0.07989763 0.20272389 -0.23081268 0.34042177
000030 c7 b1 33 be 34 f0 da bd 02 76 0f be 1e 9f 44 3e
       -0.17548285 -0.10690346 -0.1400986 0.19201323
000040 08 27 39 3e f2 ac bc bd 95 8c dd bc 23 85 b1 3d
       0.18081295 -0.09212674 -0.027044574 0.08667972
000050 40 79 62 be 8f 5b 1b be 4a 40 30 3e 20 c7 7a 3e
       -0.22116566 -0.15171646 0.17212024 0.24490023
000060 f9 32 63 3e b5 bf 21 3e c2 9c 17 3e 5e 75 3d 3e
       0.22187413 0.15795787 0.14805892 0.18501803
000070 3f c3 19 3e 79 1f cc 3c 44 4a 69 3d 0e 15 94 3d
       0.15015887 0.024917351 0.05695559 0.07230578
000080 be d8 87 bb 51 23 48 be 45 f8 59 3e 6e 3c 2b 3e
       -0.0041457107 -0.19544722 0.21286114 0.16722271
000090 bb dc a8 bd 2f 17 8d 3e c9 3c e5 3d 38 9a 5c be
       -0.08245226 0.2755675 0.111932345 -0.21543205
0000a0 e6 fb 9d bd 23 2d 42 3d e9 18 3b 3e 71 c5 ec bc
       -0.077140614 0.047406327 0.18271221 -0.028902741
0000b0 8f 33 10 3d d0 6e 5a 3e 05 a2 3a be 20 b2 3b 3e
       0.03520542 0.21331334 -0.18225868 0.18329668
0000c0 57 79 24 bd 5a 96 83 3e de d8 a3 bd bf b2 9c 3d
       -0.04015478 0.25700647 -0.080003485 0.076512806
0000d0 27 e3 6d 3e 57 d6 18 be 32 5d 86 3e 61 c1 3d bd
       0.23231183 -0.14925514 0.26242977 -0.046327
0000e0 d1 90 14 3e 3f fb 2e 3c 44 4c 84 be 61 7d 1e be
       0.14508368 0.010680019 -0.25839436 -0.15477516
0000f0 49 58 0b be 14 d2 29 bd b1 3b 27 be bb e0 cb 3d
       -0.13607897 -0.04146011 -0.16331364 0.09954973
000100 07 7d ec bd c1 78 9a bc 3c c9 3d be 68 fb d7 bc
       -0.115472846 -0.018856408 -0.18533796 -0.026364997
000110 35 65 6d bd 26 32 4a bd 41 fc b2 3d cd 60 16 3e
       -0.057957847 -0.04936423 0.0873952 0.14685364
000120 c8 7d fd bd 8b f2 cc 3d 4b ce 6e bb 98 68 66 3e
       -0.123775065 0.10007199 -0.0036438878 0.22500837
000130 6b 75 49 3e c3 d6 21 3e ec 22 0d be 98 f1 2a be
       0.19673698 0.15804581 -0.13782853 -0.16693723
000140 86 c0 57 be c2 77 ca bc e9 a1 33 be 04 3e 50 3e
       -0.21069536 -0.024715308 -0.17542233 0.20336157
000150 46 db 52 be 39 c9 2b 3e c2 ba 61 3e 6b 52 b8 3d
       -0.20591459 0.16775979 0.22043899 0.09000095
000160 53 99 af 3d 20 20 0c 3e 0e 45 43 be 72 45 50 be
       0.08574166 0.1368413 -0.19069311 -0.20338991
000170 51 ab 83 be 72 72 29 3e 86 3d 45 3d ee 4c 86 3e
       -0.25716642 0.16547564 0.048154376 0.26230568
000180 b7 d0 98 bb c0 3d 23 3c 9f 8c 76 be d6 8d da bc
       -0.0046635526 0.009963453 -0.2407708 -0.02667896
000190 4a 06 0d 3e 5b 34 81 bd ac 94 6e 3e c6 65 2a 3d
       0.1377193 -0.06308814 0.23298901 0.041600965
0001a0 8c 97 1d bc d2 f3 87 3e 59 aa 31 be 8d 5a f9 3d
       -0.009618651 0.26553208 -0.17350139 0.12175474
0001b0 6d aa 0c bd 1e 33 fa 3d ed dd 4c 3e 70 cf 73 be
       -0.03434222 0.12216781 0.20006533 -0.238096
0001c0 49 3e 12 be 46 62 de 3c 25 b5 d7 bc 20 89 55 bd
       -0.14281572 0.02714647 -0.026331494 -0.052132726
0001d0 71 5f 12 be 32 6d 01 be f7 34 59 be 1b 8b 10 3e
       -0.1429422 -0.12639311 -0.2121161 0.14115565
0001e0 50 25 94 3c 84 0d 03 be 5a 2d 3c 3e a9 32 93 3d
       0.018084198 -0.12798125 0.18376675 0.07187397
0001f0 34 82 58 3e d5 07 0b 3b 30 54 9a 3c c8 f1 2d 3e
       0.21143419 0.0021214385 0.018838972 0.16986763
000200 4d 1f 72 bd c4 35 9d 3d 16 35 60 be 20 ed 56 3e
       -0.059111882 0.076762706 -0.2189525 0.20988894
000210 b5 42 58 3e 38 06 9d bc 56 a7 dc bd 4c 5f a9 bc
       0.21119197 -0.019168004 -0.10774104 -0.020675324
000220 fc 5c 8a be 5d 81 16 3e c0 ee 70 3e dd 7d 5e be
       -0.27024066 0.14697786 0.23528576 -0.217277
000230 91 9e 7c 3e f7 45 d0 3d b0 47 53 be 73 d6 20 be
       0.24669863 0.10169595 -0.20632815 -0.15706806
000240 55 17 8f be dc c7 b8 bd 75 1f 5a 3e 67 d4 b2 3c
       -0.27947488 -0.09022495 0.21301062 0.021829797
000250 13 86 74 3d 44 ba 70 bd 95 52 13 3e c6 10 71 bd
       0.059698176 -0.058771387 0.14386971 -0.058853887
000260 2f 12 bb bd 9b f5 47 bd 1f a9 44 3e ef b1 5c bb
       -0.091343276 -0.048818212 0.1920514 -0.0033675393
000270 70 57 01 3e 6b 7d e9 bc 19 05 8c 3e 13 99 60 3e
       0.12631011 -0.028502187 0.2734764 0.21933393
000280 c3 de 4f 3e 48 1b db 3d ed e3 2b be 5e 6f 10 3d
       0.2029982 0.10698563 -0.16786166 0.035262458
000290 d3 6a 0b be d4 9a e2 3d 04 61 52 bb 5a 93 30 be
       -0.13614969 0.11064687 -0.0032101283 -0.1724371
0002a0 db a9 8e 3d 86 fc 05 3e ec b0 57 be 40 be 33 3e
       0.06965991 0.13084611 -0.21063584 0.17553043
0002b0 12 b9 86 3d 87 ba 87 bd f7 6d f0 3d a0 4c 6d 3d
       0.06578268 -0.06627374 0.11739724 0.057934403
0002c0 d0 c1 00 be 4a c9 5d 3e 5a d4 07 be 1f 75 d6 bc
       -0.12573934 0.21658817 -0.132646 -0.026178895
0002d0 23 67 46 be 3b 8c 44 bc 58 e4 c7 3d 69 6b fe bd
       -0.19375281 -0.011996324 0.0976035 -0.124228306
0002e0 52 1e 3f 3e d6 87 35 3d b7 0c 37 3d 80 ec 55 be
       0.1866391 0.044318996 0.04468986 -0.20890999
0002f0 a8 d1 0f be 7b d3 6e 3d 7e c9 52 3e ab cf 7f 3d
       -0.14044821 0.058307152 0.20584676 0.062453907
000300 7a 80 b5 bd 1b c4 e4 bd 9a 00 17 be bd 1d e4 bd
       -0.088623956 -0.11170217 -0.14746323 -0.111384846
000310 48 7a 63 3e 7e c3 0a be da 46 2a 3e 7d eb 4c 3e
       0.22214615 -0.13551137 0.1662859 0.20011707
000320 16 12 c3 3d f7 6d 26 3e e0 77 60 bd 6c 77 b8 bd
       0.09524934 0.16252886 -0.05480182 -0.09007153
000330 2d b7 88 3d b4 7e 05 be 93 61 a7 3e 70 79 a6 bd
       0.06675563 -0.13036615 0.3269163 -0.08128631
000340 08 8e 44 3e 0d a9 00 bd 34 a2 18 be 16 5a be bc
       0.19194806 -0.03141122 -0.14905626 -0.023236316
000350 d7 8f bf 3d 9a 3a 24 3e 99 16 15 3e 72 3e 6a be
       0.09353607 0.1603798 0.14559402 -0.22875383
000360 cf 46 9e 3e 21 69 07 be aa 3c a3 3e ba a8 87 be
       0.30913398 -0.13223697 0.3188222 -0.26495916
000370 d9 25 de bd 8f 28 2c 3e 1d 5f 82 3e 40 ca 1c 3e
       -0.108470626 0.16812347 0.2546319 0.15311527
000380 51 bc af 3d 10 d3 09 3e b2 9f b6 bd ef 95 85 3e
       0.085808404 0.1345942 -0.08917178 0.26090953
000390 34 70 71 3e f7 bb 96 3e e0 22 8b 3c fe a1 50 3e
       0.23577958 0.2944028 0.016984403 0.20374295
0003a0 34 b6 43 3d fb 0d 7a 3e 26 19 9e 3d e7 27 6f be
       0.047781184 0.24419396 0.077196404 -0.23355065
0003b0 27 54 12 be 9e ad 84 be f4 69 59 bd bc 45 5b 3e
       -0.14289914 -0.2591371 -0.05307956 0.2141332
0003c0 42 70 87 3e 58 90 60 3e 49 62 31 bd 52 e7 c2 bd
       0.26452833 0.21930063 -0.043306623 -0.09516777
0003d0 d9 4a 5c 3d d4 1c 40 be 28 3d 14 bd dc c6 54 be
       0.053782318 -0.18760997 -0.036191136 -0.20778984
0003e0 a6 f1 69 be 4d c7 e6 bd d5 7d fb 3d db 3d 40 3e
       -0.22846088 -0.11268482 0.1227986 0.18773596
0003f0 fd 9f 97 3e 11 43 e2 bd 6d 44 2a be f5 42 24 3e
       0.2961425 -0.11047948 -0.16627665 0.16041167

linear2.bias f4 [3]
000000 7c 32 22 bc af b5 e1 bc 3b d3 2b bd
       -0.009899732 -0.027552454 -0.041949492

onnx::MatMul_12 f4 [14, 512]
000000 10 83 1c 3e 6f 5f fd bd 3d 5e 66 be 12 7b 1e bd
       0.15284371 -0.12371718 -0.22496887 -0.038691588
000010 20 69 d4 3d 9e 52 9a bc 08 98 63 be bc b7 91 3d
       0.103716135 -0.018838223 -0.22225964 0.07115123
000020 50 ef 2d be 32 58 8b bd 5b 92 af bd 68 41 5a 3e
       -0.16985822 -0.06803931 -0.08572837 0.21314013
000030 cf e7 54 3e b6 cd 2f be c7 77 ea bd f5 b6 4a be
       0.20791553 -0.17168316 -0.11448627 -0.19796355
000040 5f 21 04 3d fe 65 87 3e a3 66 51 3e 6c e3 b9 3d
       0.032258388 0.26445 0.20449309 0.090765804
000050 1f 7f 11 3e 7c 77 83 3e ee bb 48 be b0 a0 03 be
       0.14208649 0.25677097 -0.1960294 -0.12854266
000060 fc 39 7a bd cb 4c e7 bb 4b 61 52 3e 97 e5 7e bd
       -0.061090454 -0.007058715 0.20544927 -0.062230673
000070 62 bb 15 3d 09 09 23 be ff c3 88 bd f0 55 2e be
       0.036555655 -0.15921415 -0.06678008 -0.1702497
000080 dd 36 bb bd 43 7a 03 3e 89 3c 29 3d 72 a7 46 be
       -0.09141324 0.12839608 0.041317496 -0.19399813
000090 03 6c 75 be d8 d9 0f be fb 0d 29 3e 50 ee c3 3d
       -0.23966984 -0.14047945 0.1650924 0.09566939
0000a0 1f 33 5d be 4f 3a 09 3e 50 a8 f9 bc c4 be e4 bd
       -0.21601532 0.13401149 -0.030475765 -0.11169198
0000b0 02 85 ea bd cd 32 85 3e 7e d9 4a 3e 05 2a 87 3e
       -0.114511505 0.2601532 0.19809529 0.26399246
0000c0 07 25 7d 3e 81 ff 9d 3e 05 d6 89 3d 21 39 51 3e
       0.24721156 0.30858997 0.06730274 0.20431949
0000d0 ba f0 89 3e 36 e0 6c be 8c ec 23 3e bd ff 08 3d
       0.26941472 -0.23132405 0.16008204 0.033447016
0000e0 51 f1 ae bc 90 d9 83 be 0f c3 49 bd 11 48 43 be
       -0.021355303 -0.25751925 -0.049258288 -0.1907046
0000f0 3b 3c 0e be 0c 82 55 be af 4b 6d be 81 1f e0 3c
       -0.13890164 -0.2085039 -0.23173402 0.027358772
000100 a1 6f 94 3e 8c b7 07 be 0c 32 e8 3a 56 c5 86 be
       0.28991416 -0.13253611 0.001771511 -0.2632243
000110 1f f5 ab bd f4 c6 6b 3e cc e6 d9 bc 97 62 f1 3d
       -0.083963625 0.23025113 -0.02659931 0.11786383
000120 22 e2 fb bd fe 40 8f 3e 25 15 db 3c 4d 83 02 be
       -0.12298991 0.27979273 0.026743481 -0.127454
000130 10 bd 57 3e 67 96 fb bd 25 0d 74 be b6 d0 cc 3c
       0.21068215 -0.12284546 -0.23833139 0.025001865
000140 0c 59 70 3e df f3 35 3e 18 c9 cc bd 0a c1 71 be
       0.23471469 0.1776881 -0.09999293 -0.23608795
000150 46 36 62 be f2 27 2f 3e ac 26 8d 3d 7d 24 86 bc
       -0.22091016 0.17105082 0.06892142 -0.01637482
000160 fb c3 b4 3b c3 db fb bd e2 8d 36 3d 85 27 57 bd
       0.0055165268 -0.122977756 0.044568904 -0.052527923
000170 ff 6c 50 3c c7 78 6b bc ca b6 ea bd d3 dc 25 3d
       0.012721299 -0.014372057 -0.114606455 0.040493798
000180 43 a7 50 be 7e 93 97 3d 0e 84 52 3d 87 c9 58 bd
       -0.20376305 0.07401179 0.05139547 -0.052926566
000190 57 fb 77 be a5 d9 8a 3e f1 63 51 be 74 f0 81 bb
       -0.24216972 0.27119175 -0.20448281 -0.003965432
0001a0 8b 35 5d be 17 60 83 3e df 64 61 be ca 87 8a 3e
       -0.21602456 0.25659248 -0.22011136 0.27056724
0001b0 89 c5 06 be 2e d1 03 be c7 c0 57 be 9a 62 97 3c
       -0.13161291 -0.12872764 -0.21069632 0.018479634
0001c0 0a cc cd bd 0b c2 29 3e 6b be a6 3d 9d 27 de 3d
       -0.10048683 0.16577928 0.08141788 0.108473994
0001d0 8b 5c 35 3e 01 60 cf bd 19 29 0c 3c 24 3f 04 3e
       0.17711084 -0.10125733 0.00855472 0.12914711
0001e0 ae 1a 70 3e 57 b4 f3 bd fa ed 01 be 08 43 bc 3d
       0.23447677 -0.118996315 -0.12688437 0.09192473
0001f0 99 f8 51 3e 90 24 88 3c 22 1f 80 3e 1f 30 34 3e
       0.20504989 0.016618997 0.25023752 0.17596482
000200 80 f5 0c 3d e5 a1 b3 3c b2 30 6a be 16 9e 5d be
       0.034413815 0.021927783 -0.22870138 -0.21642336
000210 22 04 65 3d 7e d6 7d be 71 9d 9c 3e 95 ad 3e be
       0.055912144 -0.24788854 0.30588868 -0.18620904
000220 1b c6 67 3e 81 f9 15 3e 75 05 8e 3d 45 ad 07 be
       0.22634165 0.1464596 0.069346346 -0.13249691
000230 6c 5d 9e 3d 3c 2a a5 bd 7e a5 9e 3d af 81 b2 3d
       0.077326626 -0.08064696 0.07746409 0.087161414
000240 ca 7c 70 3e 7b 92 8a 3e 38 70 40 3d 02 bd 0d 3e
       0.23485103 0.2706488 0.04698202 0.13841632
000250 cf 11 66 3e 15 cc 28 bd e7 6d 6e 3d 42 e0 a1 3e
       0.22467731 -0.041210253 0.05821028 0.31616408
000260 3d 53 54 3e 54 15 97 3d a9 f8 51 be 0e 41 d5 bd
       0.20734878 0.07377115 -0.20505013 -0.10412799
000270 1b 1c 0d be 4a f1 7a 3d 7b 5f 83 3e 1f 4f 20 be
       -0.13780253 0.061265267 0.25658783 -0.15655182
000280 af e8 84 3d 9d 07 5f be 6f 8c 5d 3e 42 03 24 be
       0.064896934 -0.21780248 0.21635602 -0.16016868
000290 0f 5a 8f 3e a9 9c 7d bd 2f f0 92 3d f1 2a 1a 3d
       0.27998397 -0.06191698 0.07174718 0.03763861
0002a0 04 f4 95 bd cc c7 76 be bc 81 0d be b6 6e 90 bd
       -0.07321933 -0.24099654 -0.13819021 -0.070523664
0002b0 d8 01 6a be e5 dd a4 bd 0c 9e 2e be de b9 40 be
       -0.22852266 -0.080501355 -0.17052478 -0.18820903
0002c0 8d 81 82 3d c5 6a d2 3c ec 76 77 3d 7c 5f 4e 3e
       0.06372366 0.025685677 0.060416147 0.20153612
0002d0 e5 63 e1 bd 5a 3f 4f 3e 3f 10 5e 3c 61 7c d4 3c
       -0.110053815 0.2023901 0.013553678 0.025938215
0002e0 f1 47 c4 bd cb af 88 3d c8 62 42 3e be ff 84 be
       -0.09584034 0.06674155 0.18982995 -0.25976366
0002f0 ef 4e 2e bd 52 7e d2 bd cb 1e fd 3d c6 49 9c 3e
       -0.042555746 -0.10278 0.12359389 0.30525035
000300 41 d9 df bd 9f 22 f7 3d 55 cc 90 3e ce 1d 83 3d
       -0.1093011 0.1206715 0.28280893 0.06402169
000310 8e be 4a be e0 3f 53 3d 62 ce 54 bd 59 3e c3 bd
       -0.19799253 0.051574588 -0.051954634 -0.09533376
000320 0b 48 8e 3e c1 29 81 3e 52 e9 27 bd 9e 02 1a 3e
       0.2778934 0.25227168 -0.040993996 0.15040061
000330 6e 2a e5 3c 1d af 18 be cb e7 94 3e 6a 21 88 3e
       0.027974334 -0.1491055 0.29083094 0.26587993
000340 95 27 d8 3c c9 5e 0f bd f8 44 f4 3d 65 78 11 3e
       0.026386062 -0.035002504 0.11927217 0.14206083
000350 48 5b f6 b9 0f 0f ed 3d 76 17 1d 3e 69 da 7e bd
       -0.00046988786 0.11575138 0.15340981 -0.06222001
000360 1e d5 86 3e f3 7b 44 bc 83 ae a4 3e b6 68 42 bd
       0.2633447 -0.011992442 0.32164392 -0.04746314
000370 b2 57 6e be 0f 6b 96 3d e5 21 a8 bd 0e f7 38 3e
       -0.2327564 0.073446386 -0.0820959 0.18062994
000380 84 77 7c be 88 fe 25 bc 89 c8 2d 3d c3 f3 76 3c
       -0.24654967 -0.010131486 0.042427573 0.015072766
000390 9c 7c 09 3e db 1a 33 3e 0f d8 6f 3e 62 c4 24 be
       0.13426441 0.17490713 0.23422264 -0.16090539
0003a0 0e f2 21 be eb 37 1a 3e 89 01 77 bd 56 d7 24 be
       -0.15814993 0.15060394 -0.0603042 -0.16097769
0003b0 07 aa 79 be 60 48 be 3d 7e f4 e0 3d f2 ad fc bd
       -0.24381267 0.09291148 0.10984133 -0.12337865
0003c0 62 4b 8c 3e d9 94 1d 3c 33 fa 43 be df 89 ac 3d
       0.27401263 0.009618008 -0.19138412 0.08424734
0003d0 38 5a 1f 3e 43 e8 7c 3e 59 68 9a bd 47 21 09 3e
       0.1556176 0.24697976 -0.07539434 0.133916
0003e0 5f c5 f3 bd 10 7a 37 3e 4c ae de bb 65 cf f9 bc
       -0.1190288 0.17917657 -0.00679568 -0.030494401
0003f0 b6 23 34 3d 18 10 7e 3e 39 7b 3c 3e 95 2c 29 be
       0.04397937 0.24810827 0.1840638 -0.16520913

onnx::MatMul_13 f4 [512, 3]
000000 30 39 bf bc 14 55 98 bc 00 84 63 bd 55 c5 6f bc
       -0.023342699 -0.018595256 -0.055545807 -0.01463445
000010 71 3e 74 bd 31 0c ae bd b9 8c e5 3c 04 95 c7 bb
       -0.05962986 -0.08498419 0.028021203 -0.006090762
000020 d7 46 5b bd 91 c4 b3 3c b6 9e 18 bd 11 a6 98 3c
       -0.053534355 0.021944316 -0.037260734 0.018633874
000030 d1 8f fe bb 4a 49 52 bd e9 09 27 bd e4 8e 94 bd
       -0.007768609 -0.051339425 -0.040780935 -0.07253817
000040 70 67 0a 3a 8f c2 46 3d ab 06 0c bd cb c8 75 3c
       0.00052796956 0.04852539 -0.034186047 0.015001486
000050 97 09 3c bd e9 d7 af bc 20 f8 75 3b 0a 21 97 bc
       -0.045907583 -0.021465259 0.0037531927 -0.018448371
000060 c1 46 76 3d 78 99 a6 bc b6 43 8b 3b 22 89 54 bd
       0.06012607 -0.020336851 0.004250015 -0.051888593
000070 ce 5f 50 3a 92 91 66 bd 8e 06 dc 3c 04 40 03 bd
       0.00079488463 -0.05629117 0.026858594 -0.032043472
000080 2d 5d ac 3b 03 9a 18 bd fc d1 a3 bd 82 f3 25 bd
       0.005260131 -0.037256252 -0.07999036 -0.04051543
000090 9b ea 9e bc 28 77 a3 bd 03 93 03 bd 1a 86 9b bb
       -0.019398978 -0.079817116 -0.032122623 -0.0047462108
0000a0 92 cb 10 bd bc 9d cc bc 97 4b 89 bc eb 22 02 bb
       -0.03535039 -0.024977557 -0.016759677 -0.0019857239
0000b0 85 35 8e 3c 93 1d 81 3c 68 93 77 b8 07 c2 66 bd
       0.017359504 0.015761172 -5.902667e-05 -0.056337383
0000c0 94 d2 94 3c e1 74 2f bd 0f 7a 13 bc f1 ba 97 bd
       0.018166818 -0.042836074 -0.009001269 -0.07408703
0000d0 21 ce ad bd 52 2d 3d bd 93 ab b7 bc 4f f1 53 bd
       -0.084865816 -0.0461858 -0.02242068 -0.0517438
0000e0 e2 a6 53 bc a1 12 41 bd b2 01 7c 3b ec fc 95 bd
       -0.012918206 -0.047136907 0.003845316 -0.07323632
0000f0 a1 02 46 3d 26 92 d8 bc 5d f0 38 bd ca 07 25 3c
       0.04834235 -0.026436877 -0.045151103 0.010072658
000100 24 95 41 bd 17 91 14 3b f9 86 5a 3c 47 aa 6e bd
       -0.047261372 0.0022669488 0.013337844 -0.058267858
000110 72 7e 3a 3c 6b 44 f6 bc a4 2c 51 3b be a5 3d bd
       0.011382686 -0.030061921 0.0031917477 -0.046300642
000120 95 53 c9 38 99 9d ab bd 10 72 90 bd 7e 29 8d bd
       9.599995e-05 -0.08379669 -0.07053006 -0.0689268
000130 3b 6f 54 bd cc ca f2 bc e5 a4 96 bd c0 85 0e bd
       -0.05186389 -0.029637717 -0.0735567 -0.034795523
000140 9c b3 63 bd d3 5c 99 bd b3 fb ce bc bb e6 b9 bc
       -0.05559121 -0.07488408 -0.025266504 -0.022693029
000150 24 6a a6 bc b9 a8 98 bd 7c a6 58 bd 01 64 8c 3b
       -0.020314284 -0.07454056 -0.052893147 0.0042843823
000160 31 84 42 bd f2 b8 e8 bd 5f 77 08 bd 65 fd 26 bd
       -0.04748935 -0.113634005 -0.033316966 -0.040769
000170 d2 11 0b be a9 c2 13 bd b5 f3 29 bd 3e 2d 9c bd
       -0.13581017 -0.036074314 -0.041492183 -0.07625817
000180 9b fa 86 3c 3c e3 6b 3c e3 73 b9 bd 6f 28 18 bd
       0.01647692 0.014397439 -0.09055307 -0.037147935
000190 09 fc 55 bd 6e c3 1a bd 8d 89 85 3c dc 23 0f bc
       -0.052242313 -0.037784033 0.01630094 -0.008736577
0001a0 6f d6 81 3c 80 d3 a2 bc 20 70 c9 bb dc cb 23 bd
       0.01584932 -0.019876242 -0.0061473995 -0.039989337
0001b0 39 32 55 bd 44 6d 98 3b b1 08 26 bd 2b d5 d9 bc
       -0.05204985 0.0046516974 -0.040535633 -0.026590904
0001c0 92 c9 9c bd 70 63 bc bb 03 b9 1d bd 6c 4e 80 3b
       -0.07655634 -0.0057491586 -0.03850652 0.0039155986
0001d0 3c 30 d1 ba a4 2c 1f bd 12 10 e1 3b 7b c2 36 bd
       -0.001595981 -0.038860932 0.006868371 -0.044619065
0001e0 1e 7e 66 3c e5 27 83 bc 0e 45 07 bd 6f eb 13 bd
       0.014068155 -0.016010234 -0.03302484 -0.0361132
0001f0 69 bd 66 bb 20 9e 10 bd 25 74 67 bd 6f b8 80 3c
       -0.0035208112 -0.03530705 -0.05650725 0.015712945
000200 0a 2e e7 bc 9d 3f 27 bc 40 0c 08 bd 20 25 a9 bb
       -0.028220195 -0.010208038 -0.033214808 -0.0051618963
000210 e2 e3 41 3d c6 81 d1 bc 80 4f 62 3c 08 c4 76 bd
       0.047336467 -0.025574576 0.0138129 -0.060245544
000220 cd 07 71 bc 4e 02 10 bd 26 06 48 bc a2 bf 2a bd
       -0.0147113325 -0.035158448 -0.012208497 -0.04168666
000230 a4 1a 46 bd 14 d9 48 bd 8f fe 93 bc 76 5b 04 bd
       -0.04836525 -0.049035147 -0.018065719 -0.032313786
000240 f9 0e 23 bd 41 dd cf bc 0f d2 8d bc 99 71 01 bd
       -0.0398092 -0.025374057 -0.017312078 -0.031602476
000250 22 21 72 bd 08 ad 89 bd ca 7c c0 3b 92 78 b6 3b
       -0.05911363 -0.06722456 0.005874251 0.0055685723
000260 60 d8 51 3c 2b e0 7e bd 98 2f 61 bd 3a 44 d5 3b
       0.0128079355 -0.062225502 -0.05497703 0.0065083774
000270 54 0b b7 bc f1 60 c1 3a f8 fc 25 bd d0 0f eb 3c
       -0.022344269 0.0014753622 -0.040524453 0.028694063
000280 a0 bd 8b 3c c1 45 16 bc ff 1b da bb 8e 05 4e bd
       0.017058194 -0.009171904 -0.0066561694 -0.050298266
000290 7e 54 80 bc d9 6b 82 3c e2 45 bc 3b c1 b1 52 bd
       -0.015665289 0.015920566 0.0057456354 -0.05143905
0002a0 9e e3 4a 3c e7 fa c5 bc 8e 91 aa bc fa 43 a8 3c
       0.01238337 -0.024167491 -0.020821359 0.020540226
0002b0 c6 78 82 3c 68 d8 55 bd 7f 9b 29 bd 27 8d bd 3b
       0.01592673 -0.052208334 -0.04140806 0.005784649
0002c0 b2 a0 31 bd b8 1f c3 ba cf a6 b9 3b c2 4f 26 bd
       -0.04336614 -0.0014886772 0.005665637 -0.040603407
0002d0 e8 71 0d bd 9e 0b b4 3c 69 6d ce bc 54 ba 2f 3c
       -0.034532458 0.021978196 -0.025198655 0.010725576
0002e0 cf bb 5b bd 76 7f a7 bd 18 d8 7f bc 08 ca 79 bd
       -0.053645905 -0.08178608 -0.015615486 -0.060983688
0002f0 2b 5e 99 bb 39 90 7e bd 86 b8 97 bd 49 6b 8d bc
       -0.004680415 -0.06214926 -0.07408242 -0.017263072
000300 d2 b8 6f bd 86 18 cd 39 60 f4 4e bd dd a1 f4 3b
       -0.058525868 0.00039118918 -0.050526023 0.0074655847
000310 e5 93 0e bd b5 2b 92 bd 73 15 62 3b 4b a3 96 bc
       -0.034809012 -0.07137243 0.0034497648 -0.018388411
000320 d8 29 26 bd e1 2d 2e 3d 34 52 14 bd 34 57 4c bc
       -0.04056725 0.042524222 -0.036211208 -0.012471963
000330 6e 72 3c bc 04 ef d0 bc 32 e8 17 3c cf fc 91 bc
       -0.011501892 -0.025504597 0.009271668 -0.017820744
000340 c8 3e 44 bd d5 0e 1b 3c 46 c6 2d bd 24 a8 fc bc
       -0.047911435 0.009463985 -0.042425416 -0.030841894
000350 d8 bf a4 bd b2 37 a2 3b 1e f8 b9 3b 38 5a 8f bc
       -0.08044404 0.004950487 0.00567533 -0.017499074
000360 1c 93 cc bc 37 7e 1b bd b0 38 23 bd a6 1d e8 bc
       -0.024972491 -0.037962165 -0.039848983 -0.02833445
000370 8b 0d 72 bd 71 c0 4b bb ed 0a 87 bd e3 ab e5 3b
       -0.059094947 -0.0031090046 -0.06593881 0.007009016
000380 c3 09 c3 bd 75 b7 40 bb a2 f7 c5 bc 5b f0 a8 bc
       -0.09523346 -0.0029406224 -0.024165932 -0.020622423
000390 9d a3 67 bd ff 57 1a bd b3 ce 7d bd 3d 97 22 3d
       -0.05655252 -0.037681576 -0.0619647 0.039695013
0003a0 9d e1 e6 bb f4 39 de bc 7a 1e cd ba 68 21 14 3d
       -0.007045938 -0.027127244 -0.0015649342 0.03616467
0003b0 a5 eb ad b7 58 4b 0f 3d 09 e3 1b bd 7c 43 3a bc
       -2.0732938e-05 0.034983963 -0.038058314 -0.011368629
0003c0 09 ec 61 bd 4d a2 06 3d 89 90 22 3b a9 d8 a1 bd
       -0.05515674 0.032869626 0.0024805388 -0.07902653
0003d0 fd 1c a1 bc 61 1d b6 bc 68 89 eb 3b 8e 9d e7 bc
       -0.019667143 -0.022230806 0.007188011 -0.02827337
0003e0 54 15 1c bd 06 7b 25 bd e7 ea 15 bd 21 a4 89 bd
       -0.038106278 -0.040400527 -0.036600973 -0.06720758
0003f0 24 fb 81 bc 5a d2 b7 bd 8a af ed 3c 9e 21 8a ba
       -0.015866823 -0.08975668 0.029014368 -0.0010538583
