models/model-200.onnx (onnx, 37455 bytes, 4 tensors)

linear1.bias f4 [512]
0	0xbe83d7de	-0.2575063
1	0xbe76bd3a	-0.24095622
2	0xbe89cf19	-0.26915815
3	0xbe70d49b	-0.23518603
4	0xbf6516bd	-0.8948782
5	0x3d700e01	0.058607105
6	0xbf2b9bef	-0.6703481
7	0x3e7b2eff	0.24529646
8	0xbefb5b8a	-0.49093276
9	0xbe882a45	-0.2659475
10	0x3e059e9b	0.13048784
11	0xbe2a4ba3	-0.16630416
12	0xbe91047d	-0.28323737
13	0xbd744c57	-0.059643116
14	0xbe9710b9	-0.29504946
15	0xbe6d26f8	-0.23159397
16	0xbeb85e57	-0.36009476
17	0xbead2737	-0.3381898
18	0xbdf20625	-0.11817578
19	0xbd102110	-0.03518778
20	0xbea9244f	-0.33035514
21	0xbf074697	-0.52842087
22	0xbea66ab6	-0.3250329
23	0x3e8fb78d	0.28069726
24	0xbea65b4e	-0.32491535
25	0xbeead14f	-0.45862815
26	0xbf00668a	-0.5015646
27	0xbc9de2b1	-0.019273134
28	0xbed2e2b1	-0.41188577
29	0xbe4cc733	-0.19997863
30	0xbe8d5413	-0.27603206
31	0xbf8d6e40	-1.1049271
32	0xbeaf2c2e	-0.34213394
33	0xbeaa5b93	-0.3327299
34	0xbe146c99	-0.14494552
35	0xbea76229	-0.32692078
36	0xbd4b50d5	-0.049637634
37	0xbe95ca73	-0.2925602
38	0xbf139ec7	-0.5766415
39	0xbee28daf	-0.4424872
40	0xbf830db2	-1.0238554
41	0xbf9a8512	-1.207186
42	0xbe2acb0a	-0.16679016
43	0xbeb60523	-0.35550794
44	0xbe3b53b6	-0.18293652
45	0xbe172697	-0.14760815
46	0xbe68d564	-0.22737652
47	0xbe1d4a57	-0.1536039
48	0xbea982d8	-0.33107638
49	0xbe26529d	-0.16242452
50	0xbe13de32	-0.1444023
51	0xbed92d35	-0.42417303
52	0xbdbb7164	-0.09152487
53	0x3e0320b5	0.12805445
54	0xbe8b8551	-0.2725015
55	0xbef5518b	-0.47913775
56	0xbe9056cc	-0.2819122
57	0xbd379454	-0.04481919
58	0x3ec99126	0.39368552
59	0x3e0b8559	0.13625087
60	0xbef0a661	-0.47001937
61	0xbe69865d	-0.22805162
62	0xbdf2d266	-0.118565366
63	0xbefb809b	-0.49121556
64	0xbdff6fda	-0.12472506
65	0xbee38abe	-0.4444179
66	0xbe1adfab	-0.15124385
67	0xbe4bf80e	-0.19918844
68	0xbe66942c	-0.2251746
69	0xbe7b69f7	-0.24552141
70	0xbea665f0	-0.32499647
71	0xbe420040	-0.18945408
72	0xbeec8f5a	-0.4620312
73	0xbe39d616	-0.18148074
74	0xbeb9858d	-0.36234704
75	0xbeb6ad48	-0.35679078
76	0xbf93b9c7	-1.154107
77	0x3ea587ac	0.32330072
78	0xbe992f84	-0.29919064
79	0xbd2f9ae7	-0.042872336
80	0xbe82c518	-0.25540996
81	0xbdd8f594	-0.10593715
82	0xbe939428	-0.28823972
83	0xbed80a36	-0.4219529
84	0xbdf9504d	-0.12173519
85	0xbf1e97fb	-0.61950654
86	0xbeb9334f	-0.36171958
87	0xbbb35b67	-0.0054735425
88	0xba528bf4	-0.0008031719
89	0xbcef50cd	-0.029213334
90	0xbf2589f4	-0.64663625
91	0x3b67e7a5	0.0035385874
92	0xbe9a9961	-0.30195144
93	0xbebafeb7	-0.36522457
94	0xbf0fe141	-0.56203085
95	0xbde858e8	-0.113450825
96	0x3f1b0e90	0.60569096
97	0xbebdbba9	-0.37057236
98	0xbb76f8f8	-0.0037685018
99	0xbed3f6eb	-0.4139932
100	0xbef9fd67	-0.48826143
101	0x3eb31282	0.34975058
102	0xbf0fa657	-0.5611319
103	0xbe0557a0	-0.13021708
104	0xbeb6863e	-0.35649294
105	0xbe598885	-0.21243484
106	0x3cf0fc7d	0.02941727
107	0x3ec80499	0.39066008
108	0xbe8dad61	-0.2767134
109	0xbeb1d8b3	-0.3473564
110	0xbdb5f995	-0.088854946
111	0x3e60f192	0.21967152
112	0xbe2384fd	-0.159687
113	0x3e972e59	0.29527548
114	0xbe180187	-0.14844333
115	0x3ebd20c8	0.36939073
116	0x3dfaf3ce	0.12253533
117	0xbf566df2	-0.83761513
118	0xbd9560f2	-0.072938815
119	0x3ecfe9d4	0.40608084
120	0xbcb54d82	-0.022131685
121	0xbe2759f0	-0.16342902
122	0xbf1386de	-0.57627666
123	0xbe9725e3	-0.29521093
124	0xbed8d572	-0.42350346
125	0xbe8568f9	-0.2605665
126	0x3f0a7e5e	0.5409907
127	0xbf3ccb0e	-0.73747337
128	0xbe70398e	-0.23459455
129	0xbe65cb7d	-0.22440906
130	0xbdaffd67	-0.085932545
131	0xbed2738f	-0.4110379
132	0xbecfa12c	-0.40552652
133	0xbf5db8a8	-0.8660989
134	0xbe459001	-0.19293214
135	0xbf1b8814	-0.60754514
136	0xbf48a35b	-0.7837426
137	0xbed60b0b	-0.418053
138	0xbf08ff4e	-0.53514564
139	0xbdd26d92	-0.10274805
140	0xbf2cff72	-0.6757728
141	0xbe579508	-0.21052945
142	0xbdafcf3c	-0.08584449
143	0xbde8e1d7	-0.113712005
144	0xbea5c337	-0.323755
145	0xbef84f85	-0.4849817
146	0xbed355b3	-0.4127632
147	0x3e99bf86	0.30028933
148	0xbe68137d	-0.22663684
149	0xbeb3a463	-0.35086355
150	0xbea59b34	-0.32344973
151	0x3e378c54	0.17924625
152	0xbf674896	-0.9034513
153	0xbe52cc49	-0.20585741
154	0xbf1c7f78	-0.61132
155	0xbe94b109	-0.29041317
156	0xbe9565ef	-0.29179332
157	0xbf0ae778	-0.54259443
158	0xbea37293	-0.3192335
159	0xbea5f2e7	-0.32411882
160	0xbe57f1cd	-0.21088333
161	0x3e6f39a1	0.23361827
162	0xbef46f7f	-0.47741315
163	0xbe3a2087	-0.1817647
164	0xbf30ee67	-0.69113773
165	0xbecbdfa4	-0.39819062
166	0xbeaa051d	-0.33207026
167	0x3e347af5	0.1762503
168	0xbf1de108	-0.61671495
169	0x3ce1f6ba	0.027583469
170	0xbe4cd28a	-0.2000219
171	0xbee3bd73	-0.44480476
172	0xbd94b673	-0.07261362
173	0x3e676463	0.22596888
174	0xbe6ea0c0	-0.23303509
175	0xbd987e41	-0.07445956
176	0xbd751481	-0.059834007
177	0xbea735b6	-0.32658166
178	0xbed52c5b	-0.41635403
179	0xbee971f6	-0.45594758
180	0xbe8234b0	-0.25430822
181	0x3f3b7a43	0.7323343
182	0xbeea9caf	-0.45822665
183	0xbe2af301	-0.16694261
184	0x3d34fe51	0.044187848
185	0xbf04223d	-0.51614743
186	0xbf114a5b	-0.5675408
187	0xbda7a1e2	-0.081851736
188	0xbe948440	-0.2900715
189	0xbea04d6c	-0.31309068
190	0xbe4e1bb1	-0.20127751
191	0x3d352053	0.04422028
192	0xbee83d72	-0.4535938
193	0xbe993c86	-0.29928988
194	0x3eacf836	0.3378312
195	0xbeb9c12c	-0.3628019
196	0xbed7b687	-0.42131445
197	0xbfa294d3	-1.2701668
198	0xbd17c282	-0.03705073
199	0xbeb18f33	-0.34679565
200	0xbed6646f	-0.418735
201	0xbea4036c	-0.3203386
202	0xbec1c6d1	-0.37846997
203	0xbe8ed5d0	-0.278975
204	0xbf0d1268	-0.5510621
205	0xbeb56f19	-0.35436323
206	0xbe98bd8e	-0.2983212
207	0xbede42e4	-0.43410408
208	0xbe8907af	-0.26763675
209	0xbee52a0a	-0.44758636
210	0x3f59e9fc	0.85122657
211	0xbed0c1f0	-0.40772963
212	0xbeb2a14f	-0.34888694
213	0xbe407951	-0.18796279
214	0xbead003a	-0.33789235
215	0x3d259527	0.040425446
216	0xbebe9df5	-0.37229887
217	0xbf04bfa5	-0.51854926
218	0xbe458c25	-0.19291742
219	0xbf1383cd	-0.5762299
220	0xbd656532	-0.05600471
221	0xbeb98802	-0.36236578
222	0xbe8f4e6c	-0.2798952
223	0xbedbf858	-0.4296291
224	0xbf6c4c43	-0.92303866
225	0xbf157eca	-0.5839659
226	0x3e39eab8	0.18155944
227	0x3f10be17	0.56540054
228	0xbdf6945c	-0.12040016
229	0xbeb471eb	-0.35243163
230	0xbe889a6c	-0.26680315
231	0xbe8a9b0f	-0.27071425
232	0xbe86dba7	-0.26339456
233	0xbe9e3d35	-0.30906072
234	0xbf75d820	-0.96032906
235	0xbefcc356	-0.4936778
236	0xbee070ba	-0.43836004
237	0xbe740378	-0.23829448
238	0x3e908d33	0.28232726
239	0xbf6cc121	-0.9248219
240	0xbc6a1e71	-0.014289484
241	0x3da51663	0.080609106
242	0xbea6cbe5	-0.32577434
243	0xbee50188	-0.4472773
244	0xbe84d88d	-0.25946465
245	0x3d6c754e	0.057729058
246	0xbe697e37	-0.22802053
247	0xbe909188	-0.28236032
248	0xbe98c4e9	-0.2983773
249	0xbda99797	-0.082808666
250	0xbe19c40f	-0.15016197
251	0xbe210388	-0.15724003
252	0xbeeeb796	-0.4662444
253	0x3e3586c0	0.17727184
254	0xbf00e630	-0.5035124
255	0xbe2327f2	-0.15933207

linear2.bias f4 [3]
0	0xbe33eeae	-0.17571518
1	0xbe29a7e1	-0.16567947
2	0xbe1e5a06	-0.15464029

onnx::MatMul_12 f4 [14, 512]
0	0xbf3b975b	-0.73277825
1	0xbde62397	-0.11237257
2	0xbec032d7	-0.37538788
3	0xbcae55ba	-0.021281112
4	0xbf11fb9a	-0.5702454
5	0xbdc14638	-0.09437221
6	0x3ed192c9	0.409323
7	0xbe718d82	-0.23589137
8	0xbf1e5695	-0.61850864
9	0x3eb0e134	0.34546816
10	0xbed5f5ea	-0.4178918
11	0xbe6abc65	-0.2292343
12	0xbf6c029a	-0.9219147
13	0xbe91572f	-0.28386828
14	0xbe0387fb	-0.12844841
15	0x3fb01b64	1.3758359
16	0xbeb28e41	-0.34874156
17	0xbce2645e	-0.02763575
18	0x3c5c61f7	0.013451091
19	0xbeb68a8c	-0.35652578
20	0xbec302b0	-0.38087988
21	0x3e2bc4c1	0.16774274
22	0x3ea7cb33	0.32772216
23	0x3e63e8f9	0.22256841
24	0xbef159df	-0.4713888
25	0x3dcaa8a6	0.098954484
26	0xbf2c3170	-0.67262936
27	0x3d53dcf3	0.051724385
28	0xbc68f896	-0.014219424
29	0xbd18e129	-0.037324104
30	0xbd15cced	-0.036572386
31	0x3e2d6045	0.16931255
32	0x3e5f0c1b	0.21781962
33	0x3f688d37	0.90840477
34	0x3b725022	0.0036974032
35	0xbda2c489	-0.07947642
36	0xbd7ed0b7	-0.062210765
37	0xbf795f2e	-0.9741086
38	0xbf5fb87f	-0.87390894
39	0x3e678a83	0.22611432
40	0x3e88dc38	0.26730514
41	0xbe109b96	-0.14121851
42	0xbe9560c3	-0.29175386
43	0x3e76dc33	0.24107437
44	0xbc99186c	-0.018688403
45	0xbf09d050	-0.53833485
46	0x3b95f458	0.004576247
47	0xbea5943d	-0.3233966
48	0xbd7b884a	-0.061409272
49	0x3aa4053f	0.001251377
50	0x3d8b5d0c	0.06804857
51	0xbdbaa96a	-0.091143444
52	0x3d1a62ca	0.03769187
53	0xbe116991	-0.14200427
54	0xbe286494	-0.16444618
55	0xbf6efc67	-0.93353885
56	0x3e253978	0.16135204
57	0xbe9c9071	-0.3057895
58	0x3e38cdd1	0.18047263
59	0x3e46b9e0	0.19406843
60	0xbe8691e2	-0.26283175
61	0xbeb60431	-0.35550073
62	0xbe7d5925	-0.24741037
63	0x3e6dcc37	0.23222433
64	0x3d25cb7d	0.040477265
65	0xbeae8a23	-0.34089765
66	0xbdfdd322	-0.12393786
67	0x3e1ff849	0.15622057
68	0x3e267f58	0.16259515
69	0xbece82a9	-0.4033406
70	0x3d355684	0.04427196
71	0x3ce87b82	0.028379206
72	0xbf662380	-0.8989792
73	0xbe383064	-0.1798721
74	0xbeaf97ce	-0.34295505
75	0xbe900167	-0.2812607
76	0x3e91e4f3	0.28494987
77	0x3ed49400	0.41519165
78	0x3b42fcc6	0.0029752715
79	0x3e6d3c56	0.23167548
80	0xbe34aaf6	-0.17643341
81	0xbd5d18a3	-0.053978574
82	0x3d64784e	0.055778794
83	0xbe636aeb	-0.22208755
84	0x3e5fea0c	0.21866626
85	0x3e407366	0.18794021
86	0x3de8f704	0.113752395
87	0xbe2940d0	-0.1652863
88	0xbe780279	-0.24219693
89	0xbd9ececb	-0.077542864
90	0xbea6e0eb	-0.32593474
91	0x3e7fdf9c	0.24987644
92	0xbe145d02	-0.14488605
93	0x3dbfabd4	0.093589455
94	0xbf541ab2	-0.82853234
95	0x3e955728	0.29168057
96	0x3e163caa	0.14671579
97	0x3f173ba7	0.590754
98	0xbd08ac5a	-0.033367492
99	0x3d8f5a3f	0.06999635
100	0xbf29f955	-0.66396075
101	0xbe5b78e0	-0.21432829
102	0x3ee1bc9b	0.44089207
103	0xbe2fff1c	-0.1718716
104	0xbe3789bc	-0.17923635
105	0x3e0763a0	0.13221598
106	0x3f133e52	0.5751697
107	0x3e7d6444	0.2474528
108	0xbe6537df	-0.22384594
109	0xbea5da65	-0.32393184
110	0x3e2ace8d	0.16680355
111	0xbda70953	-0.08156075
112	0x3af522c3	0.0018702376
113	0x3f03c126	0.51466596
114	0x3e250568	0.16115344
115	0xbe4dbaed	-0.20090838
116	0xbec38c67	-0.38193056
117	0x3e358829	0.17727722
118	0x3c8c6bb0	0.017141193
119	0x3dacba09	0.08433921
120	0xbe0e9770	-0.13924956
121	0xbee6ade0	-0.4505453
122	0x3d979bb9	0.074027486
123	0xbf18d47a	-0.59699214
124	0xbc5a9622	-0.0133414585
125	0xbe7b0b05	-0.24515922
126	0x3e638074	0.2221697
127	0xbda5abee	-0.080894336
128	0xbdf118f1	-0.11772335
129	0xbb7a56b3	-0.003819865
130	0x3d0a5025	0.033767838
131	0xbd421030	-0.04737872
132	0xbed392a7	-0.41322824
133	0x3f10bfee	0.5654286
134	0x3d9c2249	0.07623727
135	0xbc78d23f	-0.015186845
136	0xbf44e05f	-0.76904863
137	0xbf035b53	-0.51311225
138	0x3d553230	0.052049816
139	0xbf07aed8	-0.53001165
140	0xbf73bcc3	-0.952099
141	0xbdd12a05	-0.10213093
142	0xbc90639c	-0.017625622
143	0xbe1209f5	-0.14261611
144	0x3db7cf50	0.089750886
145	0x3d1678a6	0.036736153
146	0x3d6ce16d	0.05783217
147	0xbd8d1f18	-0.06890696
148	0x3cbc7d0e	0.02300885
149	0xbe336cbd	-0.17521949
150	0xbc85891e	-0.016300734
151	0xbf304b9e	-0.6886538
152	0x3dd81434	0.105507284
153	0xbe06aa42	-0.13150886
154	0x3e988282	0.2978707
155	0xbe60df43	-0.21960168
156	0x3d14a720	0.036292195
157	0xbf6b7b01	-0.91984564
158	0xbd5a2ba1	-0.053264264
159	0x3e8b09bb	0.2715586
160	0xbe38aea5	-0.18035372
161	0xbe1e407b	-0.15454285
162	0x3c0c0059	0.008545005
163	0xbda2b4c6	-0.07944636
164	0xbf4542f4	-0.7705529
165	0xbeb6446a	-0.3559907
166	0xbf708d72	-0.9396583
167	0xbe1c8274	-0.15284139
168	0xbe3c82ab	-0.18409221
169	0x3e884fac	0.26623285
170	0xbe160440	-0.14650059
171	0xbf4fcefd	-0.81175214
172	0xbeb78dbb	-0.3585032
173	0xbead0a31	-0.33796838
174	0x3b35d994	0.0027748095
175	0xbddfcef8	-0.10928148
176	0x3ea18e30	0.31553793
177	0xbdbe6b91	-0.092978604
178	0x3d928cad	0.07155738
179	0x3d813bb5	0.06310216
180	0xbe88b2cc	-0.2669891
181	0xbef583da	-0.47952157
182	0xbe4daa0b	-0.20084397
183	0xbe8ba52e	-0.2727446
184	0x3ec6a059	0.3879421
185	0x3ea443c2	0.32082945
186	0x3d8181e4	0.06323603
187	0xbe90333b	-0.28164086
188	0x3d76b36d	0.060229708
189	0x3d101ccf	0.035183724
190	0x3def4587	0.11683183
191	0x3e9f4535	0.31107488
192	0xbf3e6a01	-0.743805
193	0x3dee7a8c	0.11644468
194	0x3e89b900	0.26898956
195	0xbe8519dc	-0.25996292
196	0xbb8ed388	-0.0043587126
197	0xbf3abd42	-0.72945035
198	0x3c830a84	0.015996225
199	0x3ec44bec	0.38339174
200	0x3f169343	0.58818454
201	0x3e04b1ab	0.129584
202	0xbeaaa5b6	-0.33329552
203	0x3e146b8a	0.14494148
204	0x3dcd82ae	0.10034691
205	0xbe4a0157	-0.19727074
206	0xbeab8187	-0.3349726
207	0xbea75247	-0.3267996
208	0xbd8c2716	-0.068433926
209	0x3e3ba1fe	0.18323514
210	0x3eabf91a	0.33588487
211	0xbef3d764	-0.47625268
212	0xbd722966	-0.059121512
213	0x3dcb5f2a	0.099302605
214	0xbf4901ce	-0.7851838
215	0x3ef64e90	0.48106813
216	0xbb1ef859	-0.0024256913
217	0xbf037353	-0.51347846
218	0xbe325479	-0.17415036
219	0x3e77e15e	0.24207065
220	0xbd950cda	-0.07277842
221	0xbe27d7f6	-0.16390976
222	0x3a1cd3c9	0.0005982486
223	0xbe8c77c5	-0.27435127
224	0xbeab7b83	-0.3349267
225	0x3d87b94b	0.06627139
226	0x3f366e83	0.7126238
227	0x3f330e38	0.6994357
228	0x3e302c3d	0.17204376
229	0xbe82bac8	-0.25533128
230	0xbcf23e21	-0.029570641
231	0xbeff3f6d	-0.49853078
232	0x3bd8b6fd	0.006613611
233	0xbf84e2fc	-1.038177
234	0x3e25f293	0.16205816
235	0xbecb7de2	-0.39744478
236	0xbe4ada83	-0.19809918
237	0x3e28f652	0.16500214
238	0xbe386f90	-0.18011308
239	0xbf253332	-0.6453124
240	0xbe6c1202	-0.23053744
241	0x3eb4997c	0.3527335
242	0xbbed4c7b	-0.007241783
243	0x3e2ba382	0.16761592
244	0x3f9c9647	1.2233361
245	0xbeb821ce	-0.3596329
246	0xbe8c8fe6	-0.27453536
247	0x3e00a056	0.12561163
248	0xbda1f16f	-0.07907378
249	0xbeb5f2aa	-0.355367
250	0xbea748a9	-0.32672623
251	0xbf00e2c4	-0.50346017
252	0x3e132fb8	0.14373672
253	0x3b4fdd83	0.0031717725
254	0xbd4cf7a0	-0.05004084
255	0xbccd44ff	-0.025057314

onnx::MatMul_13 f4 [512, 3]
0	0x3d7fd2ad	0.062456775
1	0xbdb3faed	-0.08788095
2	0xbec6bc1c	-0.3881539
3	0x3c1a825e	0.009430496
4	0x3e133b6e	0.1437814
5	0x3eb4e3b9	0.3532999
6	0xbd6d98d1	-0.058007065
7	0xbd08f2c5	-0.033434648
8	0xbd27af03	-0.04093839
9	0x3c8e5e06	0.017378818
10	0xbcaf6d12	-0.021414313
11	0x3c1f35e8	0.009717442
12	0xbe15d60c	-0.14632434
13	0x3c6d9dc4	0.014502946
14	0x3d5f6fd2	0.05455
15	0xbc82ff8f	-0.015991
16	0xbd97094a	-0.073748186
17	0xbd1b06b5	-0.037848193
18	0x3e649815	0.2232364
19	0x3e1f8823	0.15579276
20	0x3e20378c	0.1564619
21	0xbf406a46	-0.7516216
22	0x3ec7e6dc	0.3904332
23	0xbee6318b	-0.44959673
24	0x3d5db3aa	0.05412642
25	0x3d20ab45	0.039225835
26	0x3dc9da44	0.09856084
27	0x3ed5ef45	0.4178411
28	0xbec690db	-0.3878239
29	0xbecd1a34	-0.40059054
30	0xbf56d9dc	-0.8392618
31	0x3ed0280c	0.40655553
32	0x3df72b64	0.12068823
33	0x3c42ea15	0.01189663
34	0xbc605aed	-0.013693553
35	0xbc4051dc	-0.011738267
36	0xbeaec8ef	-0.34137675
37	0xbdeb8e05	-0.115016975
38	0xbddd3357	-0.10800808
39	0x3c9811c0	0.018563151
40	0xbcffb556	-0.031214397
41	0x3c5b088e	0.013368739
42	0x3e03666c	0.1283204
43	0xbca5363c	-0.020167463
44	0xbd32507d	-0.04353379
45	0xbee4e580	-0.44706345
46	0xbeee1b06	-0.46504992
47	0xbf1c488a	-0.61048186
48	0xbc7b41f3	-0.015335548
49	0x3a514dba	0.00079842994
50	0x3e050a4b	0.12992208
51	0x3d57daca	0.052698888
52	0xbd8aa9be	-0.06770657
53	0xbcc6da7f	-0.024274109
54	0xbb187c93	-0.0023267611
55	0x3d4e612b	0.050385635
56	0xbdba372c	-0.090925545
57	0x3c809d29	0.01569994
58	0xbc200514	-0.009766836
59	0x3e017850	0.12643552
60	0xbe4a879e	-0.19778296
61	0xbe2be647	-0.16787063
62	0xbdfc04c1	-0.12305594
63	0x3daa4147	0.08313232
64	0x3e9999bd	0.30000106
65	0x3d5d0ad4	0.053965405
66	0x3db05673	0.08610239
67	0x3ead07b3	0.33794937
68	0xbe97207f	-0.2951698
69	0x3f2f753e	0.6853827
70	0xb97592f0	-0.00023419759
71	0xbcb1a8df	-0.02168697
72	0xbe4d3e70	-0.2004335
73	0xbc6d73c0	-0.014492929
74	0x3d2206dd	0.039557327
75	0x392a9382	0.00016267414
76	0xbe860daa	-0.261823
77	0x3dc5a7df	0.096511595
78	0xbc777405	-0.015103345
79	0x3de00697	0.10938757
80	0xbd00944a	-0.03139142
81	0x3cb51cfe	0.022108551
82	0x3ca6b3f4	0.02034948
83	0xbd5b2a35	-0.05350705
84	0x3f4be999	0.79653317
85	0xbe9b6087	-0.30347082
86	0x3ebc2a94	0.36751235
87	0xbd761d6a	-0.060086645
88	0xbe0dcf06	-0.13848504
89	0xbce231cd	-0.027611637
90	0xbcc1729f	-0.023614226
91	0xbd4ad00e	-0.049514823
92	0xbe0362ec	-0.12830704
93	0x3f408a08	0.7521062
94	0x3f875ee7	1.0575837
95	0x3ef991d0	0.4874406
96	0xbc14c560	-0.009080261
97	0xbba1a374	-0.004932815
98	0xbcd0503e	-0.025428887
99	0x3e17f7b4	0.14840585
100	0x3c2437b7	0.010023049
101	0xbe3a7250	-0.1820767
102	0x3f035928	0.51307917
103	0x3f0859fc	0.53262305
104	0xbf56abf1	-0.8385611
105	0x3c76be45	0.015060012
106	0xbb152e24	-0.0022763098
107	0xbda313e2	-0.07962777
108	0x3d96a8ec	0.07356438
109	0xbea6f6e3	-0.32610235
110	0xbadfd8ce	-0.0017078163
111	0xbd0f5dd2	-0.035001583
112	0x3d8fb14a	0.07016237
113	0x3af19d73	0.0018433764
114	0xbee8fb38	-0.45504165
115	0xbf1c1d28	-0.6098199
116	0xbf07e357	-0.5308127
117	0xbd242591	-0.04007489
118	0xbea3e709	-0.32012203
119	0xbe990240	-0.2988453
120	0x3ebdd398	0.37075496
121	0x3eac07d9	0.33599737
122	0x3f8068d1	1.0031987
123	0xbd1bd932	-0.03804893
124	0x3d0a227b	0.03372429
125	0xbce8f4fc	-0.02843713
126	0x3e362a06	0.17789468
127	0x3e4079f7	0.18796526
128	0xbea9371d	-0.3304986
129	0xbd03b648	-0.03215626
130	0xbd84e9c5	-0.064899005
131	0x3cc8b58f	0.024500636
132	0xbc91a730	-0.017779917
133	0xbcbac2ed	-0.022798026
134	0xbe055659	-0.1302122
135	0x3e89dcf4	0.26926386
136	0x3d01ee36	0.031721316
137	0xbc4e0d56	-0.012576422
138	0x3eecd12a	0.4625333
139	0xbf8e1757	-1.1100873
140	0x3ea09974	0.31367075
141	0x3deaea7c	0.114705056
142	0xbc8b59ff	-0.017010687
143	0x3dbce383	0.09223082
144	0xbcbd147d	-0.023081059
145	0x3ce1e975	0.027577141
146	0xbd1ecd48	-0.03876999
147	0xbb13f0a6	-0.0022573858
148	0xbc558316	-0.013031742
149	0xbd019457	-0.03163561
150	0x3d6d362f	0.057913
151	0xbc942329	-0.018083172
152	0xbd2f0e49	-0.042738233
153	0x3bf00e0d	0.0073258937
154	0xbcc3908f	-0.023872642
155	0x3c81e1e2	0.01585478
156	0xbd131c40	-0.035915613
157	0xbc97d458	-0.01853387
158	0xbd105a3f	-0.035242315
159	0xbf85cede	-1.0453756
160	0x3eec75b1	0.4618354
161	0x3f3fedf6	0.74972475
162	0x3b950237	0.004547383
163	0x3bee85ca	0.0072791325
164	0xbe13a1d4	-0.14417201
165	0xbd2863f2	-0.04111094
166	0x3bb3923d	0.0054800794
167	0x3c840c2b	0.016119083
168	0xbdd568a4	-0.10420349
169	0x3d37a786	0.044837497
170	0x3c33db12	0.010977523
171	0x3d9882ca	0.07446821
172	0x3d75ec87	0.060040023
173	0xbc2647e6	-0.010148978
174	0x3f67337e	0.90312946
175	0x3ed41625	0.41423145
176	0xbf97f109	-1.1870433
177	0x3ef64aa0	0.4810381
178	0xbe8a6b38	-0.27034926
179	0xbdca90b2	-0.0989088
180	0xbcb14b2e	-0.021642294
181	0x3ce53121	0.027977528
182	0xbc119f8d	-0.0088881375
183	0xbe1d7555	-0.1537679
184	0x3e353cb7	0.17698942
185	0xbca0ab18	-0.019612834
186	0xbce64fbd	-0.028114194
187	0xbcb10988	-0.02161099
188	0xbcf7fd2a	-0.030272085
189	0x3f279563	0.6546232
190	0xbdb6dd7d	-0.08928964
191	0x3d4852b4	0.048906997
192	0x3d0d1d29	0.034451637
193	0x3c4e52d6	0.012592992
194	0xbdb3d9f7	-0.08781808
195	0x3df0dd68	0.1176098
196	0xbedf6184	-0.43629086
197	0xbe2f913d	-0.17145248
198	0xbce7a214	-0.028275527
199	0xbbeccd35	-0.007226611
200	0x390aa90e	0.00013223683
201	0x3e010122	0.12598088
202	0xbe40f4f2	-0.18843439
203	0xbeb6a8f3	-0.35675773
204	0x3d9634e8	0.0733431
205	0x3d1932cf	0.03740197
206	0x3c948272	0.018128607
207	0x3b50b51e	0.0031846236
208	0xbe416a82	-0.18888286
209	0xbd815cc0	-0.06316519
210	0xbf02d6c4	-0.51108956
211	0xbecd5ee4	-0.40111458
212	0xbf464bf0	-0.7745962
213	0xbd4fd059	-0.050735805
214	0x3c4a86bb	0.012361224
215	0xbd938ad6	-0.07204215
216	0xbe49f678	-0.19722927
217	0xbe62aee0	-0.22137022
218	0x3dd7c107	0.10534864
219	0x3cd33fad	0.025787199
220	0xbce833b2	-0.028344963
221	0xbc6fbf77	-0.014633051
222	0xbd2bc0da	-0.041931964
223	0x3b86a900	0.004109502
224	0xbd35a166	-0.044343375
225	0xbd46cb56	-0.04853376
226	0xbc67a228	-0.014137782
227	0xbc302792	-0.010751622
228	0x3f5a8fa2	0.85375416
229	0xbe40d864	-0.18832546
230	0x3f8e0790	1.1096058
231	0xbd76b44f	-0.06023055
232	0xbe69de86	-0.22838792
233	0xbf8636a4	-1.0485425
234	0xbe887330	-0.2665038
235	0x3beb2a36	0.007176663
236	0x3d766e3a	0.060163714
237	0x3e76f7cf	0.24117969
238	0x3e169db0	0.1470859
239	0xbe994dd2	-0.29942185
240	0xbde2e34a	-0.11078508
241	0xbbf4cae6	-0.0074704764
242	0xbbfbb9e4	-0.007682072
243	0x3bf3d092	0.007440635
244	0xbd1d4dcb	-0.038404267
245	0x3c4b08ab	0.012392203
246	0x3d170ed0	0.03687936
247	0xbd183d1d	-0.037167657
248	0xbb1b64db	-0.0023711238
249	0x3d3a7281	0.045519356
250	0x3c9f6f02	0.019462112
251	0xbdf7184b	-0.120651804
252	0x3eaf67a5	0.34258762
253	0x3f18d059	0.59692913
254	0x3e185e82	0.14879802
255	0xbcbfe452	-0.023424301
