models/model-800.onnx (onnx, 37455 bytes, 4 tensors)

linear1.bias f4 [512]
000000 1e f3 1e bf 3a bd 76 be 19 cf 89 be 9b d4 70 be
       -0.6208972 -0.24095622 -0.26915815 -0.23518603
000010 bd 16 65 bf 31 54 ee bf c8 2f 87 bf 72 0e 6e 3e
       -0.8948782 -1.8619443 -1.0561457 0.23247698
000020 8a 5b fb be 09 de 6c c0 99 93 56 bf a3 4b 2a be
       -0.49093276 -3.701052 -0.83818966 -0.16630416
000030 a2 db 6b c0 57 4c 74 bd b9 10 97 be 86 f4 03 c0
       -3.6852803 -0.059643116 -0.29504946 -2.0617995
000040 57 5e b8 be 37 27 ad be 25 06 f2 bd 10 21 10 bd
       -0.36009476 -0.3381898 -0.11817578 -0.03518778
000050 1c 86 58 c0 97 46 07 bf d5 82 dd be 6b bd a9 c0
       -3.3831854 -0.52842087 -0.4326388 -5.3043723
000060 c6 af ea be 4f d1 ea be 8a 66 00 bf b1 e2 9d bc
       -0.4583723 -0.45862815 -0.5015646 -0.019273134
000070 dc 2f 95 c0 33 c7 4c be 13 54 8d be e0 c1 c5 c0
       -4.662092 -0.19997863 -0.27603206 -6.1799164
000080 2e 2c af be 8e b1 91 bf 39 36 16 c0 29 62 a7 be
       -0.34213394 -1.138231 -2.3470595 -0.32692078
000090 d5 50 4b bd 73 ca 95 be 95 fd 45 c0 eb c2 6a bf
       -0.049637634 -0.2925602 -3.0936024 -0.9170367
0000a0 c4 d8 db c0 d4 9b a2 bf 3e e3 53 c0 36 0c d7 be
       -6.8702106 -1.2703805 -3.3107448 -0.42001504
0000b0 b6 53 3b be 5d 2b 0f c0 31 b8 0c c0 57 4a 1d be
       -0.18293652 -2.2370217 -2.1987422 -0.1536039
0000c0 d8 82 a9 be 9d 52 26 be 32 de 13 be 35 2d d9 be
       -0.33107638 -0.16242452 -0.1444023 -0.42417303
0000d0 64 71 bb bd 4b 29 7d be 51 85 8b be 8b 51 f5 be
       -0.09152487 -0.24722783 -0.2725015 -0.47913775
0000e0 cc 56 90 be 54 94 37 bd cc 9d bf bf 5d 4f 25 c0
       -0.2819122 -0.04481919 -1.4970031 -2.582969
0000f0 61 a6 f0 be 5d 86 69 be 66 d2 f2 bd c7 49 3e bf
       -0.47001937 -0.22805162 -0.118565366 -0.74331325
000100 da 6f ff bd 19 67 a4 c0 ab df 1a be a2 bc e2 bf
       -0.12472506 -5.137585 -0.15124385 -1.7713816
000110 2c 94 66 be f7 69 7b be d9 53 21 c0 40 00 42 be
       -0.2251746 -0.24552141 -2.5207427 -0.18945408
000120 28 2e 80 c0 16 d6 39 be 8d 85 b9 be 48 ad b6 be
       -4.0056343 -0.18148074 -0.36234704 -0.35679078
000130 18 6e a7 bf 7c 51 f1 bf 90 05 98 bf 8c 05 00 bf
       -1.3080473 -1.8852992 -1.1876698 -0.50008464
000140 18 c5 82 be 94 f5 d8 bd 28 94 93 be 36 0a d8 be
       -0.25540996 -0.10593715 -0.28823972 -0.4219529
000150 fd c9 04 bf fb 97 1e bf 4f 33 b9 be 67 5b b3 bb
       -0.5187071 -0.61950654 -0.36171958 -0.0054735425
000160 f4 8b 52 ba cd 50 ef bc f4 89 25 bf 58 5d 38 c0
       -0.0008031719 -0.029213334 -0.64663625 -2.8806973
000170 61 99 9a be b7 fe ba be 41 e1 0f bf e8 58 e8 bd
       -0.30195144 -0.36522457 -0.56203085 -0.113450825
000180 69 79 9f bf d2 2f 2a c0 f8 f8 76 bb eb f6 d3 be
       -1.2458926 -2.6591687 -0.0037685018 -0.4139932
000190 05 1f 8b c0 05 9d 3d c0 e0 9b f2 bf a0 57 05 be
       -4.3475366 -2.9627087 -1.8953819 -0.13021708
0001a0 9d 95 2c c0 85 88 59 be 08 ca 3f bf b5 b9 7b 40
       -2.6966317 -0.21243484 -0.7491765 3.9332097
0001b0 61 ad 8d be b3 d8 b1 be 7f 2a 3c bf b8 08 47 c0
       -0.2767134 -0.3473564 -0.73502344 -3.1099072
0001c0 fd 84 23 be 8b 2f 70 be 52 5e 66 bf af 4d 37 3e
       -0.159687 -0.23455636 -0.8998767 0.17900728
0001d0 53 52 ca 3e f2 6d 56 bf f2 60 95 bd 32 e5 42 40
       0.39515933 -0.83761513 -0.072938815 3.045239
0001e0 82 4d b5 bc f0 59 27 be de 86 13 bf 56 ac e3 bf
       -0.022131685 -0.16342902 -0.57627666 -1.7786968
0001f0 72 d5 d8 be f9 68 85 be d9 ca 08 40 0e cb 3c bf
       -0.42350346 -0.2605665 2.1373808 -0.73747337
000200 8e 39 70 be 9f 19 ab bf b0 4b 8c be 6a 09 34 c0
       -0.23459455 -1.3367194 -0.27401495 -2.8130746
000210 2c a1 cf be be 7b b0 bf 01 90 45 be 14 88 1b bf
       -0.40552652 -1.3787763 -0.19293214 -0.60754514
000220 93 11 77 c0 0b 0b d6 be 4e ff 08 bf 37 ab d1 be
       -3.8604476 -0.418053 -0.53514564 -0.4095094
000230 72 ff 2c bf 08 95 57 be 3c cf af bd d7 e1 e8 bd
       -0.6757728 -0.21052945 -0.08584449 -0.113712005
000240 37 c3 a5 be 85 f3 07 c0 fd 1f b0 bf 2f 0e f8 bd
       -0.323755 -2.1242383 -1.3759762 -0.1211208
000250 7d 13 68 be 63 a4 b3 be 34 9b a5 be 8b 87 ae be
       -0.22663684 -0.35086355 -0.32344973 -0.34087786
000260 96 48 67 bf 49 cc 52 be 78 7f 1c bf 09 b1 94 be
       -0.9034513 -0.20585741 -0.61132 -0.29041317
000270 ef 65 95 be e9 dd 89 c0 45 41 71 c0 e7 f2 a5 be
       -0.29179332 -4.3083386 -3.7696087 -0.32411882
000280 cd f1 57 be 3f db c6 bd 7f 6f f4 be 87 20 3a be
       -0.21088333 -0.097097866 -0.47741315 -0.1817647
000290 dd 25 5d c0 a4 df cb be 33 a9 6f c0 dc db c1 bf
       -3.455436 -0.39819062 -3.744702 -1.5145221
0002a0 c9 d4 24 c0 96 48 44 c0 8a d2 4c be 42 45 c8 3e
       -2.5754874 -3.0669303 -0.2000219 0.3911534
0002b0 45 e5 3c c0 a9 75 e1 bf 3a 0e 52 c0 41 7e 98 bd
       -2.9514935 -1.7614032 -3.2821183 -0.07445956
0002c0 dd d8 ac c0 b6 35 a7 be 5b 2c d5 be df 58 1e c0
       -5.4014726 -0.32658166 -0.41635403 -2.4741743
0002d0 b0 34 82 be 39 46 fe 3e af 9c ea be 67 95 bc bf
       -0.25430822 0.4966295 -0.45822665 -1.4733094
0002e0 f9 7d 0e bf 16 53 9c c0 5b 4a 11 bf d7 0f 49 bf
       -0.5566097 -4.8851423 -0.5675408 -0.78539795
0002f0 40 84 94 be 6c 4d a0 be b1 1b 4e be 3b 6d 33 c0
       -0.2900715 -0.31309068 -0.20127751 -2.803542
000300 9f 34 41 c0 7a 13 90 c0 3a ed 0b bf 2c c1 b9 be
       -3.0188367 -4.5023775 -0.54658854 -0.3628019
000310 87 b6 d7 be d3 94 a2 bf 82 c2 17 bd 33 8f b1 be
       -0.42131445 -1.2701668 -0.03705073 -0.34679565
000320 3d d1 90 bf 6c 03 a4 be d1 c6 c1 be d0 d5 8e be
       -1.1313854 -0.3203386 -0.37846997 -0.278975
000330 68 12 0d bf 19 6f b5 be 8e bd 98 be e4 42 de be
       -0.5510621 -0.35436323 -0.2983212 -0.43410408
000340 af 07 89 be c8 8a 1b bf 92 45 fa 3f 10 22 8e c0
       -0.26763675 -0.6075864 1.9552481 -4.441658
000350 4f a1 b2 be 2c 34 9e c0 ce 3e 11 c0 c0 96 9c be
       -0.34888694 -4.9438686 -2.2694583 -0.30583763
000360 f5 9d be be a5 bf 04 bf 25 8c 45 be cd 83 13 bf
       -0.37229887 -0.51854926 -0.19291742 -0.5762299
000370 32 65 65 bd 02 88 b9 be 6c 4e 8f be 58 f8 db be
       -0.05600471 -0.36236578 -0.2798952 -0.4296291
000380 2d fd 73 bf ca 7e 15 bf 32 05 3a c0 62 9c 8e 3e
       -0.9530819 -0.5839659 -2.906567 0.27853686
000390 5c 94 f6 bd eb 71 b4 be 6c 9a 88 be c0 cd 40 c0
       -0.12040016 -0.35243163 -0.26680315 -3.012558
0003a0 a7 db 86 be a9 76 8c c0 20 d8 75 bf 56 c3 fc be
       -0.26339456 -4.389485 -0.96032906 -0.4936778
0003b0 ba 70 e0 be 78 03 74 be 81 1e df bf ad 1e 1d c0
       -0.43836004 -0.23829448 -1.7431184 -2.4549973
0003c0 71 1e 6a bc 25 30 93 c0 e5 cb a6 be 88 01 e5 be
       -0.014289484 -4.599627 -0.32577434 -0.4472773
0003d0 d0 46 0e c0 4e 75 6c 3d 37 7e 69 be 88 91 90 be
       -2.223072 0.057729058 -0.22802053 -0.28236032
0003e0 e9 c4 98 be 97 97 a9 bd 0f c4 19 be da aa 5a c0
       -0.2983773 -0.082808666 -0.15016197 -3.416678
0003f0 96 b7 ee be 62 e8 79 bf 30 e6 00 bf f2 27 23 be
       -0.4662444 -0.97620213 -0.5035124 -0.15933207

linear2.bias f4 [3]
000000 35 50 fc bf 0b 43 ac 3f aa 98 1a 40
       -1.9711977 1.345796 2.4155679

onnx::MatMul_12 f4 [14, 512]
000000 5b 54 71 bf 97 23 e6 bd d7 32 c0 be ba 55 ae bc
       -0.9426934 -0.11237257 -0.37538788 -0.021281112
000010 9a fb 11 bf 99 25 94 3e 68 17 39 3e a9 2e 83 bd
       -0.5702454 0.28934935 0.18075335 -0.06405384
000020 95 56 1e bf 67 c1 b8 3f 89 bf 0d c0 65 bc 6a be
       -0.61850864 1.4434022 -2.2148154 -0.2292343
000030 94 f0 2d c0 2f 57 91 be fb 87 03 be 20 c4 a2 40
       -2.7178087 -0.28386828 -0.12844841 5.086441
000040 41 8e b2 be 5e 64 e2 bc f7 61 5c 3c 8c 8a b6 be
       -0.34874156 -0.02763575 0.013451091 -0.35652578
000050 de 7e 1f c0 c1 c4 2b 3e c6 2a 07 3e 28 81 c1 3f
       -2.4921184 0.16774274 0.1319991 1.511754
000060 df 59 f1 be a6 a8 ca 3d 70 31 2c bf f3 dc 53 3d
       -0.4713888 0.098954484 -0.67262936 0.051724385
000070 d3 32 99 3f 29 e1 18 bd ed cc 15 bd fb 60 f9 3f
       1.1968635 -0.037324104 -0.036572386 1.9482721
000080 1b 0c 5f 3e 44 d1 95 3e 5f 33 63 3f 89 c4 a2 bd
       0.21781962 0.2926122 0.8875026 -0.07947642
000090 b7 d0 7e bd 2e 5f 79 bf 8a c3 d5 bf 61 09 3b be
       -0.062210765 -0.9741086 -1.6700299 -0.18265297
0000a0 88 28 00 40 96 9b 10 be 8f f8 da 3e 4a 22 49 3e
       2.0024738 -0.14121851 0.4276776 0.19641986
0000b0 6c 18 99 bc 18 c9 ae bf 4f e5 e9 3e 3d 94 a5 be
       -0.018688403 -1.3655119 0.4568276 -0.3233966
0000c0 4a 88 7b bd 3f 05 a4 3a 0c 5d 8b 3d 6a a9 ba bd
       -0.061409272 0.001251377 0.06804857 -0.091143444
0000d0 ca 62 1a 3d e3 fe 63 c0 94 64 28 be 67 fc 6e bf
       0.03769187 -3.562432 -0.16444618 -0.93353885
0000e0 78 39 25 3e 71 90 9c be 29 f6 48 3f 83 04 07 3f
       0.16135204 -0.3057895 0.7850061 0.5274126
0000f0 e2 91 86 be 31 04 b6 be 25 59 7d be 9b 55 7d 3e
       -0.26283175 -0.35550073 -0.24741037 0.24739687
000100 7d cb 25 3d 5d a0 71 be 22 d3 fd bd 5e 12 09 be
       0.040477265 -0.2359633 -0.12393786 -0.13385913
000110 58 7f 26 3e a9 82 ce be e4 d7 52 bf 82 7b e8 3c
       0.16259515 -0.4033406 -0.8236067 0.028379206
000120 6f 10 e4 bf 64 30 38 be ce 97 af be 67 01 90 be
       -1.7817515 -0.1798721 -0.34295505 -0.2812607
000130 55 19 0b 3e 04 22 08 c0 b0 25 69 3f 6a df 42 3e
       0.13583882 -2.1270761 0.9107313 0.19030538
000140 f6 aa 34 be a3 18 5d bd 4e 78 64 3d eb 6a 63 be
       -0.17643341 -0.053978574 0.055778794 -0.22208755
000150 e4 85 08 3e 66 73 40 3e 04 f7 e8 3d d0 40 29 be
       0.13332325 0.18794021 0.113752395 -0.1652863
000160 79 02 78 be cb ce 9e bd eb e0 a6 be 44 a7 0b 3f
       -0.24219693 -0.077542864 -0.32593474 0.545521
000170 02 5d 14 be d4 ab bf 3d b2 1a 54 bf 28 57 95 3e
       -0.14488605 0.093589455 -0.82853234 0.29168057
000180 6e e5 83 bf aa 04 b1 3f 5a ac 08 bd 3f 5a 8f 3d
       -1.0304391 1.3829548 -0.033367492 0.06999635
000190 b1 e4 95 c0 9b 23 44 3f 58 2e b7 3e 1c ff 2f be
       -4.6841664 0.7661683 0.35777545 -0.1718716
0001a0 d7 96 c3 be a0 63 07 3e 6f 87 6b 3e f6 a0 f8 3c
       -0.3820102 0.13221598 0.23000883 0.03035019
0001b0 df 37 65 be 65 da a5 be ef 21 25 3e 9a c3 56 3e
       -0.22384594 -0.32393184 0.16126226 0.20973054
0001c0 c3 22 f5 3a 8a 09 7c 3e 24 d4 32 3e 7b b2 87 bf
       0.0018702376 0.24613014 0.17463738 -1.0601343
0001d0 3c f5 f5 bf 29 88 35 3e b0 6b 8c 3c b8 fc 5e bf
       -1.9215465 0.17727722 0.017141193 -0.8710437
0001e0 70 97 0e be e0 ad e6 be b9 9b 97 3d 03 d0 9b bf
       -0.13924956 -0.4505453 0.074027486 -1.2172855
0001f0 22 96 5a bc 05 0b 7b be 14 33 37 3e ee ab a5 bd
       -0.0133414585 -0.24515922 0.17890579 -0.080894336
000200 f1 18 f1 bd 70 cc 49 be 19 4c d0 3d 51 bf e1 3e
       -0.11772335 -0.19706893 0.101707645 0.44091275
000210 a7 92 d3 be 8c 1a 94 3e 49 22 9c 3d 3f d2 78 bc
       -0.41322824 0.28926504 0.07623727 -0.015186845
000220 9f 2f e4 bf 53 5b 03 bf 30 32 55 3d 4d 7c ff be
       -1.7827033 -0.51311225 0.052049816 -0.4989952
000230 c3 bc 73 bf 05 2a d1 bd 9c 63 90 bc f5 09 12 be
       -0.952099 -0.10213093 -0.017625622 -0.14261611
000240 50 cf b7 3d f9 4f f6 3e b4 fe 55 bf 44 7a b9 3d
       0.089750886 0.4810789 -0.8359177 0.090565234
000250 0e 7d bc 3c bd 6c 33 be 1e 89 85 bc f0 1b 11 c0
       0.02300885 -0.17521949 -0.016300734 -2.2673302
000260 34 14 d8 3d 42 aa 06 be 82 82 98 3e 43 df 60 be
       0.105507284 -0.13150886 0.2978707 -0.21960168
000270 20 a7 14 3d f6 81 eb bf 2c 70 35 3f bb 09 8b 3e
       0.036292195 -1.8399036 0.70874286 0.2715586
000280 a5 ae 38 be 57 9f c4 be 59 00 0c 3c c6 b4 a2 bd
       -0.18035372 -0.38402817 0.008545005 -0.07944636
000290 8a b9 d2 bf 6a 44 b6 be a6 02 a3 bf 2d 8b 36 3f
       -1.6462872 -0.3559907 -1.2735183 0.71306115
0002a0 2f 60 08 be 80 59 49 3f 40 04 16 be 61 65 41 c0
       -0.13317941 0.7865219 -0.14650059 -3.0218127
0002b0 a2 e1 3e 3f 35 bd ed 3e 9c 00 1a 40 f8 ce df bd
       0.7456304 0.46433416 2.4062872 -0.10928148
0002c0 62 4c 77 3f 91 6b be bd ad 8c 92 3d ab 7a fd be
       0.96600926 -0.092978604 0.07155738 -0.4950765
0002d0 cc b2 88 be 6f be db be 0b aa 4d be 8f bf 21 c0
       -0.2669891 -0.42918727 -0.20084397 -2.5273168
0002e0 e4 9d 79 3e ef f7 dd 3f e4 81 81 3d 25 e4 8a be
       0.24376637 1.7341288 0.06323603 -0.27127185
0002f0 6d b3 76 3d cf 1c 10 3d 87 45 ef 3d c4 ad c3 3f
       0.060229708 0.035183724 0.11683183 1.5287404
000300 4b 94 07 c0 9f 09 85 3f 6f e6 4f 3f dc 19 85 be
       -2.118426 1.0393561 0.8121099 -0.25996292
000310 88 d3 8e bb 42 bd 3a bf 84 0a 83 3c ec 4b c4 3e
       -0.0043587126 -0.72945035 0.015996225 0.38339174
000320 0f fb a3 3e ab b1 04 3e b6 a5 aa be 8a 6b 14 3e
       0.3202748 0.129584 -0.33329552 0.14494148
000330 ae 82 cd 3d 57 01 4a be 87 81 ab be 47 52 a7 be
       0.10034691 -0.19727074 -0.3349726 -0.3267996
000340 16 27 8c bd 46 08 29 3e bc 4a fc 3f 57 b0 f9 bf
       -0.068433926 0.16507062 1.9710307 -1.950694
000350 66 29 72 bd cc 9a ac 3f 65 25 12 bf 14 ef f0 3e
       -0.059121512 1.348474 -0.5708831 0.47057402
000360 59 f8 1e bb 53 73 03 bf 79 54 32 be 5e e1 77 3e
       -0.0024256913 -0.51347846 -0.17415036 0.24207065
000370 da 0c 95 bd f6 d7 27 be c9 d3 1c 3a c5 77 8c be
       -0.07277842 -0.16390976 0.0005982486 -0.27435127
000380 83 7b ab be 4b b9 87 3d 4c c2 6f 3f ac 10 c2 3e
       -0.3349267 0.06627139 0.9365585 0.37903345
000390 3d 2c 30 3e c8 ba 82 be 21 3e f2 bc a6 6c fd be
       0.17204376 -0.25533128 -0.029570641 -0.49496955
0003a0 fd b6 d8 3b 31 fe bb 3e 93 f2 25 3e e2 7d cb be
       0.006613611 0.3671737 0.16205816 -0.39744478
0003b0 83 da 4a be 52 f6 28 3e d3 cc c1 bf de 8e 66 bf
       -0.19809918 0.16500214 -1.5140632 -0.9006175
0003c0 02 12 6c be 49 d2 16 3f 7b 4c ed bb 82 a3 2b 3e
       -0.23053744 0.5891462 -0.007241783 0.16761592
0003d0 26 8c b3 3e ce 21 b8 be e6 8f 8c be 56 a0 00 3e
       0.35067862 -0.3596329 -0.27453536 0.12561163
0003e0 6f f1 a1 bd aa f2 b5 be a9 48 a7 be 3c ba 8c be
       -0.07907378 -0.355367 -0.32672623 -0.27485836
0003f0 b8 2f 13 3e 25 c2 1b 3e a0 f7 4c bd ff 44 cd bc
       0.14373672 0.15210779 -0.05004084 -0.025057314

onnx::MatMul_13 f4 [512, 3]
000000 b3 74 57 3d c4 de 10 bd 11 54 bb bd 5e 82 1a 3c
       0.052601527 -0.035368696 -0.09146894 0.009430496
000010 6e 3b 13 3e b9 e3 b4 3e d1 98 6d bd c5 f2 08 bd
       0.1437814 0.3532999 -0.058007065 -0.033434648
000020 03 af 27 bd 06 5e 8e 3c 12 6d af bc e8 35 1f 3c
       -0.04093839 0.017378818 -0.021414313 0.009717442
000030 0c d6 15 be c4 9d 6d 3c d2 6f 5f 3d 4c a8 c9 3a
       -0.14632434 0.014502946 0.05455 0.0015385239
000040 08 0d 66 3e ad d3 6a bd 71 14 02 3e 6a 0a 74 3e
       0.22465909 -0.057330776 0.1270311 0.23832098
000050 c9 e1 4f 3c 8a d3 a9 be 2c db 80 bd 60 f3 59 bf
       0.012688109 -0.33169204 -0.06291804 -0.85136986
000060 aa b3 5d 3d 45 ab 20 3d 44 da c9 3d e4 88 0d 3f
       0.05412642 0.039225835 0.09856084 0.55287004
000070 05 8f 0c be 7a a8 12 3f f2 01 e2 be 48 48 f2 bc
       -0.13726433 0.57288325 -0.4414211 -0.029575482
000080 5a 79 7a bf 15 ea 42 3c ed 5a 60 bc dc 51 40 bc
       -0.9784142 0.01189663 -0.013693553 -0.011738267
000090 67 53 66 be 5d aa 79 be 2b 59 24 bf c0 11 98 3c
       -0.22492753 -0.24381395 -0.6419856 0.018563151
0000a0 56 b5 ff bc 8e 08 5b 3c 6c 66 03 3e 3c 36 a5 bc
       -0.031214397 0.013368739 0.1283204 -0.020167463
0000b0 7d 50 32 bd ed 52 76 bf 4f 7b 91 bf 96 0f 85 bf
       -0.04353379 -0.96220285 -1.1365756 -1.0395381
0000c0 f3 41 7b bc ba 4d 51 3a 4b 0a 05 3e ca da 57 3d
       -0.015335548 0.00079842994 0.12992208 0.052698888
0000d0 be a9 8a bd 7f da c6 bc 93 7c 18 bb 2b 61 4e 3d
       -0.06770657 -0.024274109 -0.0023267611 0.050385635
0000e0 2c 37 ba bd 29 9d 80 3c 14 05 20 bc 50 78 01 3e
       -0.090925545 0.01569994 -0.009766836 0.12643552
0000f0 63 09 52 3f 1c c6 ad 3f 5e 1b 46 3e 47 41 aa 3d
       0.82045573 1.3576083 0.19346377 0.08313232
000100 bd 99 99 3e d4 0a 5d 3d fd c1 99 3d ea 61 b1 3e
       0.30000106 0.053965405 0.075077035 0.34645015
000110 35 8f a1 be 0b 4d 7f 3e 7b 40 4d 3f c4 53 1e 3f
       -0.3155457 0.24931733 0.80176514 0.61846566
000120 e2 1c 38 be b6 5f dd bb b5 57 fa 3b 82 93 2a 39
       -0.17979768 -0.0067557944 0.00763985 0.00016267414
000130 aa 0d 86 be df a7 c5 3d 05 74 77 bc 97 06 e0 3d
       -0.261823 0.096511595 -0.015103345 0.10938757
000140 4a 94 00 bd fe 1c b5 3c f4 b3 a6 3c 35 2a 5b bd
       -0.03139142 0.022108551 0.02034948 -0.05350705
000150 3f 12 22 3f 2e cf bc 3f 3d 1f 94 be 6a 1d 76 bd
       0.6330909 1.4750726 -0.28930083 -0.060086645
000160 06 cf 0d be cd 31 e2 bc 9f 72 c1 bc 0e d0 4a bd
       -0.13848504 -0.027611637 -0.023614226 -0.049514823
000170 ec 62 03 be 2e 0c de 3e 5a d0 80 be d3 70 39 3e
       -0.12830704 0.43368667 -0.2515896 0.18109445
000180 60 c5 14 bc 74 a3 a1 bb 3e 50 d0 bc 34 70 68 3d
       -0.009080261 -0.004932815 -0.025428887 0.05674763
000190 e5 62 74 3e 67 b1 85 3e be 7c c3 3f 49 d4 fb be
       0.2386585 0.2611191 1.5272443 -0.49185398
0001a0 e7 b3 11 c0 45 be 76 3c 24 2e 15 bb e2 13 a3 bd
       -2.2766054 0.015060012 -0.0022763098 -0.07962777
0001b0 ec a8 96 3d e3 f6 a6 be ce d8 df ba d2 5d 0f bd
       0.07356438 -0.32610235 -0.0017078163 -0.035001583
0001c0 4a b1 8f 3d 73 9d f1 3a da 04 8e bf a3 65 e8 bf
       0.07016237 0.0018433764 -1.109523 -1.8156017
0001d0 8c 44 a9 bf 0b 60 bd 3e 35 e4 22 c0 65 86 d1 bf
       -1.3224044 0.36987337 -2.5451787 -1.6369139
0001e0 a9 08 20 3f ee 5e ca 3e e9 32 47 bd fb 6a 47 bc
       0.62513214 0.3952555 -0.048632536 -0.012171502
0001f0 7b 22 0a 3d fc f4 e8 bc 42 06 bd bd 96 99 f7 be
       0.03372429 -0.02843713 -0.09229709 -0.48359364
000200 64 35 f3 be 48 b6 03 bd 64 37 4a bc c2 10 ee bb
       -0.4750167 -0.03215626 -0.012342308 -0.0072651813
000210 30 a7 91 bc ed c2 ba bc 59 56 05 be 52 58 d6 be
       -0.017779917 -0.022798026 -0.1302122 -0.41864258
000220 1e 1d 77 be 34 b5 eb 3d 53 30 c3 3f 79 21 b7 bf
       -0.24132201 0.11509171 1.5249122 -1.430709
000230 88 83 04 bf 7c ea ea 3d ff 59 8b bc 83 e3 bc 3d
       -0.517632 0.114705056 -0.017010687 0.09223082
000240 7d 14 bd bc 75 e9 e1 3c 48 cd 1e bd a6 f0 13 bb
       -0.023081059 0.027577141 -0.03876999 -0.0022573858
000250 16 83 55 bc 57 94 01 bd 2f 36 6d 3d 29 23 94 bc
       -0.013031742 -0.03163561 0.057913 -0.018083172
000260 49 0e 2f bd 0d 0e f0 3b 8f 90 c3 bc e2 e1 81 3c
       -0.042738233 0.0073258937 -0.023872642 0.01585478
000270 40 1c 13 bd 58 d4 97 bc 3f 5a 10 bd 60 16 1a be
       -0.035915613 -0.01853387 -0.035242315 -0.15047598
000280 a2 c5 37 bf c1 53 37 bf 37 02 95 3b ca 85 ee 3b
       -0.7178594 -0.71612173 0.004547383 0.0072791325
000290 d4 a1 13 be f2 63 28 bd 3d 92 b3 3b 2b 0c 84 3c
       -0.14417201 -0.04111094 0.0054800794 0.016119083
0002a0 a4 68 d5 bd 86 a7 37 3d 12 db 33 3c ca 82 98 3d
       -0.10420349 0.044837497 0.010977523 0.07446821
0002b0 87 ec 75 3d e6 47 26 bc e2 e5 60 3f 9b 4b b8 3e
       0.060040023 -0.010148978 0.87850773 0.35995182
0002c0 7a 38 91 bf 82 43 93 bc a6 51 78 3f 48 7d a2 bd
       -1.134536 -0.017976526 0.96999586 -0.07934052
0002d0 2e 4b b1 bc 21 31 e5 3c 8d 9f 11 bc 55 75 1d be
       -0.021642294 0.027977528 -0.0088881375 -0.1537679
0002e0 b7 3c 35 3e 18 ab a0 bc bd 4f e6 bc 88 09 b1 bc
       0.17698942 -0.019612834 -0.028114194 -0.02161099
0002f0 2a fd f7 bc 81 80 22 3f ab 9e e5 3d 90 24 e9 3e
       -0.030272085 0.6347733 0.11211904 0.45535707
000300 29 1d 0d 3d d6 52 4e 3c f7 d9 b3 bd 9e 3b 2e bf
       0.034451637 0.012592992 -0.08781808 -0.6805972
000310 a8 3e 3c bf da 4b ee be 14 a2 e7 bc 35 cd ec bb
       -0.73533106 -0.46542245 -0.028275527 -0.007226611
000320 0e a9 0a 39 8d 44 33 3f a1 78 16 3e 63 9e 9c bc
       0.00013223683 0.70026475 0.14694454 -0.019118493
000330 e8 34 96 3d cf 32 19 3d 72 82 94 3c 1e b5 50 3b
       0.0733431 0.03740197 0.018128607 0.0031846236
000340 82 6a 41 be c0 5c 81 bd 23 47 08 bf 66 1d 9e bf
       -0.18888286 -0.06316519 -0.53233546 -1.2352722
000350 48 0b 87 bf 59 d0 4f bd bb 86 4a 3c d6 8a 93 bd
       -1.0550318 -0.050735805 0.012361224 -0.07204215
000360 06 fa b0 bd 9b a8 3b 40 c2 16 c6 3f ad 3f d3 3c
       -0.08641438 2.9321659 1.5475695 0.025787199
000370 b2 33 e8 bc 77 bf 6f bc da c0 2b bd 00 a9 86 3b
       -0.028344963 -0.014633051 -0.041931964 0.004109502
000380 66 a1 35 bd 56 cb 46 bd 28 a2 67 bc 92 27 30 bc
       -0.044343375 -0.04853376 -0.014137782 -0.010751622
000390 49 dd 55 3f bb 60 06 be f0 b5 8c 3f 1d 97 03 3f
       0.8354078 -0.13122837 1.0993023 0.51402456
0003a0 9c 12 23 bf 67 09 bf bf b1 ae 67 3e d4 72 b0 bf
       -0.6370027 -1.4924744 0.22625233 -1.3785043
0003b0 ed fe 7d be 87 c0 53 3e 63 b2 fc 3e 08 8c 05 be
       -0.24804278 0.20678912 0.49354848 -0.13041699
0003c0 4a e3 e2 bd e6 ca f4 bb e4 b9 fb bb 92 d0 f3 3b
       -0.11078508 -0.0074704764 -0.007682072 0.007440635
0003d0 cb 4d 1d bd ab 08 4b 3c d0 0e 17 3d 1d 3d 18 bd
       -0.038404267 0.012392203 0.03687936 -0.037167657
0003e0 db 64 1b bb 81 72 3a 3d 02 6f 9f 3c 4b 18 f7 bd
       -0.0023711238 0.045519356 0.019462112 -0.120651804
0003f0 e2 50 07 3e 23 0f 71 3f 46 1c 08 3f 52 e4 bf bc
       0.13214448 0.9416372 0.5316814 -0.023424301
