models/model-100.onnx (onnx, 37455 bytes, 4 tensors)

linear1.bias f4 [512]
-0.13089946 0.16935773 -0.40538666 -0.05053329 -0.1628196 -0.12991357 0.08619252 -0.028706905
0.106898874 0.25614294 -0.20005946 -0.04217605 -0.31914303 -0.19769652 -0.17035332 0.4151688
0.22512452 -0.13865288 -0.10544054 -0.2956893 -0.31746343 -0.015102371 0.112364635 0.052479986
-0.22329356 -0.1280547 -0.1749957 -0.20793009 -0.2536565 -0.07371673 -0.04951432 -0.22584642
-0.08168287 -0.32594633 -0.058104176 0.039104827 -0.046753496 -0.071617216 -0.108223505 -0.18987176
-0.083511814 0.14347403 0.0933871 -0.22254388 -0.11709185 -0.3083875 0.284062 -0.10133761
-0.37625358 0.049458608 -0.044717453 0.16628067 0.07820485 -0.33369967 -0.21653907 -0.070365556
0.24649306 0.06086132 -0.42668873 -0.16337669 -0.1313445 -0.08531133 -0.33925003 0.14152285
-0.1402563 -0.16101412 -0.30882946 -0.09559232 0.034963552 -0.262972 -0.20046136 -0.03492386
-0.08941764 -0.091623686 -0.026577711 0.0018535182 -0.16162091 0.0022256684 -0.3528409 0.002861879
-0.3879508 -0.24944052 -0.16888225 -0.03188684 -0.24270293 0.26534832 -0.21070442 -0.0116096595
-0.18055022 0.02744544 -0.21841437 -0.16547102 -0.20021051 -0.12116234 0.30271038 0.16249493
-0.07689181 -0.23567808 -0.38412642 0.03132396 -0.10745078 -0.1424852 0.09970936 -0.08094106
-0.22604252 0.036494598 -0.26935208 -0.092717074 -0.10239225 -0.121848516 -0.11727425 -0.32095763
-0.25482404 0.08024957 0.1635909 0.10308856 -0.24801774 0.085028045 -0.18907374 -0.0044596735
-0.1859123 -0.44667873 -0.06015817 -0.32917133 -0.036985744 -0.043336358 0.046288166 -0.07711596
0.15041001 -0.32385707 -0.281422 -0.18904231 -0.10224508 -0.020089218 -0.13014717 0.038337085
-0.2905509 -0.10050147 -0.031832065 -0.33011785 0.029633373 -0.07499396 -0.2361706 -0.16780685
-0.14218779 -0.43142977 -0.11740053 0.060083095 -0.20284672 0.001879682 0.030070333 -0.093654536
-0.101003624 -0.021225475 0.042066928 -0.12111353 -0.2225318 0.036314506 -0.012556029 -0.13429338
-0.1554397 -0.03373202 -0.043511245 -0.25410774 0.34454498 -0.048194878 -0.12697798 -0.28673434
-0.052561603 0.05016292 -0.33849448 0.03468698 -0.09053889 -0.27811137 -0.2230437 0.05136474
-0.17690547 0.15964796 -0.2666608 -0.05834889 -0.3596215 -0.19026044 0.14634638 0.15564863
0.11510416 0.06982914 -0.086402215 -0.1888572 -0.32341853 -0.15237883 0.042416357 0.016910871
-0.0023406667 -0.23906682 -0.20218588 -0.028161418 -0.08217624 -0.15926439 0.322111 0.21354328
0.40283158 -0.16638112 -0.022995358 -0.07557841 -0.18474272 -0.08975746 -0.31221062 -0.3465699
-0.14823563 0.026574092 -0.33959648 -0.2153047 -0.25718945 -0.10097494 -0.01167251 -0.43434796
0.04566902 0.05983947 -0.10058739 -0.13421345 -0.19738513 -0.33558902 0.059169598 -0.14579561
0.2453933 -0.26561597 -0.12426759 -0.14632833 0.013318374 -0.24648252 0.065645546 -0.12975183
0.2315664 0.05321638 -0.073251374 -0.2595919 -0.17083676 -0.3802467 -0.21304321 0.16237047
-0.009673977 0.11326171 -0.06799594 -0.10025778 -0.1619735 -0.19789661 -0.250001 -0.3102848
-0.115715295 -0.072031975 -0.024421582 -0.10778018 0.19999707 -0.28094175 -0.33518878 0.32089698
00000000: 820a 06be 1d6c 2d3e d78e cfbe fffb 4ebd
00000010: 2eba 26be 1008 05be b485 b03d be2a ebbc
00000020: cced da3d 2b25 833e 63dc 4cbe cbc0 2cbd
00000030: b766 a3be f570 4abe 1a71 2ebe 0191 d43e
00000040: 0b87 663e 05fb 0dbe 36f1 d7bd 9764 97be
00000050: 918a a2be ef6f 77bc 6e1f e63d 41f5 563d
00000060: 11a7 64be c520 03be 1332 33be a0eb 54be
00000070: 44df 81be ccf8 96bd 87cf 4abd 4944 67be
00000080: 5949 a7bd 70e2 a6be a5fe 6dbd 622c 203d
00000090: 9880 3fbd 0cac 92bd 49a4 ddbd be6d 42be
000000a0: 3e08 abbd dbea 123e bc41 bf3d 8be2 63be
000000b0: dacd efbd f7e4 9dbe 9370 913e 188a cfbd
000000c0: 4fa4 c0be 1c95 4a3d a629 37bd 7b45 2a3e
000000d0: dd29 a03d afda aabe 6bbc 5dbe d11b 90bd
000000e0: ad68 7c3e b849 793d f276 dabe 384c 27be
000000f0: 2c7f 06be b5b7 aebd 2eb2 adbe 5eeb 103e
00000100: 599f 0fbe e3e0 24be e51e 9ebe e8c5 c3bd
00000110: f135 0f3d 44a4 86be be45 4dbe 520c 0fbd
00000120: 9820 b7bd 33a5 bbbd 80b9 d9bc c0f1 f23a
00000130: f47f 25be 85dc 113b 90a7 b4be 5d8e 3b3b
00000140: 7da1 c6be 566d 7fbe 78ef 2cbe c69b 02bd
00000150: 1e87 78be bcdb 873e e6c2 57be 7136 3ebc
00000160: 28e2 38be 42d5 e03c 04a8 5fbe 3c71 29be
00000170: fc03 4dbe f623 f8bd dbfc 9a3e 1265 263e
00000180: 7479 9dbd 9855 71be 38ac c4be 8d4d 003d
00000190: 280f dcbd a4e7 11be 6c34 cc3d 6dc4 a5bd
000001a0: b177 67be 5c7b 153d 84e8 89be 73e2 bdbd
000001b0: 07b3 d1bd b78b f9bd 7b2d f0bd 8f54 a4be
000001c0: 4c78 82be e359 a43d 5f84 273e 1820 d33d
000001d0: 5df8 7dbe 2f23 ae3d 8c9c 41be 7422 92bb
000001e0: cb5f 3ebe 13b3 e4be 6a68 76bd 2589 a8be
000001f0: 5d7e 17bd 7781 31bd a998 3d3d f9ee 9dbd
00000200: 1505 1a3e 98d0 a5be 8b16 90be 4f94 41be
00000210: de65 d1bd 2592 a4bc 4d45 05be 5907 1d3d
00000220: 16c3 94be b7d3 cdbd 5762 02bd 3505 a9be
00000230: b0c1 f23c 6f96 99bd b5d6 71be 8fd5 2bbe
00000240: ad99 11be 5de4 dcbe b06f f0bd b119 763d
00000250: 0db7 4fbe a95f f63a 0f56 f63c f3cd bfbd
00000260: fdda cebd 0ce1 adbc 5f4e 2c3d 5f0a f8bd
00000270: 60df 63be 85be 143d cdb7 4dbc 3484 09be
00000280: 962b 1fbe 962a 0abd d938 32bd 691a 82be
00000290: 3368 b03e fe67 45bd 8406 02be d8ce 92be
000002a0: d64a 57bd a277 4d3d 264f adbe ef13 0e3d
000002b0: 746c b9bd 9d64 8ebe 9165 64be d563 523d
000002c0: b526 35be c17a 233e c487 88be 3fff 6ebd
000002d0: 4f20 b8be a2d3 42be d3db 153e 5b62 1f3e
000002e0: bbbb eb3d 9502 8f3d a5f3 b0bd c863 41be
000002f0: 1d97 a5be 3209 1cbe c6bc 2d3d ab88 8a3c
00000300: df65 19bb efcd 74be d109 4fbe c6b2 e6bc
00000310: 044c a8bd 3416 23be bceb a43e 17ab 5a3e
00000320: f13f ce3e d05f 2abe c360 bcbc dac8 9abd
00000330: 322d 3dbe c2d2 b7bd 12da 9fbe 9c71 b1be
00000340: 15cb 17be e9b1 d93c 97df adbe d678 5cbe
00000350: 56ae 83be f3cb cebd 0e3e 3fbc db62 debe
00000360: 700f 3b3d 3b1a 753d c300 cebd 406f 09be
00000370: 541f 4abe 53d2 abbe d25b 723d 724b 15be
00000380: 6248 7b3e d1fe 87be 0280 febd 18d7 15be
00000390: 4f35 5a3c ea65 7cbe 2c71 863d aadd 04be
000003a0: be1f 6d3e 6bf9 593d d104 96bd 3be9 84be
000003b0: d5ef 2ebe b2af c2be 0028 5abe 7244 263e
000003c0: 9a7f 1ebc c1f5 e73d 7541 8bbd f353 cdbd
000003d0: 62dc 25be 69a5 4abe 2200 80be a6dd 9ebe
000003e0: 24fc ecbd 8085 93bd c50f c8bc dbbb dcbd
000003f0: 08cc 4c3e 99d7 8fbe dd9d abbe 9c4c a43e

linear2.bias f4 [3]
-0.08944678 -0.052893203 -0.12635796
00000000: e02f b7bd 8ba6 58bd fb63 01be

onnx::MatMul_12 f4 [14, 512]
-0.050825898 0.20774089 -0.23489667 0.20070617 0.27913296 -0.0134155555 -0.23724131 0.46084255
0.15409206 0.043361485 -0.019897873 0.29870123 0.03914196 -0.4443712 -0.12435332 -0.06612181
-0.06295031 0.481228 -0.12453232 -0.3551203 0.21025467 -0.14680548 0.027037287 -0.29552913
-0.53187287 0.011919487 0.06123731 -0.12437986 -0.0819515 -0.236016 -0.36070085 -0.1646173
-0.27499762 0.2028501 -0.28695884 0.17788725 -0.14345126 -0.13032773 0.0057844687 -0.3603155
-0.23912741 -0.08200448 -0.1868866 -0.0944345 0.37953937 0.08481411 0.09547156 0.37051657
-0.06359759 0.21438959 0.11332389 -0.14039257 0.12676546 -0.1725877 -0.2533042 -0.2996112
-0.032751475 0.0024935182 0.16902532 -0.14029089 -0.43843332 0.3396777 -0.30687377 -0.47285485
0.2545121 -0.28620824 0.20371477 -0.080672964 0.16888803 0.25874686 0.02822527 0.07783308
-0.056746367 -0.33876225 0.2400779 -0.3353992 0.21634081 -0.14289223 -0.09323507 -0.17953314
0.14951034 -0.3392788 -0.007084564 -0.37872127 -0.2756643 0.23246463 0.059998266 -0.19660088
-0.24791722 -0.06759456 -0.0788874 -0.19309473 -0.012165259 -0.089081995 0.075024225 0.064074285
-1.1421473 -0.01197122 -0.028093325 -0.23464938 -0.30759373 0.31345916 -0.16569276 0.02628706
-0.6441431 0.4001239 -0.220346 0.42882666 -0.29245403 -0.21439211 -0.4217564 -0.093048394
-0.23850356 0.1783319 -0.22762658 0.3489749 0.00086951285 -0.09873322 0.2600065 0.031117054
0.4403503 -0.3373328 -0.17094667 -0.23503724 0.3430802 0.18852036 0.46813044 -0.4372837
0.13605787 -0.33289245 -0.37620297 -0.25363067 -0.034598254 -0.6875532 0.34026673 -0.12520528
0.28175467 0.3258922 -0.11079239 0.13144779 0.058346808 -0.41272157 0.047621522 -0.007184479
0.41040108 0.33557367 0.18535946 -0.110100165 -0.06970581 -0.34762314 0.24291568 0.35887283
0.6356943 0.06572654 0.3419915 -0.34517443 -0.18003118 0.36221445 0.35836804 -0.53858566
-0.04338606 -0.066603646 0.3219053 -0.21940707 0.06200263 0.09417284 -0.025358148 0.04739647
-0.06800455 -0.42714706 -0.018772868 -0.12411012 -0.27508026 -0.14996716 -0.84554744 -0.06410678
-0.05545303 -0.17629915 0.2746337 0.31542802 -0.4185962 0.21264763 -0.039658338 0.27982754
0.32617682 0.3895451 -0.020165658 -0.35178536 -0.1866654 -0.45558852 -0.22976074 0.3203051
-0.012012823 0.0053345338 0.42450687 0.20314477 -0.15156567 0.008503452 -0.3987753 -0.012726969
0.34240502 0.036699627 -0.13031168 -0.11164116 -0.15159456 0.079900265 0.2545202 -0.099629864
0.3096292 0.0964955 0.023705516 -0.16851407 -0.12547876 -0.08347947 0.16156322 -0.052567568
0.44299167 0.10996462 0.3715492 0.24522473 -0.33975232 -0.13287672 -0.10092104 0.118905455
-0.09024708 -0.088088006 -0.24382861 -0.17082012 -0.080094315 0.13231772 0.10845263 -0.004879818
0.26467913 0.11940209 0.048652735 -0.8727982 -0.18699817 0.5254873 0.1736415 -0.26791736
0.08269316 0.13653445 0.19672525 -0.2671646 -0.08161102 0.35590675 -0.1031935 0.072260015
0.20682961 0.32945922 -0.13468236 -0.36730283 0.26822174 0.42684314 -0.25156936 0.2737115
00000000: d12e 50bd 07ba 543e c188 70be eb85 4d3e
00000010: 84ea 8e3e ebcc 5bbc 63ef 72be 8ef3 eb3e
00000020: 4fca 1d3e d09b 313d dd00 a3bc 5eef 983e
00000030: 5253 203d 9f84 e3be f4ac febd df6a 87bd
00000040: 18ec 80bd 8463 f63e cd0a ffbd 54d2 b5be
00000050: 004d 573e 2d54 16be 4d7d dd3c 984f 97be
00000060: d228 08bf f449 433c f9d3 7a3d deba febd
00000070: 30d6 a7bd 2eae 71be c8ad b8be 7091 28be
00000080: 7dcc 8cbe f0b7 4f3e 45ec 92be 1328 363e
00000090: e3e4 12be a274 05be a48b bd3b 467b b8be
000000a0: d1dd 74be f7f1 a7bd 335f 3fbe e066 c1bd
000000b0: fc52 c23e 05b3 ad3d 9886 c33d 59b4 bd3e
000000c0: 743f 82bd f288 5b3e 5b16 e83d 12c3 0fbe
000000d0: cece 013e d4ba 30be 17b1 81be a466 99be
000000e0: 6926 06bd 4b6a 233b f914 2d3e 6aa8 0fbe
000000f0: 557a e0be 3cea ad3e 8f1e 9dbe 081a f2be
00000100: 694f 823e e389 92be 9b9a 503e de37 a5bd
00000110: fcf0 2c3e 787a 843e ae38 e73c f366 9f3d
00000120: e16e 68bd 3f72 adbe fbd6 753e 72b9 abbe
00000130: 7288 5d3e 5752 12be 07f2 bebd 89d7 37be
00000140: 3d19 193e f3b5 adbe a125 e8bb c1e7 c1be
00000150: df23 8dbe 350b 6e3e bec0 753d be51 49be
00000160: 03de 7dbe 046f 8abd b88f a1bd a0ba 45be
00000170: cb50 47bc 9f70 b6bd 4da6 993d 6139 833d
00000180: e231 92bf f022 44bc f923 e6bc ed47 70be
00000190: ed7c 9dbe b87d a03e 5dab 29be f657 d73c
000001a0: 90e6 24bf 0add cc3e 62a2 61be 2b8f db3e
000001b0: 89bc 95be 9b89 5bbe 74f0 d7be 2890 bebd
000001c0: 473a 74be a39c 363e f116 69be d7ac b23e
000001d0: 05f0 633a a434 cabd 921f 853e 31e9 fe3c
000001e0: 9875 e13e e2b6 acbe a50c 2fbe 9aad 70be
000001f0: 35a8 af3e 7b0b 413e cbae ef3e a6e3 dfbe
00000200: c152 0b3e e170 aabe ad9d c0be e1db 81be
00000210: e6b6 0dbd 7d03 30bf 7137 ae3e d035 00be
00000220: 2642 903e 58db a63e 1fe7 e2bd 409a 063e
00000230: 10fd 6e3d 3e50 d3be c90e 433d c76b ebbb
00000240: 1720 d23e 50d0 ab3e dfce 3d3e 327c e1bd
00000250: ebc1 8ebd a9fb b1be e3be 783e 2ebe b73e
00000260: ddbc 223f a39b 863d 8319 af3e b4ba b0be
00000270: 185a 38be 2c74 b93e 047c b73e c0e0 09bf
00000280: 95b5 31bd 7e67 88bd c5d0 a43e 3fac 60be
00000290: 78f6 7d3d b1dd c03d e4bb cfbc cd22 423d
000002a0: f845 8bbd 05b3 dabe 8fc9 99bc 722d febd
000002b0: 52d7 8cbe fe90 19be cc75 58bf 6a4a 83bd
000002c0: b722 63bd c487 34be ca9c 8c3e c87f a13e
000002d0: 3e52 d6be 4dc0 593e c870 22bd 8e45 8f3e
000002e0: a600 a73e 7572 c73e 7332 a5bc 361d b4be
000002f0: 3725 3fbe e642 e9be 6646 6bbe 08ff a33e
00000300: 6ed1 44bc 50cd ae3b f758 d93e 2f05 503e
00000310: 0834 1bbe 1052 0b3c 472c ccbe c784 50bc
00000320: b64f af3e 5952 163d 6d70 05be 1fa4 e4bd
00000330: 9b3b 1bbe c0a2 a33d 7950 823e be0a ccbd
00000340: b887 9e3e 6f9f c53d 1232 c23c f48e 2cbe
00000350: 817d 00be 49f7 aabd d470 253e 1751 57bd
00000360: cecf e23e 2135 e13d b23b be3e 311c 7b3e
00000370: 04f4 adbe d610 08be b1af cebd b484 f33d
00000380: 76d3 b8bd 7c67 b4bd 35ae 79be 78eb 2ebe
00000390: 7d08 a4bd 4c7e 073e 6a1c de3d e1e6 9fbb
000003a0: 0684 873e 1589 f43d 1748 473d b46f 5fbf
000003b0: 737c 3fbe 5686 063f 14cf 313e 772c 89be
000003c0: 085b a93d b0cf 0b3e 5872 493e ccc9 88be
000003d0: ae23 a7bd 6939 b63e 1d57 d3bd 0ffd 933d
000003e0: 24cb 533e e1ae a83e 2cea 09be 1e0f bcbe
000003f0: 5c54 893e 2f8b da3e b3cd 80be ea23 8c3e

onnx::MatMul_13 f4 [512, 3]
0.0025385143 -0.029747339 -0.009837291 0.19782345 -0.05943536 -0.025146533 0.01670717 0.0063340827
0.04067642 0.06718263 -0.17396298 0.24598086 0.2939324 -0.07726929 -0.4643784 -0.19074431
-0.058956195 0.112593405 -0.58557844 0.027284777 0.056781713 -0.40234828 -0.5810302 0.12167875
0.29860517 -0.096157424 -0.030077713 -0.3065668 0.3293886 -0.024326563 0.16097523 0.12107634
0.10887859 -0.11134456 -0.08101068 -0.12170695 -0.07276531 0.23908105 0.1585302 -0.1516223
-0.10960067 -0.19607878 -0.02658362 0.09111598 0.08283729 0.2457651 -0.06714383 0.039749358
0.37210512 -0.90654826 0.35637295 -0.25571033 -0.14362124 -0.12912928 0.18469714 -0.44004017
-0.098192215 -0.0054047075 0.016767047 -0.08416137 0.38950393 0.25349906 0.1536933 0.0020387813
0.037685 -0.003934527 0.41899404 0.11836214 0.17605463 -0.36342967 0.13206899 0.18153408
-0.09853252 -0.1634915 0.05783585 0.010232406 -0.06860531 -0.05287685 0.0040108426 -0.020151919
0.032655388 -0.02436257 -0.028655201 -0.044875897 -0.03793352 -0.027011532 -0.03258921 -0.47816175
0.2200848 0.12664354 0.05639395 -0.26214558 0.06489373 -0.10618492 -0.14601676 -0.17966016
-0.24538977 0.24465981 -0.008251753 0.07523746 -0.025128128 0.07060481 -0.03505606 0.07324517
-0.19811526 0.18730944 0.05003604 0.12615032 -0.5624197 0.31179696 -0.5457603 0.05110039
-0.115702376 0.052907176 0.13843837 -0.47687283 -0.33016756 -0.26527283 0.20179546 -0.3373091
-0.040531375 -0.48180503 -0.07862803 -0.20071574 0.11173584 0.083475694 0.39457867 -0.57135326
0.15764989 -0.19550075 0.10070161 0.053750224 0.2916098 -0.00032359394 0.2083075 -0.014208184
-0.06857506 -0.031435505 0.12329026 0.12449972 0.19152735 -0.14801688 -0.16281721 -0.17393541
-0.020596728 -0.059687324 0.052666944 -0.010117986 0.0016743949 0.070763044 0.03463341 -0.20719022
0.1816233 -0.09334329 0.0087527875 0.15262496 -0.19774367 0.24238792 -0.19678032 0.08935492
-0.024031729 0.004207976 0.14427818 0.041962706 -0.057619173 -0.44758093 -0.0039388514 0.021419868
0.3710623 0.04301388 0.028307786 0.15071744 0.05330494 -0.009646869 0.18959035 -0.43909213
0.109233014 -1.0787221 0.45691994 0.36723307 -0.064747505 0.033374038 -0.27052158 0.1478703
-0.02237991 0.061350033 0.0040394007 -0.16575997 -0.012089664 -0.21096699 0.038430363 -0.25567117
0.040280383 0.054303706 0.01754506 -0.000906468 0.07605767 -0.21013036 0.05551338 -0.0073379567
-0.005959699 0.16266067 -0.49225917 -0.03922623 -0.39412394 -0.13890369 0.35305864 0.0039613894
0.021975031 0.107128255 -0.16725183 -0.16270103 -0.22946037 -0.2684159 0.31956926 -0.033684228
0.16328435 -0.29527596 0.23334017 -0.087148495 0.025323234 0.14500768 0.2415005 0.0034115072
-0.09327634 0.29199937 0.057584204 0.1019156 -0.12133894 -0.07205924 -0.057663415 0.28405544
-0.36400506 -0.33441558 0.04296136 0.059911437 -0.022000907 0.3809764 -0.4727492 -0.31476736
-0.010494044 -0.023685398 -0.02007649 -0.060917743 0.026771601 -0.0027951119 0.14947265 -0.054830596
0.21616141 0.008536649 0.020356175 0.042250462 -0.36096853 -0.4537594 -0.14038953 0.14162968
00000000: 345d 263b b1b0 f3bc 972c 21bc 3b92 4a3e
00000010: 7e72 73bd 1a00 cebc 7add 883c 238e cf3b
00000020: 519c 263d 0c97 893d 5a23 32be 68e2 7b3e
00000030: 4f7e 963e 5d3f 9ebd 01c3 edbe 7a52 43be
00000040: 0d7c 71bd 5f97 e63d 78e8 15bf 5384 df3c
00000050: f193 683d 9800 cebe 65be 14bf b532 f93d
00000060: c7e2 983e 2fee c4bd 8965 f6bc 53f6 9cbe
00000070: 9fa5 a83e 8048 c7bc b1d6 243e dff6 f73d
00000080: bdfb de3d 9e08 e4bd ede8 a5bd 7e41 f9bd
00000090: fb05 95bd aad1 743e be55 223e e042 1bbe
000000a0: 5176 e0bd e0c8 48be e4c5 d9bc 049b ba3d
000000b0: 99a6 a93d d9a9 7b3e b482 89bd 39d0 223d
000000c0: 9084 be3e 8c13 68bf 8476 b63e 77ec 82be
000000d0: 7211 13be 773a 04be 3f21 3d3e f24c e1be
000000e0: 0019 c9bd f919 b1bb 0c5b 893c cc5c acbd
000000f0: 0f6d c73e a1ca 813e c761 1d3e 139d 053b
00000100: 965b 1a3d 34ed 80bb 6386 d63e da67 f23d
00000110: aa47 343e 7413 babe 183d 073e 12e4 393e
00000120: 6bcb c9bd 516a 27be 49e5 6c3d d2a5 273c
00000130: f180 8cbd 6595 58bd 636d 833b a315 a5bc
00000140: a8c1 053d 0394 c7bc 50be eabc cacf 37bd
00000150: 2e60 1bbd 4a47 ddbc 437c 05bd 9ed1 f4be
00000160: e95d 613e d8ae 013e 58fd 663d f237 86be
00000170: 01e7 843d 7b77 d9bd 6b85 15be d5f8 37be
00000180: 7547 7bbe 1a88 7a3e 5c32 07bc 1916 9a3d
00000190: 81d9 cdbc 4199 903d f196 0fbd 9001 963d
000001a0: bade 4abe 0cce 3f3e 97f2 4c3d 8d2d 013e
000001b0: bdfa 0fbf daa3 9f3e f2b6 0bbf a44e 513d
000001c0: 5ef5 ecbd 32b5 583d cac2 0d3e ad28 f4be
000001d0: b90b a9be d7d1 87be 78a3 4e3e c7b3 acbe
000001e0: 3a04 26bd 26af f6be bc07 a1bd 6d88 4dbe
000001f0: c3d5 e43d 4ef5 aa3d 3706 ca3e 3544 12bf
00000200: f96e 213e 5931 48be a53c ce3d 3229 5c3d
00000210: e14d 953e 0ba8 a9b9 904e 553e 71c9 68bc
00000220: 1571 8cbd 84c2 00bd 9b7f fc3d b6f9 fe3d
00000230: bf1f 443e bd91 17be 8eb9 26be 201c 32be
00000240: 78ba a8bc b27a 74bd 4bb9 573d e9c5 25bc
00000250: 5f77 db3a 37ec 903d c3db 0d3d ac29 54be
00000260: 75fb 393e c42a bfbd da67 0f3c b849 1c3e
00000270: 517d 4abe 8a34 783e c880 49be b6ff b63d
00000280: 30de c4bc 10e3 893b a9bd 133e 16e1 2b3d
00000290: 1502 6cbd 5429 e5be 7b11 81bb b878 af3c
000002a0: e1fb bd3e 522f 303d bbe5 e73c ac55 1a3e
000002b0: 4856 5a3d e70d 1ebc f923 423e afd0 e0be
000002c0: 8fb5 df3d 9113 8abf 69f1 e93e f905 bc3e
000002d0: 579a 84bd 37b3 083d ce81 8abe 506b 173e
000002e0: 1356 b7bc 2c4a 7b3d f35c 843b fbbc 29be
000002f0: ba13 46bc bb07 58be 2869 1d3d 55e7 82be
00000300: 0bfd 243d 906d 5e3d a8ba 8f3c 0aa0 6dba
00000310: 20c4 9b3d 6a2c 57be ff61 633d 3e73 f0bb
00000320: 9449 c3bb 8590 263e 6509 fcbe afab 20bd
00000330: 9dca c9be c53c 0ebe 1ac4 b43e 8bce 813b
00000340: fb04 b43c 0f66 db3d 1044 2bbe 199b 26be
00000350: a9f7 6abe cf6d 89be 959e a33e 79f8 09bd
00000360: 0334 273e 692e 97be baf0 6e3e e97a b2bd
00000370: ac72 cf3c e57c 143e e84b 773e 9893 5f3b
00000380: aa07 bfbd f180 953e 6add 6b3d 20b9 d03d
00000390: 8d80 f8bd cb93 93bd 7930 6cbd b76f 913e
000003a0: df5e babe 8538 abbe 40f8 2f3d b265 753d
000003b0: 3f3b b4bc 570f c33e 2f0c f2be 3029 a1be
000003c0: 36ef 2bbc e107 c2bc 7377 a4bc e284 79bd
000003d0: 1e50 db3c 322e 37bb 5c0f 193e 0c96 60bd
000003e0: 6b59 5d3e 4ddd 0b3c fec1 a63c d20e 2d3d
000003f0: ded0 b8be 2753 e8be 46c2 0fbe 5f07 113e
