models/model-50.onnx (onnx, 37455 bytes, 4 tensors)

linear1.bias f4 [512]
0	0x3c18f963	0.009336802
1	0x3e2ae797	0.16689907
2	0xbe6fe47a	-0.23427
3	0x3b848b87	0.0040449533
4	0xbbd205e1	-0.006409392
5	0xbe232cb7	-0.15935026
6	0x3deb5b04	0.11491969
7	0x3c3713d4	0.011174161
8	0x3c3f29d8	0.011667691
9	0x3e758c7f	0.23979376
10	0xbde58968	-0.11207849
11	0x3ebc3ba4	0.36764252
12	0xbe295adc	-0.16538566
13	0xbe0ba66f	-0.13637708
14	0x3ac9c86e	0.0015394816
15	0x3ec4783d	0.38372985
16	0x3e4b1c99	0.19835128
17	0x3c9f9997	0.019482417
18	0xbda03032	-0.078216925
19	0x3da09044	0.078400165
20	0xbe241654	-0.16024143
21	0x3e85bba7	0.2611973
22	0x3e16bcd5	0.14720471
23	0x3d9eb057	0.07748478
24	0x3e392455	0.18080266
25	0x3e884daa	0.26621753
26	0x3e4eb254	0.20185214
27	0x3e619cf8	0.22032535
28	0x3e46364e	0.19356653
29	0x3cd3aaab	0.025838217
30	0xbc8c1ffe	-0.017105099
31	0x3dfb530d	0.122717
32	0xbd8a4e0e	-0.06753169
33	0xbe07a016	-0.13244662
34	0x3e4b2415	0.19837983
35	0x3e0e2691	0.138819
36	0xbe0831ee	-0.13300297
37	0x3e932782	0.2874108
38	0x3d90e39e	0.070746645
39	0xbe4c0aa8	-0.1992594
40	0xbd965f60	-0.0734241
41	0x3d4af903	0.049553882
42	0x3dbabc6f	0.09117972
43	0xbdb91041	-0.09036303
44	0x3cad324f	0.021142153
45	0x3e55ecdb	0.20891134
46	0x3f01d1f2	0.50710976
47	0x3e5908ec	0.2119481
48	0xbe1102a6	-0.14161167
49	0x3ea9b789	0.3314784
50	0xbd499a39	-0.049219344
51	0x3de5d39e	0.112220034
52	0x3e6ad8fc	0.22934335
53	0xbe96cd20	-0.29453373
54	0x3e56433f	0.2092409
55	0xbe1f0e93	-0.15532903
56	0x3e0105a4	0.12599808
57	0x3d752b7c	0.059855923
58	0xbe7d686e	-0.24746868
59	0xbdb1e299	-0.08685798
60	0xbe4e4915	-0.20145066
61	0x3cc4e990	0.024037153
62	0xbe2d1a43	-0.1690455
63	0x3dcb31c5	0.09921602
64	0xbca12583	-0.019671207
65	0x3cc22107	0.02369739
66	0xbd8e5726	-0.06950216
67	0xbda57ad6	-0.0808007
68	0xbda628c8	-0.08113247
69	0xbd8f9e5d	-0.07012627
70	0x3e1bde0e	0.15221426
71	0x3d31880f	0.043342646
72	0xbd7c830a	-0.061648406
73	0x3e1b53eb	0.15168731
74	0x3c723550	0.0147832185
75	0x3e4ef0b8	0.20209014
76	0x3e532b64	0.20622021
77	0x3dee399f	0.11632084
78	0xbdbc8ee7	-0.09206944
79	0xbd8467aa	-0.06465085
80	0xbe351f54	-0.17687732
81	0x3b25244a	0.0025198632
82	0xbad33b98	-0.0016115783
83	0x3e493649	0.19649614
84	0xbdc973ee	-0.09836565
85	0x3e3525c3	0.17690186
86	0x3e79c4d6	0.24391493
87	0x3d4c7fee	0.04992669
88	0x3d8edaf6	0.06975357
89	0x3e35763f	0.17720889
90	0xbdb10e0a	-0.08645256
91	0xbe04c034	-0.12963945
92	0xbea3a996	-0.3196532
93	0x3e06be09	0.1315843
94	0x3e82ebb9	0.25570467
95	0x3e7bfe2b	0.24608676
96	0x3cca9985	0.024731407
97	0x3d626fc6	0.055282377
98	0xbea2e24c	-0.31813276
99	0xbdcd9f96	-0.10040204
100	0x3e00b325	0.12568338
101	0xbdaf3db6	-0.08556692
102	0x3db534c0	0.08847952
103	0x3c93edf4	0.0180578
104	0xbdbc17a2	-0.09184195
105	0x3e87fede	0.26561636
106	0xbe52c455	-0.20582707
107	0x3e46f85a	0.19430676
108	0x3c1e64df	0.009667604
109	0x3e2b4939	0.16727151
110	0x3cbd1265	0.02308006
111	0xbe4d1bb8	-0.20030105
112	0xbdb0e394	-0.08637157
113	0x3d81c407	0.063362174
114	0xbd03dd3e	-0.032193415
115	0xbd8ef060	-0.06979442
116	0xbe24e745	-0.16103847
117	0xbce41b7a	-0.027845133
118	0xbe48c8df	-0.19607876
119	0x3cec6066	0.02885456
120	0x3d1a0f52	0.037612267
121	0xbde05978	-0.10954565
122	0x3e49e99d	0.19718023
123	0x3d08aeb5	0.03336974
124	0x3e823c0b	0.25436434
125	0x3c8be0f3	0.017075038
126	0x3d736857	0.059425678
127	0x3e0ff88d	0.14059658
128	0xbc5070b7	-0.012722186
129	0x3e1ed128	0.15509474
130	0xbea9e2c3	-0.33180818
131	0x3e748caa	0.23881784
132	0x3e87b4be	0.26505083
133	0xbc1f5403	-0.00972462
134	0xbcb7d337	-0.022439582
135	0x3d375cc6	0.04476621
136	0xbe825a7d	-0.25459662
137	0x3e65ff08	0.22460568
138	0x3e0f2e43	0.13982491
139	0xbe908ae8	-0.28230977
140	0x3e123d81	0.14281274
141	0x3cc32a2b	0.023823818
142	0xbe71d6b5	-0.2361706
143	0xbe353acc	-0.1769821
144	0xbe7cb812	-0.24679592
145	0xbe7a4870	-0.24441695
146	0x3e498b54	0.19682056
147	0xbc2cf60e	-0.010556711
148	0x3cce1f8b	0.025161525
149	0xbdbfed07	-0.09371381
150	0x3dd7d307	0.10538297
151	0xbc988322	-0.018617216
152	0xbe4f26e1	-0.20229675
153	0x3d119ec7	0.035551812
154	0x3e020457	0.12696968
155	0xbad30356	-0.0016099017
156	0x3e45e5b1	0.19325902
157	0xb9820224	-0.00024797127
158	0x3e8ff949	0.28119877
159	0x3e426d6b	0.18987052
160	0x3e8ced70	0.275249
161	0x3d5caa3c	0.053873286
162	0xbdf4a36c	-0.11945233
163	0xbcb64d74	-0.02225373
164	0x3f289ad0	0.65861225
165	0x3e30870c	0.17239016
166	0xbd35bea6	-0.04437127
167	0xbe330d27	-0.17485486
168	0x3d49674f	0.04917079
169	0x3e5669e2	0.20938829
170	0xbe02988a	-0.12753502
171	0x3c81e486	0.015856039
172	0xbddf05f0	-0.10889804
173	0xbdcb8aaf	-0.09938561
174	0x3de5e494	0.112252384
175	0x3c37c5c4	0.011216585
176	0xbe552a5f	-0.20816945
177	0x3e31ba41	0.17356206
178	0xbe17c9a2	-0.1482301
179	0x3d57dcb8	0.05270073
180	0xbe5451cb	-0.20734327
181	0xbd8285a4	-0.06373146
182	0xbc1393d2	-0.009007411
183	0x3beb5dae	0.0071827983
184	0x3e107a91	0.14109255
185	0x3d520b33	0.05128021
186	0x3d2c59bb	0.04207776
187	0xbe84db5f	-0.25948617
188	0xbe01e5ca	-0.12685314
189	0x3d836811	0.064163335
190	0x3e05b5d1	0.13057639
191	0x3dc08e3e	0.094021305
192	0xbe37c935	-0.17947848
193	0xbe44a296	-0.19202647
194	0xbdd0f08c	-0.10202131
195	0xbe088d2b	-0.13335101
196	0x3e5a211b	0.21301691
197	0xbe231634	-0.15926439
198	0x3dffbad1	0.12486804
199	0x3e3d0fcf	0.18463062
200	0x3e1f021b	0.15528147
201	0x3ca39de1	0.019972743
202	0xbd45ffaf	-0.048339542
203	0xbdd8ccc1	-0.10585929
204	0x3cbb01ec	0.022828065
205	0xbda586f3	-0.0808238
206	0x3eb4d186	0.35316104
207	0xbd666e0d	-0.056257296
208	0x3e70bb57	0.23508964
209	0x3db32555	0.08747355
210	0xbe5977fc	-0.21237177
211	0xbd3afc9b	-0.04565106
212	0x3df78168	0.12085229
213	0x3e49b32f	0.1969726
214	0x3e47e91b	0.19522516
215	0xbe5948ba	-0.21219149
216	0x3ead0286	0.33790988
217	0xbd60e33e	-0.054904215
218	0x3ea9404a	0.3305686
219	0xbe70e6e6	-0.23525581
220	0xbddfa86a	-0.10920794
221	0x3e67996e	0.22617123
222	0x3e6a1542	0.22859672
223	0x3e228e01	0.15874483
224	0x3d6815e2	0.056661494
225	0x3e0cafba	0.1373891
226	0xbdbd2744	-0.09236005
227	0x3e7dde0f	0.2479174
228	0x3e54af1f	0.20769928
229	0x3e978e04	0.29600537
230	0x3d5f8258	0.054567665
231	0x3e351efc	0.17687601
232	0x3e625974	0.22104436
233	0x3e7c26ce	0.24624178
234	0x3d92455c	0.071421355
235	0xbe1d1104	-0.15338522
236	0xbe8d70b5	-0.2762505
237	0xbe2bf7cb	-0.16793744
238	0xbe1b06b1	-0.15139271
239	0x3de89798	0.11357039
240	0x3e396fad	0.18109007
241	0x3e38e9e2	0.18057969
242	0xbddf7dbc	-0.10912654
243	0xbd2b17dc	-0.0417708
244	0xbd6ce9ba	-0.057840087
245	0xbdc321a0	-0.09527898
246	0xbe3990b0	-0.181216
247	0xbe377f61	-0.17919685
248	0xbc92f5ab	-0.01793941
249	0xbc8d1283	-0.017220741
250	0x3d6dded3	0.05807383
251	0x3dfa0ba4	0.122092515
252	0x3e75ad31	0.23991849
253	0xbd620740	-0.055182695
254	0xbdcb3b50	-0.09923422
255	0x3e601c2e	0.2188575

linear2.bias f4 [3]
0	0xbbfe7c3a	-0.007766274
1	0xbd6ce7ee	-0.057838373
2	0xbd777c16	-0.060421072

onnx::MatMul_12 f4 [14, 512]
0	0xbd0dedfb	-0.034650784
1	0xbd9738c7	-0.07383876
2	0xbe8318f0	-0.25604963
3	0x3d6ef359	0.058337543
4	0xbd91de81	-0.071225174
5	0x3d4ca195	0.049958784
6	0xbece7bd5	-0.4032885
7	0x3e4a801b	0.19775431
8	0x3db3900d	0.0876771
9	0x39affb46	0.00033565814
10	0xbb593164	-0.0033141011
11	0x3e48fb26	0.19627056
12	0x3e130e62	0.14360955
13	0xbea50b08	-0.3223498
14	0xbe44d071	-0.19220139
15	0xbe078200	-0.13233185
16	0x3cedfa91	0.029050143
17	0x3e9e43a0	0.3091097
18	0xbd2e94c5	-0.042622346
19	0x3ddc3288	0.107518256
20	0x3eb4b4ca	0.3529418
21	0x3ebf6722	0.37383372
22	0xbe488631	-0.1958244
23	0xbe5f1d04	-0.21788412
24	0xbe19284c	-0.14956778
25	0x3d8775d2	0.06614269
26	0x3e35be75	0.17748435
27	0xbd90e1fc	-0.07074353
28	0x3cf93341	0.030419948
29	0xbd658472	-0.056034513
30	0xbd837151	-0.06418098
31	0xbe226653	-0.15859346
32	0xbdabaf4f	-0.08383047
33	0x3ce735cb	0.028223893
34	0xbd2b6d9d	-0.041852582
35	0xbe55cecf	-0.20879672
36	0xbe5184ae	-0.2046077
37	0xbe10c644	-0.14138132
38	0x3d8368e5	0.064164914
39	0xbc3cd301	-0.011524917
40	0xbecc834a	-0.39943916
41	0x3e36a2e9	0.17835583
42	0xbdec768a	-0.11546047
43	0xbe2ec61c	-0.1706776
44	0x3e006bfe	0.12541196
45	0x3e5d27b0	0.21597171
46	0x3f0e672a	0.55626166
47	0x3e7b7dcb	0.24559705
48	0x3e2e69fb	0.17032616
49	0x3e8cfdf4	0.275375
50	0x3d82c662	0.06385495
51	0x3e3ba70c	0.18325442
52	0x3e8b087e	0.27154917
53	0xbe30bad4	-0.1725877
54	0xbc41de00	-0.011832714
55	0xbd104693	-0.035223555
56	0xbe690445	-0.22755535
57	0x3d0f6457	0.0350078
58	0x3d80c951	0.06288398
59	0xbeb3d15c	-0.35120666
60	0xbe2d9f50	-0.16955304
61	0xbda58c3a	-0.08083387
62	0xbe99a4ec	-0.30008638
63	0x3d5e0636	0.054205142
64	0x3e99fc15	0.30075136
65	0xbe042854	-0.12906009
66	0x3dedd17f	0.11612224
67	0xbe86c556	-0.2632243
68	0xbc333f51	-0.010940389
69	0x3e4b41db	0.1984934
70	0x3b1ec1b6	0.0024224347
71	0xbd87a0af	-0.06622445
72	0xbdc736c7	-0.09727245
73	0x3e3a4d21	0.18193485
74	0xbd375f75	-0.04476877
75	0xbe768f6f	-0.24078153
76	0x3e2f23dc	0.17103523
77	0xbe15da48	-0.14634049
78	0xbe6da34f	-0.23206829
79	0xbdcdb478	-0.10044187
80	0x3e958813	0.2920538
81	0x3e15f11d	0.14642759
82	0xbdfb4d20	-0.1227057
83	0xbea121e8	-0.3147118
84	0xbe7476c9	-0.23873438
85	0x3e2687d2	0.16262749
86	0x3d7a3848	0.06108883
87	0xbd6c6d00	-0.057721138
88	0xbdff9490	-0.12479508
89	0xbde7c5fb	-0.11317059
90	0x3cb285ce	0.021792319
91	0x3dce81ea	0.10083373
92	0xbd647857	-0.055778828
93	0x3ae3a0a9	0.0017366606
94	0x3b0bbb1b	0.002132124
95	0xbde0345d	-0.109474875
96	0xbe413d54	-0.18871051
97	0xbccb991a	-0.024853278
98	0xbce623f9	-0.028093325
99	0xbdb5590a	-0.088548735
100	0xbea43b3f	-0.3207645
101	0x3e34e040	0.1766367
102	0xbecbcec5	-0.3980619
103	0xbd0e9728	-0.034812123
104	0xbecd330b	-0.40078005
105	0x3e5dbc3a	0.21653834
106	0xbe61a262	-0.220346
107	0x3e93b28a	0.28847152
108	0xbe047c04	-0.12937933
109	0xbdca5c86	-0.09880929
110	0xbe88e4b2	-0.2673698
111	0x3ddd6d06	0.1081181
112	0xbd5e2ddc	-0.054242954
113	0x3e749555	0.2388509
114	0x3c70f5c5	0.0147070335
115	0x3e13c40b	0.14430253
116	0x3dd1028e	0.102055654
117	0xbe029055	-0.12750371
118	0x3d24a33e	0.040194742
119	0xbe0328f1	-0.12808587
120	0x3e785ceb	0.24254195
121	0xbe2b9b95	-0.16758569
122	0xbdd1e9cb	-0.102496706
123	0x3da3c1ce	0.0799595
124	0x3e50eb26	0.20402202
125	0x3dd8b5b3	0.105815314
126	0x3e89f7d0	0.26946878
127	0x3e0bcd0c	0.13652438
128	0x3de30867	0.11085587
129	0xbc5ebcc4	-0.01359481
130	0xbe940fc6	-0.28918284
131	0xbe3bf986	-0.18356904
132	0x3da01e77	0.07818311
133	0xbe6f1d1f	-0.23350953
134	0x3ea4dad8	0.32198215
135	0xbda78daf	-0.08181321
136	0x3e87fa33	0.26558074
137	0x3e412e1d	0.18865247
138	0xbe192652	-0.14956024
139	0xbe1c6d13	-0.15275984
140	0x3d9855e9	0.07438261
141	0xbd178435	-0.036991317
142	0x3d430ec9	0.047621522
143	0x3c8e7fc0	0.0173949
144	0x3eae2f7d	0.34020606
145	0x3e931217	0.2872474
146	0xbd39011f	-0.045167085
147	0x3df0d73d	0.117598034
148	0xbc440efa	-0.011966461
149	0xbe1531f9	-0.14569844
150	0xbde36a58	-0.11104268
151	0x3e8c8662	0.27446276
152	0x3e03d35c	0.12873596
153	0x3db7d4f9	0.08976168
154	0xbe29fcf8	-0.16600406
155	0xbdba61f9	-0.09100718
156	0xbe0de470	-0.13856673
157	0x3e931af0	0.2873149
158	0x3e800c02	0.2500916
159	0xbe88176c	-0.2658037
160	0x3da3d080	0.079987526
161	0xbebad8b1	-0.36493447
162	0x3e83ad80	0.25718307
163	0xbe0fb557	-0.1403402
164	0x3f025656	0.5091299
165	0xbd8b811f	-0.06811737
166	0x3cf411aa	0.02979358
167	0x3d8c4528	0.06849128
168	0xbdee8f18	-0.11648387
169	0xbe5bb934	-0.21457368
170	0xbd61dbb6	-0.055141173
171	0xbd739729	-0.05947033
172	0xbe9f9fc2	-0.31176573
173	0xbddcb043	-0.10775807
174	0xbe1f7b15	-0.15574296
175	0xbe07fd2a	-0.13280168
176	0xbd0dfe14	-0.034666136
177	0xbdb1bb89	-0.086783476
178	0x3d0c79ab	0.03429572
179	0x3e4476e9	0.19185986
180	0xbe568b21	-0.20951511
181	0x3e1f6a8b	0.15567987
182	0xbcd2d181	-0.025734665
183	0x3e38fb27	0.18064557
184	0xbd49ea33	-0.049295615
185	0x3e33ee64	0.17571408
186	0x3e41e35a	0.18934384
187	0xbe7f9041	-0.24957372
188	0x3c76a881	0.015054823
189	0xbe759c06	-0.239853
190	0x3df0907d	0.11746309
191	0x3ea669b0	0.32502508
192	0xbe18b7c1	-0.14913847
193	0x3ce08680	0.027407885
194	0x3e8e453d	0.277872
195	0x3d43b23b	0.047777396
196	0xbe8ca83c	-0.27472103
197	0x3c0b5210	0.008503452
198	0xbe5722c2	-0.21009353
199	0xbe1d2f4b	-0.15350072
200	0x3edd4658	0.4321773
201	0x3e0ac00c	0.13549823
202	0xbd856804	-0.0651398
203	0x3da5f9f5	0.08104316
204	0xbd8650ef	-0.065584056
205	0xbdb61d08	-0.08892256
206	0x3e8f2f44	0.27965748
207	0x3e80b024	0.25134385
208	0xbb8ab0c2	-0.004232497
209	0x3e3bfbad	0.18357725
210	0x3d20b117	0.039231386
211	0x3dc88f6e	0.09792982
212	0xbc2a98a7	-0.010412372
213	0x3da98cde	0.082788214
214	0x3dc53118	0.096285045
215	0xbe127482	-0.14302257
216	0x3e2f2c41	0.17106725
217	0x3da2f457	0.079567604
218	0x3e940b89	0.2891505
219	0xbdd5d1e2	-0.104404226
220	0xbe4c40d8	-0.19946611
221	0x3db5a42e	0.088692054
222	0xbdb8f80e	-0.09031688
223	0x3e482a31	0.19547345
224	0xbea946d5	-0.33061853
225	0x3c437a14	0.011930961
226	0x3d927067	0.07150345
227	0x3c1c6868	0.009546377
228	0xbcb771ca	-0.022393126
229	0x3e1ad756	0.15121207
230	0x3e818466	0.25296324
231	0xbe9281f5	-0.28614774
232	0x3d53e0f4	0.051728204
233	0x3ca0af8d	0.01961496
234	0xbc8f054f	-0.017458586
235	0xbf07a2c0	-0.5298271
236	0xbe8a4f03	-0.27013406
237	0x3d99a7d6	0.07502715
238	0x3cb5b5a4	0.02218134
239	0xbe61fb51	-0.22068526
240	0x3e736627	0.23769437
241	0xbdb39f62	-0.08770634
242	0xbdea300b	-0.11434945
243	0x3c5d5d9f	0.013511091
244	0xbc159e8a	-0.009132037
245	0x3e763c6d	0.24046488
246	0xbdd3571d	-0.1031935
247	0xbcf7a62b	-0.030230602
248	0xbd6227f5	-0.055213887
249	0x3e19cfa6	0.15020618
250	0x3a84aed3	0.0010122902
251	0xbdc38b17	-0.09548014
252	0xbe34f610	-0.1767199
253	0x3e937668	0.28801274
254	0x3de0bf29	0.10973961
255	0xbd1012ed	-0.0351743

onnx::MatMul_13 f4 [512, 3]
0	0xbca3c6ea	-0.01999231
1	0x3adbf823	0.0016782325
2	0xbd5f764f	-0.054556187
3	0x3e35e34d	0.1776249
4	0xbda9403d	-0.082642056
5	0xbdaa5919	-0.08317775
6	0xbca34ba5	-0.019933531
7	0xbd5a9e35	-0.053373534
8	0xbca4439f	-0.020051776
9	0x3d50f728	0.051016957
10	0xbe05e24a	-0.13074604
11	0x3e63fbec	0.2226407
12	0xbd880ca3	-0.06643035
13	0xbd196617	-0.037450876
14	0xbd419011	-0.047256533
15	0xbe5d3d91	-0.21605517
16	0x3d1888dc	0.037239894
17	0x3e6f0f15	0.23345597
18	0xbe5c7dfc	-0.21532434
19	0xbbfc8e3f	-0.0077073867
20	0xbd227457	-0.03966173
21	0xbe659f9a	-0.22424164
22	0xbe9a05a7	-0.30082437
23	0x3cedc3ec	0.029024087
24	0x3e7b313e	0.24530503
25	0xbd0a1971	-0.03371567
26	0xbb452585	-0.0030082178
27	0xbe0467ac	-0.12930173
28	0x3e526760	0.20547247
29	0x3afad427	0.0019136713
30	0x3e99f51c	0.30069816
31	0x3e1ae8c5	0.15127857
32	0x3d89f979	0.06737036
33	0xbd951c7b	-0.07280823
34	0xbdbfb2ef	-0.09360301
35	0xbdd27af3	-0.10277357
36	0xbd54ab7d	-0.051921356
37	0xbda91f48	-0.082579195
38	0xbcee40f9	-0.029083716
39	0xbc696009	-0.014244088
40	0xbd5fe850	-0.05466491
41	0xbdb04cad	-0.08608375
42	0xbdf2e0bb	-0.1185927
43	0xbd6301cd	-0.05542164
44	0xbc32a73a	-0.010904128
45	0x3e435f52	0.1907933
46	0xbdb3aff9	-0.087737985
47	0x3ca988a8	0.020695046
48	0x3db3d8f6	0.087816164
49	0xbdd70e83	-0.10500815
50	0x3d9a8cc4	0.0754638
51	0xbdfe3cd5	-0.124139465
52	0xbdff48ce	-0.12465058
53	0xbd911312	-0.070837155
54	0xbc836dfb	-0.016043654
55	0xbd0f24e0	-0.034947276
56	0xbdbc14c7	-0.091836505
57	0xbdab19d0	-0.08354533
58	0xbc7f32f1	-0.01557611
59	0xbdd03049	-0.1016546
60	0x3e8ca55e	0.27469915
61	0x3dddf8cf	0.10838472
62	0xbda66e5d	-0.08126519
63	0x3e7813ca	0.24226299
64	0x3e302a25	0.17203577
65	0x3de78277	0.11304181
66	0x3de1f926	0.110338494
67	0xbd8b6a88	-0.068074286
68	0xbd34964e	-0.044088654
69	0xbd9f22e8	-0.0777033
70	0xbd1809e0	-0.037118793
71	0x3d983a31	0.07432974
72	0xbd3cf8cd	-0.046135712
73	0xbd447581	-0.047963623
74	0xbc1e2a05	-0.009653573
75	0xbd8ecba1	-0.06972433
76	0xbdf4b658	-0.11948842
77	0xbd882fb5	-0.066497244
78	0xbd6a4389	-0.057193313
79	0xbd88e93c	-0.06685111
80	0xbd5fbfbc	-0.05462621
81	0xbda75710	-0.08170903
82	0xbd829868	-0.063767254
83	0xbd519b90	-0.051173747
84	0xbda574b7	-0.08078902
85	0xbd9fe9a5	-0.07808236
86	0xbdc8f5bc	-0.09812495
87	0xbe857da0	-0.26072407
88	0xbc3c2b30	-0.011484906
89	0xbd88b114	-0.066744
90	0x3cfd58d1	0.03092614
91	0x3d083a96	0.033258997
92	0xbde5310e	-0.11190997
93	0xbd834983	-0.064105056
94	0xbd84c8b5	-0.06483594
95	0xbe1026c6	-0.14077291
96	0xbda2f740	-0.079573154
97	0x3beed531	0.007288598
98	0xbe065794	-0.13119346
99	0xbd523e6e	-0.05132907
100	0xbd734f54	-0.059401825
101	0xbd90fd1f	-0.07079529
102	0xbca51207	-0.020150198
103	0xbcbb11be	-0.022835609
104	0x3caf9535	0.021433452
105	0xbd6d243b	-0.05789588
106	0xbd2a114e	-0.04152041
107	0xbd4abd02	-0.04949666
108	0xbc33e1b1	-0.010979102
109	0x3a25379f	0.00063025387
110	0xbdcf6c0a	-0.10128029
111	0xbd023ba1	-0.031795148
112	0xbd9dfc33	-0.07714119
113	0xbc45119d	-0.012028125
114	0x3b37a99c	0.002802468
115	0x3be947a4	0.007119136
116	0xbdd2bfad	-0.102904655
117	0xbe3fe2c0	-0.18738842
118	0x3da9d4ee	0.08292566
119	0xbde8fdcf	-0.11376535
120	0xbc1f346d	-0.009717089
121	0xbda96277	-0.08270734
122	0xbd847fad	-0.06469665
123	0xbd8d9116	-0.069124386
124	0x3bfd9c05	0.0077395462
125	0xbd5c8cb8	-0.053845137
126	0xbd5df812	-0.054191656
127	0x3c9415b3	0.018076753
128	0x3d028031	0.031860534
129	0xbdddcd01	-0.10830117
130	0xbd1a874c	-0.037726685
131	0xbc9d96a8	-0.019236878
132	0x3e37308f	0.17889617
133	0xbe3d2607	-0.18471538
134	0x3d947149	0.0724817
135	0xbd5b0291	-0.053469244
136	0xbd46dc2f	-0.048549827
137	0xbdb3e694	-0.08784214
138	0x3ed5fda4	0.41795075
139	0x3e3bdceb	0.18345992
140	0x3e8e7588	0.27824044
141	0xbda8aaad	-0.08235679
142	0xbd826eab	-0.063687645
143	0xbd8522b1	-0.065007575
144	0xbc82b620	-0.015955985
145	0xbd2f93f2	-0.0428657
146	0xbd13c5c0	-0.03607726
147	0xbd713fa2	-0.058898576
148	0xbda06b27	-0.07832938
149	0xbd94a99c	-0.07258913
150	0x3caf8079	0.021423565
151	0xbd43e6ea	-0.04782764
152	0x3e7ac9b4	0.24491006
153	0xbe16220f	-0.1466143
154	0xbd91284b	-0.070877634
155	0x3db01afd	0.085988976
156	0x3b32d586	0.0027287914
157	0x3e1be451	0.15223815
158	0x3d9f9b2f	0.07793271
159	0x3dd84fa3	0.105620645
160	0xbcc2e4a6	-0.023790669
161	0x3b830292	0.003998109
162	0xbceb7752	-0.02874342
163	0xbd91ca75	-0.07118694
164	0x3cd35739	0.025798427
165	0xba29bd24	-0.00064750225
166	0xbd50ba1a	-0.05095873
167	0x3c038a15	0.008028527
168	0x3d0fb6e0	0.035086513
169	0xbcf2c63e	-0.029635545
170	0xbdb9399c	-0.09044191
171	0x3e03bc00	0.12864685
172	0xbd10f0ac	-0.035385773
173	0xbd471034	-0.048599437
174	0x3e76cb10	0.241009
175	0xbd9299a6	-0.07158212
176	0x3cdaec1e	0.026723918
177	0xbf04f595	-0.5193723
178	0xbd33a18a	-0.043855228
179	0xba96b685	-0.0011498487
180	0xbd519b6e	-0.05117362
181	0x3c951ccb	0.018202206
182	0xbdaf79c0	-0.08568144
183	0x3dba4d51	0.09096778
184	0xbd249f5a	-0.040191032
185	0x3d826725	0.063673295
186	0xbc9d3af6	-0.019193154
187	0xbe268a39	-0.16263665
188	0xbc3771cb	-0.011196564
189	0xbdbbb223	-0.09164836
190	0xbd853c86	-0.065056846
191	0x3cb477fd	0.022029871
192	0xbdebd837	-0.11515849
193	0xbd11690d	-0.035500575
194	0xbd976c64	-0.07393721
195	0x3ccd4e0a	0.025061626
196	0xbd3237fc	-0.043510422
197	0xbe06b3e9	-0.13154568
198	0xbd62d5d0	-0.05537969
199	0xbdd125f3	-0.10212316
200	0x3ddb1512	0.10697378
201	0x3d1541a2	0.036439545
202	0xbc65df95	-0.014030357
203	0xbc4c5734	-0.012471963
204	0xbdc9064d	-0.09815655
205	0xbd5ec970	-0.054391325
206	0x3e12637b	0.14295761
207	0x3d6351f1	0.055498067
208	0xbdd27733	-0.10276642
209	0x3d1133cf	0.0354498
210	0xbdea7266	-0.11447601
211	0xbd72abf5	-0.059246022
212	0xbdeb6dc7	-0.11495548
213	0xbaac1e26	-0.0013131544
214	0x3db9a5c7	0.09064823
215	0xbdafd9cd	-0.08586464
216	0x3e344e4a	0.1760799
217	0xbd5cd116	-0.053910337
218	0x3d218c64	0.039440528
219	0xbd090159	-0.03344855
220	0xbe07d9ab	-0.13266627
221	0xbc1286c0	-0.00894326
222	0x3c60e1dd	0.013725725
223	0xbd306a8e	-0.04307037
224	0xbe3b6dea	-0.18303648
225	0x3d23614d	0.039887715
226	0xbd7ffd22	-0.062497266
227	0xbd640b54	-0.055674866
228	0xbd6f928b	-0.058489364
229	0xbd36c0bc	-0.0446174
230	0xbdbfa5b7	-0.093577795
231	0x3e02b51b	0.12764399
232	0xbd039108	-0.032120734
233	0xbd85d620	-0.06534982
234	0x3e45a260	0.19300222
235	0xbbc5a0db	-0.0060311384
236	0x3d030e35	0.03199597
237	0x3e6c75e0	0.2309184
238	0xbe1689e1	-0.14701034
239	0xbab0a53d	-0.0013476979
240	0x3daed0e7	0.08535939
241	0x3daf352b	0.08555063
242	0xbd838af3	-0.06422987
243	0xbdc6bf11	-0.09704412
244	0xbd5e586d	-0.05428355
245	0xbc3b54f6	-0.0114338305
246	0x3e43b2f4	0.19111234
247	0xbd83ac6c	-0.06429371
248	0x3dfe572a	0.12418969
249	0x3d5dbc2c	0.054134533
250	0xbd0a3044	-0.033737436
251	0xbd02968a	-0.031881846
252	0xbe723326	-0.23652324
253	0xbe1ea3f2	-0.15492228
254	0x3d2921ce	0.041292004
255	0x3e6163ad	0.2201068
