models/model-5.onnx (onnx, 37455 bytes, 4 tensors)

linear1.bias f4 [512]
0.0707546 0.070977576 -0.1882148 -0.13327932 0.06683499 -0.20928872 0.14604054 -0.14428908
-0.08318753 0.17723684 -0.24635543 0.27472207 -0.22361892 -0.13892694 -0.112500556 0.20008485
0.19128981 -0.15871647 -0.07361537 0.07180559 -0.24626939 -0.15816751 0.1673643 0.23634464
0.19023238 0.11391972 0.09992524 0.15487489 0.09489629 0.0019912156 0.019694114 0.00094750285
-0.00017725152 -0.2486191 0.23923555 0.15200976 -0.09242972 0.22911368 0.10095459 -0.22186337
-0.077633575 0.015025719 0.1685393 -0.03063602 0.025305564 0.18612064 -0.20810065 0.1528011
-0.07638696 0.18598947 -0.061390206 0.025889019 0.19985522 -0.13652308 0.2367627 -0.026366444
0.1492297 0.026812464 -0.25108764 -0.1289631 -0.13647209 -0.06995585 -0.20278159 0.058516216
-0.14662148 -0.058194455 -0.1863961 -0.026364997 -0.05433027 -0.0935508 0.02544694 0.1582387
-0.15660697 0.046144288 -0.036445882 0.2333587 0.13496989 0.15859586 -0.12940021 -0.16281149
-0.21298164 -0.05705073 -0.1743637 0.1698859 -0.22646022 0.1412536 0.16253948 0.10180056
0.019533759 0.13205804 -0.21331197 -0.25604734 -0.23280899 0.17430799 0.032465383 0.24403137
-0.033236746 -0.036802754 -0.21040477 -0.043051094 0.10015039 -0.098923534 0.20642948 0.034894835
-0.015829233 0.21468265 -0.16149494 0.05016864 -0.027114278 0.11459006 0.19060823 -0.2426958
-0.13253476 0.040203363 -0.042332634 -0.040141664 -0.15780982 -0.16656244 -0.19161554 0.14304137
-0.051220674 -0.14684398 0.15021038 0.038830195 0.14132026 0.009743186 0.020324426 0.117469214
-0.063431785 0.0593181 -0.2451019 0.16242985 0.15173952 -0.01676722 -0.15227772 -0.005954139
-0.2689098 0.10059462 0.2268519 -0.20907956 0.2172352 0.07716161 -0.18082567 -0.20020297
-0.25877815 -0.11208848 0.1825994 0.034845453 0.0393539 -0.052497797 0.10767684 -0.11576386
-0.075096525 -0.038350977 0.20869745 -0.03530564 0.05974032 -0.01860557 0.21369757 0.16047302
0.14006616 0.04901616 -0.20513535 -0.0057600816 -0.14242338 0.05455402 -0.009937538 -0.1661658
0.021763325 0.09895271 -0.18447632 0.16485874 0.069116265 -0.09591415 0.08349226 0.06960989
-0.12664807 0.20852424 -0.17167814 -0.06125549 -0.2132205 -0.036114078 0.045003574 -0.105047345
0.20741603 0.029800266 0.031507358 -0.20414771 -0.13605775 0.018660894 0.15639049 0.039568823
-0.0875912 -0.10454059 -0.23031831 -0.1288469 0.17052075 -0.1337587 0.18332516 0.14750955
0.06660422 0.13292794 -0.051183946 -0.071931474 0.033211768 -0.12661754 0.25727853 -0.10766585
0.12983914 -0.008494645 -0.14741635 -0.08153351 0.031995203 0.10056029 0.08858041 -0.24081816
0.23514858 -0.13511483 0.24987616 -0.2611551 -0.111417115 0.12238955 0.2068641 0.12418322
0.04819888 0.10557881 -0.11757484 0.2144492 0.21809453 0.23177107 -0.021164346 0.14332774
0.021510525 0.22015382 0.05182951 -0.21572499 -0.17650014 -0.23790987 -0.05994096 0.18414643
0.2067398 0.19735563 -0.045864284 -0.11057961 0.063977405 -0.2222566 -0.062439006 -0.24665682
-0.23288567 -0.18608159 0.1057182 0.16422118 0.23896608 -0.16714898 -0.16400388 0.17456253
00000000: cae7 903d b15c 913d 61bb 40be 607a 08be
00000010: c9e0 883d c84f 56be a78b 153e 84c0 13be
00000020: 395e aabd 937d 353e 9944 7cbe 5fa8 8c3e
00000030: 5cfc 64be dd42 0ebe b166 e6bd 0be3 4c3e
00000040: 7ae1 433e 9286 22be a8c3 96bd cf0e 933d
00000050: 0b2e 7cbe aaf6 21be 8c61 2b3e 5404 723e
00000060: 47cc 423e be4e e93d 9ba5 cc3d 8697 1e3e
00000070: fc58 c23d 0e7f 023b 8d55 a13c d761 783a
00000080: 98dc 39b9 0196 7ebe 2afa 743e 72a8 1b3e
00000090: cb4b bdbd c79c 6a3e 48c1 ce3d 2730 63be
000000a0: 5afe 9ebd 6f2e 763c 9195 2c3e 64f8 fabc
000000b0: 9d4d cf3c 6996 3e3e 5618 55be e477 1c3e
000000c0: c470 9cbd 0674 3e3e 4c74 7bbd 3515 d43c
000000d0: d9a6 4c3e b5cc 0bbe ec71 723e 71fe d7bc
000000e0: accf 183e d0a5 db3c 8f8e 80be e70e 04be
000000f0: 57bf 0bbe 0345 8fbd faa5 4fbe b3ae 6f3d
00000100: f123 16be 4f5d 6ebd 9fde 3ebe 68fb d7bc
00000110: 6b89 5ebd 9097 bfbd 1a76 d03c 5309 223e
00000120: 945d 20be cb01 3d3d 4748 15bd 95f5 6e3e
00000130: 8c35 0a3e f466 223e 7d81 04be 0eb8 26be
00000140: dc17 5abe 07ae 69bd 668c 32be 92f6 2d3e
00000150: 30e5 67be c9a4 103e c070 263e d07c d03d
00000160: 4305 a03c 393a 073e 746e 5abe a318 83be
00000170: 7b65 6ebe cb7d 323e 6cfa 043d 5ce3 793e
00000180: 4123 08bd 7cbe 16bd 5974 57be 5856 30bd
00000190: a61b cd3d 6c98 cabd 4062 533e e3ed 0e3d
000001a0: 4fac 81bc c5d5 5b3e ee5e 25be a27d 4d3d
000001b0: c31e debc 32ae ea3d ce2e 433e 3f85 78be
000001c0: 31b7 07be 48ac 243d fc64 2dbd 966b 24bd
000001d0: e698 21be 588f 2abe dd36 44be 7079 123e
000001e0: c5cc 51bd 455e 16be c0d0 193e 690c 1f3d
000001f0: 42b6 103e e2a1 1f3c 697f a63c b393 f03d
00000200: 86e8 81bd 89f7 723d fefb 7abe 0354 263e
00000210: 9b61 1b3e 695b 89bc b1ee 1bbe f01a c3bb
00000220: 8cae 89be 8d04 ce3d dd4b 683e f418 56be
00000230: e772 5e3e e806 9e3d 5d2a 39be 0202 4dbe
00000240: 927e 84be a58e e5bd 56fb 3a3e 1bba 0e3d
00000250: 8e31 213d ee07 57bd ad85 dc3d 9a15 edbd
00000260: 35cc 99bd ea15 1dbd c9b4 553e a69c 10bd
00000270: 44b2 743d b56a 98bc 89d3 5a3e 0a53 243e
00000280: 816d 0f3e 2bc5 483d 000f 52be 11bf bcbb
00000290: 6fd7 11be 0974 5f3d 0ed1 22bc 5e27 2abe
000002a0: 0049 b23c b8a7 ca3d 5ce7 3cbe bbd0 283e
000002b0: d48c 8d3d a36e c4bd fdfd aa3d a18f 8e3d
000002c0: 08b0 01be 6187 553e 65cc 2fbe 09e7 7abd
000002d0: 7a56 5abe 5bec 13bd ab55 383d 1023 d7bd
000002e0: de64 543e b01f f43c dc0d 013d 190c 51be
000002f0: b952 0bbe bbde 983c d424 203e eb12 223d
00000300: 0463 b3bd 6019 d6bd 90d8 6bbe 71f0 03be
00000310: fe9c 2e3e 0af8 08be 97b9 3b3e be0c 173e
00000320: cb67 883d 431e 083e 42a6 51bd cf50 93bd
00000330: 1009 083d 07a8 01be 03ba 833e ea7f dcbd
00000340: 8df4 043e 202d 0bbc 50f4 16be 0afb a6bd
00000350: 670d 033d 8ef2 cd3d a569 b53d 0999 76be
00000360: caca 703e 8b5b 0abe 89df 7f3e 1fb6 85be
00000370: a82e e4bd 5fa7 fa3d 2fd4 533e c653 fe3d
00000380: 306c 453d b439 d83d 14cb f0bd 9298 5b3e
00000390: 2c54 5f3e 6555 6d3e da60 adbc 82c4 123e
000003a0: d736 b03c 0170 613e 2e4b 543d 03e7 5cbe
000003b0: 74bc 34be a59e 73be a784 75bd e290 3c3e
000003c0: 99b3 533e 9817 4a3e 30dc 3bbd 9077 e2bd
000003d0: 9606 833d 3c97 63be 0bc0 7fbd 9b93 7cbe
000003e0: 9579 6ebe 2c8c 3ebe c982 d83d 9929 283e
000003f0: 86b3 743e 1a29 2bbe a2f0 27be 85c0 323e

linear2.bias f4 [3]
0.01818297 0.0091430005 -0.0062360666
00000000: 74f4 943c 86cc 153c eb57 ccbb

onnx::MatMul_12 f4 [14, 512]
0.112223215 -0.14155556 -0.242258 -0.042619973 0.07653346 -0.039389465 -0.24369718 0.07115123
-0.15686828 -0.09331819 -0.077845216 0.14698409 0.17770763 -0.18960865 -0.10353956 -0.19199508
0.04247286 0.20829505 0.1618318 0.068026006 0.15865612 0.25347123 -0.19129458 -0.15530743
-0.06954214 -0.042901225 0.16271438 -0.09327926 -0.003505469 -0.1801526 -0.07603091 -0.22467488
-0.082199864 0.08462299 0.06524433 -0.22196722 -0.24573585 -0.18207173 0.14864329 0.09588426
-0.2129446 0.09464531 -0.058343824 -0.10480392 -0.1148867 0.2257074 0.17236829 0.22590505
0.21192269 0.25780675 0.08735409 0.16257891 0.23195943 -0.20902672 0.14840207 0.05584642
-0.012080124 -0.23645061 -0.045886032 -0.1907046 -0.15323628 -0.21016127 -0.2556346 -0.012339031
0.25331625 -0.15123422 0.0037710362 -0.2632243 -0.08765595 0.19927223 -0.08112967 0.12903629
-0.12386836 0.24587074 -0.0021307655 -0.1155033 0.15860096 -0.12354562 -0.2412909 0.030026248
0.22870032 0.14466837 -0.060711965 -0.2438198 -0.22091016 0.16077936 0.017817168 -0.002661705
-0.046993934 -0.12122196 0.0280018 -0.08882332 0.024867646 -0.023203688 -0.12292969 0.03272326
-0.22100519 0.037409697 0.07889576 -0.0797785 -0.26302093 0.24290442 -0.23758022 -0.030219605
-0.21775767 0.21205957 -0.2078681 0.21240546 -0.11069205 -0.14504929 -0.2257505 0.010737467
-0.09745855 0.182138 0.060836375 0.11100457 0.16315252 -0.11940805 0.037246004 0.13739999
0.17585704 -0.14264235 -0.1551423 0.057423986 0.14794569 0.02617806 0.25828362 0.12956041
0.021872707 -0.00911399 -0.2323863 -0.257203 0.00041532778 -0.24206251 0.2637629 -0.1780833
0.22767243 0.10209553 0.05085998 -0.11740897 0.045432977 -0.108112395 0.10296667 0.057446554
0.2554921 0.2439444 0.03546632 0.15149717 0.21423873 -0.038319796 0.012170391 0.2676447
0.22211285 0.07807594 -0.19288397 -0.13425799 -0.18849993 0.07141685 0.2052592 -0.19992398
0.017407874 -0.25803164 0.17642239 -0.19879624 0.2731615 -0.11346131 0.048467297 0.03987959
-0.1012094 -0.2560979 -0.117509514 -0.06800924 -0.20917039 -0.10667284 -0.20379174 -0.19795635
0.06290198 0.01898316 0.021522343 0.16412088 -0.12856418 0.17869352 -0.0318274 0.044253547
-0.07363018 0.06439954 0.17060132 -0.25976366 -0.054310635 -0.12426826 0.08003694 0.26192677
-0.07540248 0.115299284 0.21613288 0.039500542 -0.23311998 0.051574588 -0.034232944 -0.13543321
0.25203782 0.2375445 -0.04137343 0.16805474 0.0004328345 -0.15653843 0.23154579 0.2183737
-0.02676594 -0.007530678 0.10813607 0.09421517 -0.061139625 0.06289975 0.116626404 -0.05999989
0.2066543 -0.011835972 0.25790417 -0.05630602 -0.23741557 0.033850834 -0.1231257 0.14560023
-0.26659304 -0.04131709 0.03449491 -0.025050063 0.12524976 0.12040758 0.18881603 -0.21019161
-0.14556223 0.14284053 -0.075836346 -0.16576695 -0.2443869 0.10953781 0.10277394 -0.13609697
0.23297688 -0.005525477 -0.185669 0.08478668 0.16631632 0.20995463 -0.09424483 0.10940971
-0.13009799 0.11805858 -0.031683173 -0.05955064 -0.007450287 0.19876182 0.19117616 -0.15075928
00000000: 49d5 e53d f1f3 10be 7b12 78be 4892 2ebd
00000010: 93bd 9c3d d956 21bd c18b 79be bcb7 913d
00000020: 14a2 20be 9b1d bfbd 506d 9fbd ff82 163e
00000030: fdf8 353e c528 42be 8d0c d4bd 5c9a 44be
00000040: 06f8 2d3d 4c4b 553e 3cb7 253e 3851 8b3d
00000050: c076 223e fbc6 813e bae2 43be e908 1fbe
00000060: 1c6c 8ebd 32b9 2fbd 999e 263e 3209 bfbd
00000070: 03bc 65bb ec79 38be 18b6 9bbd 2c11 66be
00000080: 6758 a8bd d14e ad3d d29e 853d 604b 63be
00000090: 2ea2 7bbe 0371 3abe f235 183e f85e c43d
000000a0: 260e 5abe 66d5 c13d eff9 6ebd 70a3 d6bd
000000b0: b849 ebbd d71f 673e 5081 303e a753 673e
000000c0: 4302 593e 3fff 833e b3e6 b23d 167b 263e
000000d0: c686 6d3e 1a0b 56be b6f6 173e 37bf 643d
000000e0: b6eb 45bc 1c20 72be fef2 3bbd 1148 43be
000000f0: f9e9 1cbe 8434 57be 8ae2 82be a629 4abc
00000100: abb2 813e 25dd 1abe 7d23 773b 56c5 86be
00000110: f684 b3bd 050e 4c3e 5027 a6bd 1722 043e
00000120: b2ae fdbd 8ac5 7b3e 50a4 0bbb ff8c ecbd
00000130: 4a68 223e 7c05 fdbd f614 77be 9bf9 f53c
00000140: 6b30 6a3e f223 143e 1cad 78bd e6ab 79be
00000150: 4636 62be 58a3 243e 4ff5 913c 0070 2ebb
00000160: b67c 40bd 3843 f8bd 0864 e53c 00e9 b5bd
00000170: 3cb7 cb3c a915 bebc 90c2 fbbd d308 063d
00000180: 2f4f 62be e93a 193d 1a94 a13d e962 a3bd
00000190: aeaa 86be f0bb 783e 3b48 73be 1b8f f7bc
000001a0: defb 5ebe 2526 593e 60db 54be d180 593e
000001b0: 83b2 e2bd cd87 14be 242b 67be 33ec 2f3c
000001c0: 5998 c7bd 6282 3a3e 902f 793d 5d56 e33d
000001d0: 7411 273e 358c f4bd 448f 183d 95b2 0c3e
000001e0: de13 343e d610 12be a0dd 1ebe 6a35 6b3d
000001f0: 137f 173e 5f73 d63c c03d 843e 7cab 043e
00000200: 642e b33c d852 15bc adf6 6dbe 1db0 83be
00000210: 5ac0 d939 3cdf 77be ee0b 873e 785b 36be
00000220: f622 693e 7617 d13d 8e52 503d 1d74 f0bd
00000230: ee17 3a3d 086a ddbd 31e0 d23d 144d 6b3d
00000240: dccf 823e 90cc 793e 2245 113d 1322 1b3e
00000250: 6661 5b3e 38f5 1cbd 5266 473c ba08 893e
00000260: 8d71 633e 47e6 9f3d 6083 45be ed7a 09be
00000270: 2006 41be ff42 923d 782f 523e dfb8 4cbe
00000280: f59a 8e3c b91c 84be 12a8 343e 3e91 4bbe
00000290: d3db 8b3e 675e e8bd a585 463d c858 233d
000002a0: e046 cfbd 441f 83be d4a8 f0bd 6e48 8bbd
000002b0: c330 56be 4a77 dabd c8ae 50be 12b5 4abe
000002c0: c1d2 803d 9282 9b3c a04f b03c 4e0f 283e
000002d0: 54a6 03be 6ffb 363e 735d 02bd 3543 353d
000002e0: 6bcb 96bd e8e3 833d 1db2 2e3e beff 84be
000002f0: d474 5ebd 5c80 febd 68ea a33d 441b 863e
00000300: 9e6c 9abd 0822 ec3d f051 5d3e 52cb 213d
00000310: 01b7 6ebe e03f 533d d837 0cbd 01af 0abe
00000320: 1a0b 813e de3e 733e 3077 29bd 8b16 2c3e
00000330: 10ee e239 9c4b 20be 571a 6d3e 5b9d 5f3e
00000340: 3f44 dbbc e8c3 f6bb 7276 dd3d e2f3 c03d
00000350: 8b6d 7abd 96d1 803d d3d9 ee3d 72c2 75bd
00000360: 2f9d 533e aaeb 41bc 040c 843e 24a1 66bd
00000370: 111d 73be 2ca7 0a3d 5429 fcbd 3a18 153e
00000380: e27e 88be 1c3c 29bd 894a 0d3d ca35 cdbc
00000390: 7941 003e 4098 f63d fd58 413e 783c 57be
000003a0: 440e 15be ca44 123e 1650 9bbd d0be 29be
000003b0: 8f40 7abe 5c55 e03d 257b d23d 015d 0bbe
000003c0: 7e91 6e3e 100f b5bb 0420 3ebe a4a4 ad3d
000003d0: d34e 2a3e 59fe 563e 6f03 c1bd 3312 e03d
000003e0: 6838 05be b2c8 f13d 37c6 01bd 5feb 73bd
000003f0: 8a21 f4bb 3888 4b3e afc3 433e a460 1abe

onnx::MatMul_13 f4 [512, 3]
0.0006672449 0.005189184 -0.02349442 -0.015768427 -0.046736356 0.0016326632 -0.005315076 -0.0022700655
-0.034683917 -0.0071207853 -0.024163932 0.018764015 0.016362207 -0.03138243 -0.00883586 -0.047913406
0.023700742 0.03484882 -0.015915608 0.01564818 -0.045697328 -0.021465259 0.0037531927 -0.018448371
0.004283725 -0.0054884423 0.028636798 -0.027447581 -0.0006960815 -0.032687083 0.011096625 -0.010587567
0.030043967 -0.004983374 -0.03681243 -0.019807473 0.012469741 -0.037655942 -0.023178263 0.009973838
-0.013839744 0.013653834 -0.015245355 0.014159325 0.028468242 0.031907186 0.02133946 -0.03694408
0.03193705 -0.040918663 0.016304329 -0.04151358 -0.040152818 -0.028856017 -0.0036713383 -0.022096053
0.021993792 -0.0203487 0.034654357 -0.021421535 0.027172562 -0.017668929 -0.010891438 0.027672179
-0.021822486 -0.009178452 0.029710257 -0.04206729 0.03535602 -0.008982739 0.031105466 -0.0124310665
0.024919553 -0.048124764 -0.04107054 -0.045646805 -0.018469483 -0.012123057 -0.043278214 0.004361803
-0.032283157 -0.049039777 0.013580398 -0.001096382 0.006928661 -0.034901943 -0.013646576 0.0047744326
-0.033550255 -0.04706966 -0.031058712 -0.015803566 -0.050132424 -0.012919243 -0.0068574636 -0.049424823
0.02317811 0.02702707 -0.046842933 -0.014782597 -0.021263057 -0.0048666187 0.03194622 0.024267098
0.030309329 -0.008230857 0.0069004335 -0.019722778 -0.045268953 0.007289742 0.015997242 -0.010964949
-0.04197717 0.024003858 -0.009068713 0.022983406 0.022862602 -0.028527593 0.009351719 -0.0456263
0.02119995 -0.007015817 -0.009928592 -0.0100188935 0.018219266 -0.014657065 -0.042983 0.038797412
-0.021989994 0.018392172 -0.01818511 0.029477807 0.012307934 -0.01402111 0.02386742 -0.031612482
0.024910014 -0.011105246 -0.00877155 -0.018412398 -0.043872025 -0.023279585 0.020218475 0.0014493486
-0.016193368 0.007164601 0.010531435 -0.000792735 -0.0155547215 -0.044735003 0.016470341 0.026593078
0.005677063 -0.0314153 -0.019970858 0.025218735 -0.0068024914 -0.0023609793 -0.01794807 0.010759723
0.03314764 0.0043335445 0.018110674 -0.012704566 0.016504355 0.03031691 0.026444275 -0.027119715
0.023651699 -0.004116958 0.020776084 0.027754832 0.03435821 -0.020985546 -0.029197652 0.032870166
-0.037854265 0.038281385 0.0054883934 -0.032383062 -0.024000183 0.039898932 -0.0058313827 0.034192767
-0.022389466 -0.03793349 -0.00033716823 -0.028086554 0.027237589 -0.047798764 -0.045847196 0.0036061767
-0.02057654 0.029087292 -0.029989481 0.02009853 -0.0040105158 -0.02599601 0.0201496 -0.005145141
-0.027922725 0.042524222 -0.036211208 -0.012471963 0.012130765 -0.004535119 0.022837894 -0.0022270915
-0.012519871 0.018689701 -0.01141717 0.0036520779 -0.037414756 0.025989516 0.006975006 0.0070416746
-0.021767918 -0.02028784 -0.0014059283 -5.7115336e-05 -0.021019941 0.013570743 -0.035983767 0.023483606
-0.04323585 0.02427351 0.008264418 0.007584338 -0.026826456 -0.0028432352 -0.021702344 0.030251782
0.008668377 -0.0064178184 -0.01925653 0.044324357 0.026583022 0.033906247 -0.016296374 -0.026558409
-0.048233997 0.038152967 0.009884808 -0.048585575 0.018382318 0.0005003336 0.0108863 -0.03467977
0.00038012746 -0.026475674 -0.019435976 -0.002958181 -0.008058418 -0.030263165 0.029014368 0.01823381
00000000: 0cea 2e3a 080a aa3b 5f77 c0bc ca2c 81bc
00000010: 9f6e 3fbd 16ff d53a 172a aebb 61c5 14bb
00000020: b910 0ebd 7a55 e9bb 70f3 c5bc feb6 993c
00000030: 090a 863c dd8a 00bd 48c4 10bc d940 44bd
00000040: 0f28 c23c a3bd 0e3d 7361 82bc 9d30 803c
00000050: 1f2d 3bbd e9d7 afbc 20f8 753b 0a21 97bc
00000060: 7d5e 8c3b 64d8 b3bb b897 ea3c c0d9 e0bc
00000070: 3d79 36ba e4e2 05bd 9ece 353c 7a77 2dbc
00000080: c41e f63c 924b a3bb a1c8 16bd 4843 a2bc
00000090: e24d 4c3c 1e3d 1abd 57e0 bdbc 4f69 233c
000000a0: 18c0 62bc 55b4 5f3c a7c7 79bc 83fc 673c
000000b0: 3b36 e93c 1cb1 023d 17d0 ae3c ad52 17bd
000000c0: 6dd0 023d 549a 27bd a890 853c 250a 2abd
000000d0: 4877 24bd 7463 ecbc d69a 70bb c802 b5bc
000000e0: 532c b43c 51b2 a6bc baf1 0d3d 377c afbc
000000f0: fe98 de3c 6ebe 90bc 0172 32bc c4b0 e23c
00000100: 12c5 b2bc 3861 16bc ed62 f33c c04e 2cbd
00000110: 79d1 103d 572c 13bc e4d0 fe3c acab 4bbc
00000120: 1724 cc3c 791e 45bd 9539 28bd 25f8 3abd
00000130: 504d 97bc c99f 46bc 7f44 31bd 75ed 8e3b
00000140: 583b 04bd efdd 48bd 5180 5e3c 7ab4 8fba
00000150: d209 e33b 57f5 0ebd e395 5fbc d872 9c3b
00000160: fe6b 09bd 1ecc 40bd d76e febc 7b76 81bc
00000170: a857 4dbd 3cab 53bc 93b4 e0bb af71 4abd
00000180: 05e0 bd3c e067 dd3c 60de 3fbd b532 72bc
00000190: dd2f aebc 2878 9fbb 0ada 023d cbcb c63c
000001a0: 454b f83c b7da 06bc 081d e23b aa91 a1bc
000001b0: f06b 39bd cade ee3b a60c 833c 54a6 33bc
000001c0: 41f0 2bbd bda3 c43c f094 14bc b247 bc3c
000001d0: 5a4a bb3c b3b2 e9bc f437 193c a5e2 3abd
000001e0: 84ab ad3c f0e4 e5bb 88ab 22bc 4926 24bc
000001f0: 9240 953c 3024 70bc f10e 30bd 09ea 1e3d
00000200: 5c24 b4bc 2eab 963c f1f8 94bc 717b f13c
00000210: 38a7 493c ccb8 65bc 9c85 c33c 177c 01bd
00000220: 1610 cc3c c7f2 35bc 8cb6 0fbc 99d5 96bc
00000230: 27b3 33bd d4b4 bebc 37a1 a53c 12f8 bd3a
00000240: f4a7 84bc 07c5 ea3b 0a8c 2c3c 8ccf 4fba
00000250: 3bd9 7ebc 0d3c 37bd cfec 863c bad9 d93c
00000260: a806 ba3b 54ad 00bd ed99 a3bc 8597 ce3c
00000270: 6fe7 debb a9ba 1abb d507 93bc 8d49 303c
00000280: d2c5 073d 6800 8e3b d65c 943c d026 50bc
00000290: 2434 873c 2b5b f83c aaa1 d83c 2a2a debc
000002a0: 35c1 c13c 8ce7 86bb 9b32 aa3c 1a5e e33c
000002b0: 32bb 0c3d e1e9 abbc ea2f efbc dea2 063d
000002c0: 130d 1bbd f1cc 1c3d fbd7 b33b 1aa4 04bd
000002d0: 089c c4bc 106d 233d 2f15 bfbb b70d 0c3d
000002e0: 1d6a b7bc 2660 1bbd f4c5 b0b9 c615 e6bc
000002f0: 5d21 df3c a3c8 43bd 45ca 3bbd 9b55 6c3b
00000300: 2290 a8bc 7948 ee3c 80ac f5bc aca5 a43c
00000310: a56a 83bb 96f5 d4bc c610 a53c 9298 a8bb
00000320: 33be e4bc e12d 2e3d 3452 14bd 3457 4cbc
00000330: 1ec0 463c 569b 94bb 8916 bb3c 65f4 11bb
00000340: 2520 4dbc 251b 993c 150f 3bbc b357 6f3b
00000350: 3740 19bd f7e7 d43c 978e e43b d9bd e63b
00000360: a252 b2bc af32 a6bc 2047 b8ba 208f 6fb8
00000370: 0332 acbc d257 5e3c b763 13bd b160 c03c
00000380: 1318 31bd 3dd9 c63c 7b67 073c 0a86 f83b
00000390: 28c3 dbbc 9255 3abb 1dc9 b1bc 96d2 f73c
000003a0: cf05 0e3c 904c d2bb dfbf 9dbc 758d 353d
000003b0: a3c4 d93c 47e1 0a3d f97f 85bc 0591 d9bc
000003c0: 0391 45bd 4946 1c3d e4f3 213c ab01 47bd
000003d0: 8496 963c d228 033a 745c 323c 600c 0ebd
000003e0: d84b c739 83e3 d8bc 3238 9fbc 0bde 41bb
000003f0: 7407 04bc 75ea f7bc 8aaf ed3c 125f 953c
