models/model.onnx (onnx, 37455 bytes, 4 tensors)

linear1.bias f4 [512]
0.0035220496 -0.9612391 -0.2820905 -0.34449023 -0.18553099 -0.19988485 -3.091751 -0.6709521
-0.28996477 -0.20048928 -0.3997524 -0.062602215 -0.76718074 -2.4679751 -0.14514941 -0.05647857
-0.18491153 -3.5912566 -0.07828624 -1.295448 -1.7499495 -1.3736778 -0.12425536 -0.16788526
-0.9488455 7.2993407 -0.2595847 -0.3153787 -0.37530306 0.20200191 -0.173092 -0.5949243
-2.5849416 -0.29816365 -0.23763788 -0.1770452 -0.27509654 -0.3830392 -0.3994926 -1.0953486
-0.33681616 -0.41495264 -0.30531806 -0.26380333 -0.7234486 -0.27902484 -0.2857949 -0.22659296
-0.9013588 -0.4741577 1.6361595 -4.0327435 -2.6612878 -0.22661376 -0.3807381 -0.54127455
-0.40201944 -0.4217493 0.2754649 -2.7513282 -0.6972198 -0.38039896 -0.12548745 -1.1319662
-2.7508283 -0.44249916 -0.55481106 -0.40445775 -0.42678797 -0.27676633 -0.10564604 -0.31926942
-0.27152678 -0.28507394 -0.22343445 -0.19736011 0.016422108 -0.13848923 0.52642715 -0.4130299
-0.45869166 -0.7999509 -0.37744308 -0.799814 -0.34039274 -0.5216945 -1.1155081 -0.5186198
-0.36351165 -0.22538073 -3.8552923 -0.046970416 -0.40107778 -0.3491082 -0.17767872 -0.41337287
-0.46092963 -0.13405606 -0.3855603 -0.7929665 -0.08795977 -3.0184548 -0.06019155 -0.18923035
-0.84209156 -0.34287152 -0.39249954 -0.14286746 -2.7189863 -0.40552232 -0.076655366 -0.20406558
-0.28379604 -0.45857444 -0.40441084 -1.2380812 -0.3809121 -0.13610302 -3.8120914 -0.8086553
-0.19233684 -2.513064 -0.4091388 -1.749739 -1.9108248 -0.32820225 -1.8064877 -0.5199824
-0.050087374 -1.3865733 -0.28320867 -0.19298787 -0.14245093 -0.19772011 -0.059163086 -0.47651857
-3.2303753 -0.44438493 -0.31008643 -1.0533619 -0.7744568 0.53804916 -0.2611667 -1.8078789
-0.53005713 -0.28770778 -0.4355689 0.013079147 -0.42934525 -0.0039899526 -2.1977575 -0.109682344
-0.4610366 0.3983808 -1.060306 -0.7044128 -2.227075 -1.9186761 -0.26987913 -0.96455765
-0.35905316 -0.361386 -0.28200638 -3.954232 -0.67487544 -0.3507378 -0.46783906 -0.22055341
-0.6385233 -3.4105685 -0.51476586 0.0052377516 -0.87506783 -1.0848732 -0.21984686 -1.2204043
-0.26497045 -0.41711438 0.26522574 -0.19526991 -1.2018487 -0.35933518 -0.053267404 -0.54795146
-0.3774832 -0.21727358 -0.0023895986 -0.28528172 -0.89472985 6.9049745 -4.4993286 -0.24943623
-0.4822293 -0.37108898 -0.8449156 -0.74592197 -0.4537058 -0.28016153 -6.5969763 -1.3489759
-0.33071008 -0.27160048 -0.26430097 -1.4700732 -0.5024857 -1.1562227 -3.7320144 -0.15084499
-1.8969629 -0.49903384 0.08931523 -0.13876142 -0.033998966 -0.1791849 -1.650334 -0.5156234
-0.40242934 -0.2273546 -0.58416677 -0.27245942 -0.31175894 -1.1177714 -3.3819234 -0.3253422
-0.16567336 -0.5320556 -0.2823965 -4.502941 -0.19998589 -0.0625173 -0.08801813 -0.34518567
-1.1580766 -0.4649677 -0.08476819 -0.3828047 -0.07993991 -0.7462028 -0.6028758 -0.07854482
-0.37291294 -0.3358331 -1.2667183 -0.7417293 -1.2801224 -0.5769303 -0.31978545 -0.44333985
-0.90095794 -0.20285691 -0.44086292 -0.2320689 -3.43598 -0.57135344 -0.62003386 -0.7234634
00000000: 30d2 663b c413 76bf 2b6e 90be 0661 b0be
00000010: d6fb 3dbe 9dae 4cbe 40df 45c0 84c3 2bbf
00000020: 4376 94be 104d 4dbe 59ac ccbe 9735 80bd
00000030: f565 44bf 4ef3 1dc0 0ca2 14be 1356 67bd
00000040: 7359 3dbe 26d7 65c0 8954 a0bd 3dd1 a5bf
00000050: 58fe dfbf add4 afbf 9879 febd 1dea 2bbe
00000060: 8ae7 72bf 3394 e940 49e8 84be 5179 a1be
00000070: b927 c0be 97d9 4e3e 073f 31be f54c 18bf
00000080: af6f 25c0 e8a8 98be 5857 73be 564b 35be
00000090: 74d9 8cbe b71d c4be 4b8a ccbe 6234 8cbf
000000a0: 2b73 acbe ac74 d4be a652 9cbe 3b11 87be
000000b0: ed33 39bf 58dc 8ebe b653 92be fc07 68be
000000c0: 73bf 66bf ccc4 f2be ad6d d13f 3c0c 81c0
000000d0: 8a52 2ac0 700d 68be 1bf0 c2be f890 0abf
000000e0: 7ed5 cdbe 86ef d7be bc09 8d3e c315 30c0
000000f0: ff7c 32bf a7c3 c2be c87f 00be 45e4 90bf
00000100: 920d 30c0 408f e2be 1908 0ebf 1615 cfbe
00000110: f483 dabe 51b4 8dbe f35c d8bd 4877 a3be
00000120: 8f05 8bbe 36f5 91be 00cc 64be c518 4abe
00000130: a887 863c 1fd0 0dbe eec3 063f a878 d3be
00000140: a2d9 eabe 95c9 4cbf 3840 c1be 9cc0 4cbf
00000150: f547 aebe c58d 05bf f8c8 8ebf 44c4 04bf
00000160: 331e babe 35ca 66be 1cbd 76c0 0d64 40bd
00000170: 115a cdbe 4fbe b2be 69f1 35be 9ca5 d3be
00000180: f8fe ebbe fe45 09be 2968 c5be daff 4abf
00000190: 4024 b4bd 5d2e 41c0 6a8b 76bd 9ac5 41be
000001a0: 5093 57bf db8c afbe b3f5 c8be d94b 12be
000001b0: df03 2ec0 9fa0 cfbe 7dfd 9cbd 91f6 50be
000001c0: b74d 91be 45ca eabe f00e cfbe 7279 9ebf
000001d0: e906 c3be 975e 0bbe 4ef9 73c0 0904 4fbf
000001e0: f3f3 44be 0ad6 20c0 a47a d1be 73f7 dfbf
000001f0: e895 f4bf 200a a8be fd3a e7bf 911d 05bf
00000200: 6b28 4dbd 3c7b b1bf ba00 91be 9d9e 45be
00000210: a8de 11be 2477 4abe fe54 72bd 3efa f3be
00000220: 78be 4ec0 6c86 e3be a6c3 9ebe 90d4 86bf
00000230: cd42 46bf 97bd 093f a4b7 85be 9368 e7bf
00000240: d3b1 07bf 6f4e 93be e302 dfbe eb49 563c
00000250: 24d3 dbbe 26be 82bb 0fa8 0cc0 23a1 e0bd
00000260: fd0c ecbe 91f8 cb3e 1bb8 87bf 6654 34bf
00000270: 6688 0ec0 2e97 f5bf 992d 8abe 40ed 76bf
00000280: d1d5 b7be 9607 b9be 2463 90be 2312 7dc0
00000290: a3c4 2cbf e893 b3be 9a88 efbe c1d8 61be
000002a0: 4376 23bf c146 5ac0 b2c7 03bf 72a1 ab3b
000002b0: 7204 60bf 20dd 8abf 891f 61be 3536 9cbf
000002c0: 35aa 87be 0490 d5be abcb 873e d6f4 47be
000002d0: 2ed6 99bf c8fa b7be ec2e 5abd 8c46 0cbf
000002e0: 7a45 c1be f77c 5ebe d09a 1cbb 7210 92be
000002f0: 040d 65bf 8df5 dc40 80fa 8fc0 366c 7fbe
00000300: c2e6 f6be 60ff bdbe 644c 58bf bef4 3ebf
00000310: 204c e8be 5571 8fbe 6e1a d3c0 3eab acbf
00000320: d552 a9be 380f 8bbe 7552 87be 5c2b bcbf
00000330: e7a2 00bf 1bff 93bf 53d9 6ec0 1c77 1abe
00000340: aecf f2bf 5d81 ffbe e7ea b63d 7917 0ebe
00000350: 8042 0bbd 3f7c 37be 253e d3bf e5ff 03bf
00000360: 380b cebe a5cf 68be f48b 15bf cd7f 8bbe
00000370: de9e 9fbe 2213 8fbf 6f71 58c0 4193 a6be
00000380: 47a6 29be cc34 08bf 4696 90be 1818 90c0
00000390: 1ac9 4cbe 1209 80bd d942 b4bd 2dbc b0be
000003a0: db3b 94bf 3f10 eebe f29a adbd fafe c3be
000003b0: 89b7 a3bd 2607 3fbf 1256 1abf 1bdc a0bd
000003c0: 72ee bebe 51f2 abbe d323 a2bf f9e1 3dbf
000003d0: 0ddb a3bf b4b1 13bf ebba a3be 71fd e2be
000003e0: 2ea5 66bf b9b9 4fbe c9b8 e1be 78a3 6dbe
000003f0: 19e7 5bc0 3844 12bf 8aba 1ebf e634 39bf

linear2.bias f4 [3]
4.8460693 0.5735208 -1.1865664
00000000: 0013 9b40 42d2 123f 68e1 97bf

onnx::MatMul_12 f4 [14, 512]
0.073270656 0.75213224 0.17981485 -0.14407495 -0.18622302 0.040743433 -3.3356373 -0.8200119
0.17107877 -0.44786733 -0.3152843 -0.30086926 -0.35238153 0.97843015 -0.06874495 -0.08199496
0.055401217 -1.4980333 -0.14061515 -0.863566 -0.39387986 0.24525973 -0.21042988 -0.174772
-0.6134012 -1.1099992 -0.109318584 -0.2363522 -0.5392806 -0.49083003 -0.45220178 -0.36906528
-0.6657146 0.2884294 -0.013006404 -0.16935246 -0.38633633 -0.33105826 -0.1895472 -1.1886905
-0.3688112 0.040096276 -0.4195424 -0.15682425 -1.21182 -0.06584447 -0.6140734 -0.043914214
-0.4610185 0.019545658 1.0694467 -3.0865462 2.5135992 -0.71993595 -0.31917518 -0.2920484
0.07540938 -0.4548661 0.5324969 -1.8682364 -0.21125722 -0.63415354 0.03407614 -0.9370754
-2.1289592 -1.7645036 -0.26570722 -0.1156752 -0.13485779 -0.19119465 -0.40998802 -0.39095446
-0.31176713 -0.14767514 -0.098079726 -0.089825146 -0.6718503 -0.1077244 0.019223433 -0.34784466
1.5406387 0.19336191 -0.12119506 -1.8730291 0.039304785 -0.08844009 -0.6465221 -0.07940841
-0.22504708 -0.31965622 0.33822864 -0.08527558 0.029749738 0.28640044 0.01930066 0.15426391
-0.66978055 -0.42898953 -0.015776547 -0.6802688 -0.00752256 -1.7498779 -0.16973451 0.03425744
-0.80837864 0.01703024 -0.22841743 -0.32123688 0.25305486 0.15235831 -0.18561439 -0.31845018
-0.3427833 -0.57732695 -0.30851066 -0.9011824 -0.40459144 0.24153247 0.002746544 0.17197073
-0.054879405 -1.7227238 -0.96182245 0.55759096 -1.7955086 -0.6489765 -0.39953747 -0.30413073
-0.14427501 -0.69429636 -0.3080005 0.004665427 -0.06670292 0.020941282 -0.39286098 0.18769643
-1.1936567 -0.26029906 0.011505032 -0.31729424 -0.853897 -0.29656613 0.41300374 -1.9142405
0.21216345 -0.032166127 -0.20330878 -0.4902171 0.08609281 2.0581965 -1.0655158 -0.2266502
0.49047306 -0.84084105 -0.9121174 0.4187007 1.0127575 0.25159058 -0.074323446 0.9884006
-0.007192304 -0.44601893 0.046454906 -0.1792873 0.054127343 0.1541585 -0.4358639 -0.08033215
-0.2834917 -1.5426894 0.17184916 -0.1852721 -1.1658716 -1.2887717 -0.121504754 0.62718064
-0.010982409 0.07945719 -0.41415215 0.061652943 -0.6182671 0.123368494 0.016816577 0.045774832
0.08658726 -0.065690316 -0.00061734935 -0.20101966 1.3762187 -1.6109223 -2.2246792 0.10258947
-1.0809942 0.13163984 -1.458695 -2.3882992 -0.41096008 -0.33801532 -0.18267648 -0.124678366
0.21270125 -0.09532274 -0.02254338 1.9128709 0.32605878 -0.42609754 -1.9519622 -0.35648805
-0.9073325 -0.022032304 -0.1275302 -0.18411909 -0.026794223 -0.48394498 -0.95753926 0.051205125
-0.23323052 -0.16477984 -0.21994472 -0.26489928 -0.02238155 -2.438174 -1.6997052 -0.40719765
0.081942864 -0.31768036 -0.47612438 -1.5985291 -0.434954 -0.42355245 -0.12802307 -0.153653
-0.43865138 -0.60906357 -0.0060623023 -0.29079568 -0.011071292 -0.10716383 -0.16519284 -0.019596584
0.22336689 -0.33103263 -0.47483528 -0.6314154 -1.8085968 0.13784328 0.11747116 -0.2134823
0.04247781 0.0033471824 0.19569118 -0.43859616 -0.500635 -0.014354798 0.10454033 -0.26483306
00000000: ed0e 963d bd8b 403f 6221 383e 6288 13be
00000010: 3fb1 3ebe 96e2 263d 157b 55c0 4dec 51bf
00000020: 462f 2f3e de4e e5be f26c a1be 890b 9abe
00000030: 5a6b b4be 667a 7a3f 27ca 8cbd f9ec a7bd
00000040: 63ec 623d 8ebf bfbf 6bfd 0fbe a912 5dbf
00000050: 9faa c9be 5e25 7b3e ee7a 57be 6ef7 32be
00000060: dc07 1dbf 7414 8ebf 6ce2 dfbd 5006 72be
00000070: 4b0e 0abf 134e fbbe fe86 e7be 20f6 bcbe
00000080: 466c 2abf 05ad 933e d018 55bc bb6a 2dbe
00000090: e0cd c5be 7880 a9be a918 42be 0327 98bf
000000a0: d2d4 bcbe fe3b 243d 43ce d6be 8996 20be
000000b0: eb1c 9bbf 77d9 86bd ea33 1dbf 64df 33bd
000000c0: 9e0a ecbe 371e a03c a1e3 883f f989 45c0
000000d0: cfde 2040 b94d 38bf ee6a a3be 5e87 95be
000000e0: 3c70 9a3d 36e4 e8be b851 083f 5f22 efbf
000000f0: d053 58be e357 22bf 6c93 0b3d 2ce4 6fbf
00000100: de40 08c0 41db e1bf c70a 88be 1fe7 ecbd
00000110: 2918 0abe 88c8 43be f3e9 d1be 2f2b c8be
00000120: f19f 9fbe 2738 17be 06de c8bd 3ff6 b7bd
00000130: 62fe 2bbf 9c9e dcbd 767a 9d3c b218 b2be
00000140: a633 c53f aa00 463e 1e35 f8bd 6bbf efbf
00000150: 0efe 203d 1420 b5bd 7982 25bf e0a0 a2bd
00000160: be72 66be fba9 a3be 4e2c ad3e f7a4 aebd
00000170: b9b5 f33c 14a3 923e 6b1c 9e3c 5cf7 1d3e
00000180: bd76 2bbf 84a4 dbbe d13d 81bc 1926 2ebf
00000190: cf7f f6bb 00fc dfbf e2ce 2dbe 8851 0c3d
000001a0: e7f1 4ebf 0083 8b3c 42e6 69be 2979 a4be
000001b0: 6890 813e d103 1c3e b311 3ebe e70b a3be
000001c0: 4b81 afbe b3cb 13bf 1cf5 9dbe e4b3 66bf
000001d0: 9c26 cfbe 4a54 773e 5dff 333b 1819 303e
000001e0: 3ac9 60bd 3782 dcbf ff39 76bf 48be 0e3f
000001f0: 3ad3 e5bf 5323 26bf 2d90 ccbe 06b7 9bbe
00000200: d4bc 13be 68bd 31bf 3eb2 9dbe 70e0 983b
00000210: 8a9b 88bd 0d8d ab3c 1325 c9be 7e33 403e
00000220: bec9 98bf eb45 85be 9a7f 3c3c 6474 a2be
00000230: fe98 5abf 84d7 97be 3a75 d33e d505 f5bf
00000240: 6041 593e a1c0 03bd 2d30 50be bcfd fabe
00000250: 6d51 b03d 7eb9 0340 d262 88bf fd16 68be
00000260: 491f fb3e 5c41 57bf 8780 69bf f05f d63e
00000270: 0aa2 813f 7bd0 803e e436 98bd d207 7d3f
00000280: 6bad ebbb 985c e4be 8047 3e3d 1797 37be
00000290: a2b4 5d3d badb 1d3e 8e29 dfbe 2f85 a4bd
000002a0: d325 91be d976 c5bf 3af9 2f3e f8b7 3dbe
000002b0: 483b 95bf 79f6 a4bf 7cd7 f8bd e98e 203f
000002c0: 90ef 33bc 74ba a23d c00b d4be cc87 7c3d
000002d0: c146 1ebf 9fa8 fc3d ebc2 893c 647e 3b3d
000002e0: a954 b13d a588 86bd 9dd5 21ba 19d8 4dbe
000002f0: ef27 b03f b432 cebf 2561 0ec0 6e1a d23d
00000300: 055e 8abf 98cc 063e 85b6 babf e5d9 18c0
00000310: 5c69 d2be 5810 adbe 8b0f 3bbe 5f57 ffbd
00000320: 5bce 593e 9238 c3bd e5ac b8bc f4d8 f43f
00000330: 2df1 a63e 7529 dabe e6d9 f9bf 9a85 b6be
00000340: f146 68bf 177d b4bc 4797 02be b789 3cbe
00000350: 8f7f dbbc a3c7 f7be 4b21 75bf 77bc 513d
00000360: fbd3 6ebe 0cbc 28be 3039 61be e1a0 87be
00000370: 8359 b7bc 0b0b 1cc0 f18f d9bf 367c d0be
00000380: a9d1 a73d 00a7 a2be 93c6 f3be 9a9c ccbf
00000390: 4ab2 debe dedb d8be 7b18 03be 3657 1dbe
000003a0: ea96 e0be 97eb 1bbf 47a6 c6bb 2ce3 94be
000003b0: 5d64 35bc b678 dbbd 5028 29be 0489 a0bc
000003c0: 4aba 643e 1c7d a9be 9c1d f3be 71a4 21bf
000003d0: 1a80 e7bf ca26 0d3e b894 f03d 1b9b 5abe
000003e0: 36fd 2d3d 675c 5b3b 4563 483e ad8f e0be
000003f0: 9e29 00bf 6330 6bbc 3e19 d63d 3398 87be

onnx::MatMul_13 f4 [512, 3]
0.020621365 -0.0001981376 0.015517694 0.8442243 -0.0038418598 -0.42177182 0.18216002 0.11768075
0.12000173 0.07244245 0.09048786 0.0022811203 0.026205746 0.004037672 -0.120892614 -0.036297493
-0.00449911 -0.011152094 -0.34957162 -0.06538523 -0.70035666 -0.051332146 -0.059067883 4.872799e-06
-0.0024083485 0.032117113 -0.004709318 0.030279 -0.01789983 0.05233317 0.0076186857 0.055681795
-0.032069866 -0.02901915 0.11030051 -0.102705106 -0.031185383 0.009361604 -0.0044381917 -0.49309742
-0.29059818 -0.2842955 -0.12193765 -0.011790302 0.019351821 0.0089916205 0.045177806 0.010746149
-0.028977318 -0.0026123424 0.012567099 -0.062481962 -0.40504503 0.24082012 -0.015461108 -0.044700418
0.012369718 0.084231675 0.18580624 0.05981365 -0.77149576 -0.19933544 0.34848386 -0.08610489
0.67001146 -0.009786739 0.03202608 0.016929137 0.08494009 -0.059329327 0.015794618 -0.024797674
-0.010030639 -0.01863569 -0.29858193 3.5631585 1.3119041 1.0074832 0.008941114 0.020811418
0.14274353 -0.050993416 -0.06932827 0.08162723 -0.6004278 0.005034101 0.18150218 0.013441898
-0.292689 -0.091334976 -0.49452537 0.19289538 -0.020267032 -0.3340055 -0.1582398 0.018793289
-0.09672972 -0.13496464 0.06464697 -0.055635612 -0.029019453 -0.06872311 0.022925215 -0.035337377
0.029160924 -0.021571277 0.037647255 -0.006699545 0.0010261991 -0.43582025 -0.4458114 -0.032026134
-0.097673774 -0.026658246 0.0019010034 0.014787201 -0.018331269 -0.58021957 -0.6038367 0.188856
0.32195786 -0.053796552 -0.029385716 -0.1890166 0.064117305 0.008842526 -0.037835643 0.030715574
0.1302644 -0.063152164 -0.029291643 -0.14726798 -0.007311907 0.021208737 0.3436864 -0.028772306
-0.015074401 0.007993953 -0.03813812 0.0042284746 0.04035204 -0.022317868 0.00817541 -0.026214186
-0.18291177 -0.10947794 0.18846008 0.14540818 0.05475197 -0.00430432 0.49273542 2.0279984
0.452502 -1.5432267 -0.9018557 -0.4023183 -1.8347833 -1.3081512 -1.1161275 -0.058204696
0.027678363 -0.025299625 -0.1715853 -0.03527691 0.22330238 0.011338493 -0.14472108 -0.3452811
-0.06307489 0.0021457514 -0.026249982 -0.14251296 -0.0023193627 -0.033206597 0.4162652 0.22655876
-0.03236332 -0.28718737 -0.07922327 0.7058847 -0.045312874 -0.1323132 -0.24276331 0.029311769
-0.015980307 0.01101321 -0.06556853 -0.024995502 0.0068854177 -0.1738874 -0.42244503 0.06519501
-0.90153426 -0.5803181 -0.5215792 -1.3986845 -0.4369692 -0.32042116 -0.019497663 0.024409164
-0.026854794 -0.19852844 -0.17123912 0.03231075 0.11400861 -0.38673365 -0.034946855 0.065610625
0.018618787 -0.044598956 -0.035761118 0.020232959 -0.04709676 -0.00069178216 -0.025802461 -0.24745356
-0.010649086 -0.11728325 -0.03507463 -0.10466488 0.07829743 0.09627658 0.028220154 -0.016658023
0.09775619 -0.5090576 0.11396508 0.055737622 -0.0074788146 -0.36628234 -0.1869172 -0.0053643994
-0.05653921 0.0052353423 0.14979896 0.16246709 0.18225794 0.17262188 -0.25123933 0.03566772
0.05645568 -0.8384011 0.47892287 0.0388556 0.26931968 0.27774698 -0.096153356 0.030459544
0.026602663 -2.4138637 -0.68390906 -0.8205162 -0.040393442 0.07984268 -0.038663045 -0.12801759
00000000: 23ee a83c 28c3 4fb9 ed3d 7e3c 151f 583f
00000010: b6c7 7bbb 7af2 d7be 2888 3a3e 9b02 f13d
00000020: 78c3 f53d b55c 943d b351 b93d d97e 153b
00000030: 6fad d63c 734e 843b 8c96 f7bd aeac 14bd
00000040: 456d 93bb 46b7 36bc 0dfb b2be b1e8 85bd
00000050: 934a 33bf a841 52bd 2af1 71bd 0681 a336
00000060: 62d5 1dbb 3c8d 033d 9f50 9abb aa0b f83c
00000070: aaa2 92bc 4e5b 563d 2ba6 f93b 9812 643d
00000080: b15b 03bd 92b9 edbc 3ce5 e13d 0e57 d2bd
00000090: 7d78 ffbc 6a61 193c 406e 91bb 4477 fcbe
000000a0: 49c9 94be 2e8f 91be 72ba f9bd 1c2c 41bc
000000b0: b687 9e3c 9751 133c 5d0c 393d 9e10 303c
000000c0: d761 edbc d533 2bbb 3ce6 4d3c 16ed 7fbd
000000d0: 1062 cfbe 8d99 763e 9650 7dbc c917 37bd
000000e0: 5caa 4a3c a881 ac3d fe43 3e3e 28ff 743d
000000f0: bf80 45bf 971e 4cbe 7a6c b23e c357 b0bd
00000100: df85 2b3f 8f58 20bc c72d 033d f9ae 8a3c
00000110: 12f5 ad3d 4f03 73bd b763 813c 7e24 cbbc
00000120: 8d57 24bc e0a9 98bc bbdf 98be ca0a 6440
00000130: 79ec a73f 36f5 803f c07d 123c b57c aa3c
00000140: 5c2b 123e 79de 50bd fbfb 8dbd 2d2c a73d
00000150: a3b5 19bf 1af5 a43b b5db 393e 683b 5c3c
00000160: 55db 95be d50d bbbd 6e32 fdbe 5e86 453e
00000170: 0c07 a6bc c502 abbe 9d09 22be 62f4 993c
00000180: 3b1a c6bd 2c34 0abe a165 843d 2be2 63bd
00000190: 34ba edbc b4be 8cbd a9cd bb3c edbd 10bd
000001a0: e4e2 ee3c 3fb6 b0bc 0234 1a3d db87 dbbb
000001b0: 8781 863a d523 dfbe 6441 e4be d62d 03bd
000001c0: 3009 c8bd 6562 dabc 172b f93a 0446 723c
000001d0: 752b 96bc 4589 14bf 0b95 1abf 7863 413e
000001e0: a9d7 a43e c659 5cbd 50ba f0bc 918d 41be
000001f0: ef4f 833d 3ee0 103c 8cf9 1abd 3a9f fb3c
00000200: 0864 053e ec55 81bd 07f5 efbc 6bcd 16be
00000210: b998 efbb f2bd ad3c aaf7 af3e e6b3 ebbc
00000220: 9ffa 76bc 12f9 023c b836 1cbd 048f 8a3b
00000230: 2e48 253d f6d3 b6bc 28f2 053c 22bf d6bc
00000240: 394d 3bbe f835 e0bd aefb 403e e2e5 143e
00000250: 9a43 603d 410b 8dbb d147 fc3e baca 0140
00000260: 58ae e73e 7488 c5bf 04e0 66bf aafc cdbe
00000270: 2eda eabf 8071 a7bf 44dd 8ebf 0c68 6ebd
00000280: bcbd e23c 2941 cfbc 0fb4 2fbe 857e 10bd
00000290: 61a9 643e 16c5 393c c331 14be afc8 b0be
000002a0: 682d 81bd bc9f 0c3b 340a d7bc ebee 11be
000002b0: 7300 18bb a403 08bd b620 d53e 05ff 673e
000002c0: 678f 04bd 390a 93be cf3f a2bd dcb4 343f
000002d0: fe99 39bd 1d7d 07be f296 78be 3c1f f03c
000002e0: 22e9 82bc c070 343c cb48 86bd 5ec3 ccbc
000002f0: 129f e13b 8a0f 32be b74a d8be f684 853d
00000300: f3ca 66bf ba8f 14bf 3786 05bf 1808 b3bf
00000310: 6dba dfbe 3e0e a4be 90b9 9fbc baf5 c73c
00000320: 96fe dbbc 0a4b 4bbe 4f59 2fbe 4758 043d
00000330: 597d e93d f401 c6be 6f24 0fbd dd5e 863d
00000340: 6d86 983c 65ad 36bd 407a 12bd 97bf a53c
00000350: 88e8 40bd b758 35ba af5f d3bc 7764 7dbe
00000360: 8179 2ebc 3332 f0bd 6aaa 0fbd 8a5a d6bd
00000370: 675a a03d a82c c53d f42d e73c 6876 88bc
00000380: 6634 c83d 9951 02bf 8666 e93d 224d 643d
00000390: d810 f5bb 5c89 bbbe 3967 3fbe d8c7 afbb
000003a0: a995 67bd 3c8d ab3b e664 193e c65d 263e
000003b0: d3a1 3a3e cac3 303e 71a2 80be 5118 123d
000003c0: 123e 673d 74a1 56bf 6135 f53e 0d27 1f3d
000003d0: 45e4 893e da34 8e3e 0dec c4bd 4b86 f93c
000003e0: d4ed d93c be7c 1ac0 aa14 2fbf 5a0d 52bf
000003f0: 9873 25bd 8f84 a33d 245d 1ebd 0b17 03be
