models/model-400.onnx (onnx, 37455 bytes, 4 tensors)

linear1.bias f4 [512]
00000000: 1ef3 1ebf 3abd 76be 19cf 89be 9bd4 70be
00000010: bd16 65bf 3154 eebf c82f 87bf 4022 2c3f
00000020: 8a5b fbbe 41a6 85bf 0756 edbe a34b 2abe
00000030: 6348 c6bf 574c 74bd b910 97be 7357 73bf
00000040: 575e b8be 3727 adbe 2506 f2bd 1021 10bd
00000050: 6538 aebf 9746 07bf d582 ddbe c15e cabf
00000060: c6af eabe 4fd1 eabe 8a66 00bf b1e2 9dbc
00000070: e168 babf 33c7 4cbe 1354 8dbe 36bc 4fc0
00000080: 2e2c afbe 8eb1 91bf a9b9 d9bd 2962 a7be
00000090: d550 4bbd 73ca 95be 731a bebf 82a5 2fbf
000000a0: 28a4 77c0 d49b a2bf 7ec0 c9bf 360c d7be
000000b0: b653 3bbe 54fa d5be 0efa 07bf 574a 1dbe
000000c0: d882 a9be 9d52 26be 32de 13be 352d d9be
000000d0: 6471 bbbd 22cc 893f 5185 8bbe 8b51 f5be
000000e0: cc56 90be 5494 37bd 5019 8d3d 3af8 b9be
000000f0: 61a6 f0be 5d86 69be 66d2 f2bd c749 3ebf
00000100: da6f ffbd 2453 0bc0 abdf 1abe a627 90bf
00000110: 2c94 66be f769 7bbe ae23 6fbf 4000 42be
00000120: e230 e2bf 16d6 39be 8d85 b9be 48ad b6be
00000130: 186e a7bf ca2d a9bd f76d e5be 8c05 00bf
00000140: 18c5 82be 94f5 d8bd 2894 93be 360a d8be
00000150: fdc9 04bf fb97 1ebf 4f33 b9be 675b b3bb
00000160: f48b 52ba cd50 efbc f489 25bf 76b8 a2bf
00000170: 6199 9abe b7fe babe 41e1 0fbf e858 e8bd
00000180: 12c7 333f 169b abbf f8f8 76bb ebf6 d3be
00000190: cb85 e9bf d223 3cbe e09b f2bf a057 05be
000001a0: 38d7 38bf 8588 59be 08ca 3fbf 7715 b03f
000001b0: 61ad 8dbe b3d8 b1be 7f2a 3cbf d89c 7dbf
000001c0: fd84 23be 8b2f 70be 525e 66bf af4d 373e
000001d0: 85fc 943f f26d 56bf f260 95bd 9345 b73f
000001e0: 824d b5bc f059 27be de86 13bf ab34 c2bf
000001f0: 72d5 d8be f968 85be 5795 943f 0ecb 3cbf
00000200: 8e39 70be 1d4f 12bf b04b 8cbe 6f08 63bf
00000210: 2ca1 cfbe be7b b0bf 0190 45be 1488 1bbf
00000220: 5236 fcbf 0b0b d6be 4eff 08bf 37ab d1be
00000230: 72ff 2cbf 0895 57be 3ccf afbd d7e1 e8bd
00000240: 37c3 a5be 92f5 45bf 6a24 81bf 11c1 4e3c
00000250: 7d13 68be 63a4 b3be 349b a5be 1234 4a3d
00000260: 9648 67bf 49cc 52be 787f 1cbf 09b1 94be
00000270: ef65 95be deae 05c0 d69f c7bf e7f2 a5be
00000280: cdf1 57be 3fdb c6bd 7f6f f4be 8720 3abe
00000290: 8c15 bfbf a4df cbbe e236 60bf 6220 c9be
000002a0: 9945 7fbf 7532 9bbe 8ad2 4cbe e3ed 6ebe
000002b0: 07c5 2abf bd47 9abe 6d9b 8abf 417e 98bd
000002c0: d2c1 eebf b635 a7be 5b2c d5be ea99 64bf
000002d0: b034 82be 3946 fe3e af9c eabe 2158 04bf
000002e0: f97d 0ebf 6144 21c0 5b4a 11bf d70f 49bf
000002f0: 4084 94be 6c4d a0be b11b 4ebe d747 4dbd
00000300: 0b7b b5bf b136 cabf c849 5e3f 2cc1 b9be
00000310: 87b6 d7be d394 a2bf 82c2 17bd 338f b1be
00000320: 3dd1 90bf 6c03 a4be d1c6 c1be d0d5 8ebe
00000330: 6812 0dbf 196f b5be 8ebd 98be e442 debe
00000340: af07 89be c88a 1bbf 5e1d 973f b9a5 09c0
00000350: 4fa1 b2be ec78 01c0 f632 a7bf c096 9cbe
00000360: f59d bebe a5bf 04bf 258c 45be cd83 13bf
00000370: 3265 65bd 0288 b9be 6c4e 8fbe 58f8 dbbe
00000380: 2dfd 73bf ca7e 15bf e525 1dbf 629c 8e3e
00000390: 5c94 f6bd eb71 b4be 6c9a 88be 5a75 87bf
000003a0: a7db 86be 0eec c1bf 20d8 75bf 56c3 fcbe
000003b0: ba70 e0be 7803 74be 7eeb 5f3d ad1e 1dc0
000003c0: 711e 6abc 6223 09c0 e5cb a6be 8801 e5be
000003d0: 8157 6abf 4e75 6c3d 377e 69be 8891 90be
000003e0: e9c4 98be 9797 a9bd 0fc4 19be fed5 54bf
000003f0: 96b7 eebe 23a5 26be 30e6 00bf f227 23be
-0.6208972 -0.24095622 -0.26915815 -0.23518603 -0.8948782 -1.8619443 -1.0561457 0.6723976
-0.49093276 -1.0441362 -0.46354696 -0.16630416 -1.5490841 -0.059643116 -0.29504946 -0.9505531
-0.36009476 -0.3381898 -0.11817578 -0.03518778 -1.361096 -0.52842087 -0.4326388 -1.5810167
-0.4583723 -0.45862815 -0.5015646 -0.019273134 -1.4563257 -0.19997863 -0.27603206 -3.2458625
-0.34213394 -1.138231 -0.10631115 -0.32692078 -0.049637634 -0.2925602 -1.4851822 -0.6861192
-3.8693943 -1.2703805 -1.5761869 -0.42001504 -0.18293652 -0.41792548 -0.5311593 -0.1536039
-0.33107638 -0.16242452 -0.1444023 -0.42417303 -0.09152487 1.0765421 -0.2725015 -0.47913775
-0.2819122 -0.04481919 0.068895936 -0.36322194 -0.47001937 -0.22805162 -0.118565366 -0.74331325
-0.12472506 -2.1769495 -0.15124385 -1.12621 -0.2251746 -0.24552141 -0.9341382 -0.18945408
-1.7671168 -0.18148074 -0.36234704 -0.35679078 -1.3080473 -0.08260687 -0.4481046 -0.50008464
-0.25540996 -0.10593715 -0.28823972 -0.4219529 -0.5187071 -0.61950654 -0.36171958 -0.0054735425
-0.0008031719 -0.029213334 -0.64663625 -1.2712543 -0.30195144 -0.36522457 -0.56203085 -0.113450825
0.7022563 -1.3406703 -0.0037685018 -0.4139932 -1.8243955 -0.1837304 -1.8953819 -0.13021708
-0.722034 -0.21243484 -0.7491765 1.375655 -0.2767134 -0.3473564 -0.73502344 -0.9906745
-0.159687 -0.23455636 -0.8998767 0.17900728 1.1639563 -0.83761513 -0.072938815 1.4318107
-0.022131685 -0.16342902 -0.57627666 -1.5172323 -0.42350346 -0.2605665 1.1608075 -0.73747337
-0.23459455 -0.5715197 -0.27401495 -0.88684744 -0.40552652 -1.3787763 -0.19293214 -0.60754514
-1.9704077 -0.418053 -0.53514564 -0.4095094 -0.6757728 -0.21052945 -0.08584449 -0.113712005
-0.323755 -0.77327836 -1.0089238 0.012619273 -0.22663684 -0.35086355 -0.32344973 0.049366064
-0.9034513 -0.20585741 -0.61132 -0.29041317 -0.29179332 -2.088798 -1.5595653 -0.32411882
-0.21088333 -0.097097866 -0.47741315 -0.1817647 -1.492845 -0.39819062 -0.87583745 -0.3928252
-0.9971557 -0.30311933 -0.2000219 -0.23332934 -0.6670689 -0.30132857 -1.0828682 -0.07445956
-1.8652899 -0.32658166 -0.41635403 -0.89297354 -0.25430822 0.4966295 -0.45822665 -0.51696974
-0.5566097 -2.5197985 -0.5675408 -0.78539795 -0.2900715 -0.31309068 -0.20127751 -0.05011734
-1.4178175 -1.579794 0.8683133 -0.3628019 -0.42131445 -1.2701668 -0.03705073 -0.34679565
-1.1313854 -0.3203386 -0.37846997 -0.278975 -0.5510621 -0.35436323 -0.2983212 -0.43410408
-0.26763675 -0.6075864 1.1805837 -2.15074 -0.34888694 -2.0230055 -1.3062427 -0.30583763
-0.37229887 -0.51854926 -0.19291742 -0.5762299 -0.05600471 -0.36236578 -0.2798952 -0.4296291
-0.9530819 -0.5839659 -0.6138595 0.27853686 -0.12040016 -0.35243163 -0.26680315 -1.0582688
-0.26339456 -1.5150163 -0.96032906 -0.4936778 -0.43836004 -0.23829448 0.054667942 -2.4549973
-0.014289484 -2.1427846 -0.32577434 -0.4472773 -0.9153977 0.057729058 -0.22802053 -0.28236032
-0.2983773 -0.082808666 -0.15016197 -0.83139026 -0.4662444 -0.16273932 -0.5035124 -0.15933207

linear2.bias f4 [3]
00000000: 2866 43bf 24c7 7a3e fe82 1a3f
-0.76327753 0.24490029 0.6035613

onnx::MatMul_12 f4 [14, 512]
00000000: 5b54 71bf 9723 e6bd d732 c0be ba55 aebc
00000010: 9afb 11bf 9925 943e 6817 393e 9336 e5be
00000020: 9556 1ebf ce6e e43e b53c 5ebf 65bc 6abe
00000030: 0bb9 1dc0 2f57 91be fb87 03be aaa6 4040
00000040: 418e b2be 5e64 e2bc f761 5c3c 8c8a b6be
00000050: edb3 bebf c1c4 2b3e c62a 073e b16e 0c3f
00000060: df59 f1be a6a8 ca3d 7031 2cbf f3dc 533d
00000070: 9e26 753f 29e1 18bd edcc 15bd f2a7 3f3f
00000080: 1b0c 5f3e 44d1 953e 987b b8be 89c4 a2bd
00000090: b7d0 7ebd 2e5f 79bf 1c2a aabf bc6d 85bd
000000a0: 32ed 7d3f 969b 10be 5249 aabe 4a22 493e
000000b0: 6c18 99bc cc1d 7bbf 2779 083d 3d94 a5be
000000c0: 4a88 7bbd 3f05 a43a 0c5d 8b3d 6aa9 babd
000000d0: ca62 1a3d 3c20 78bf 9464 28be 67fc 6ebf
000000e0: 7839 253e 7190 9cbe d892 343f de18 303f
000000f0: e291 86be 3104 b6be 2559 7dbe 9b55 7d3e
00000100: 7dcb 253d d82a a9be 22d3 fdbd 63b6 5bbe
00000110: 587f 263e a982 cebe 73a5 b9be 827b e83c
00000120: c7c8 5bbf 6430 38be ce97 afbe 6701 90be
00000130: 5519 0b3e c9c6 ee3e d878 6dbf 6adf 423e
00000140: f6aa 34be a318 5dbd 4e78 643d eb6a 63be
00000150: e485 083e 6673 403e 04f7 e83d d040 29be
00000160: 7902 78be cbce 9ebd ebe0 a6be de9e 0a3f
00000170: 025d 14be d4ab bf3d b21a 54bf 2857 953e
00000180: 2e2b 6b3e c45a 923f 5aac 08bd 3f5a 8f3d
00000190: 7718 2fc0 7059 283f 582e b73e 1cff 2fbe
000001a0: fd5f bdbc a063 073e 6f87 6b3e 27c6 ff3e
000001b0: df37 65be 65da a5be ef21 253e 72ed 1b3f
000001c0: c322 f53a 8a09 7c3e 24d4 323e 7bb2 87bf
000001d0: 3c0b 80bf 2988 353e b06b 8c3c 24e3 493e
000001e0: 7097 0ebe e0ad e6be b99b 973d fc61 64bf
000001f0: 2296 5abc 050b 7bbe d939 b73e eeab a5bd
00000200: f118 f1bd 39fc 33be 194c d03d 0a8e 203e
00000210: a792 d3be 8c1a 943e 4922 9c3d 3fd2 78bc
00000220: ec5d e2bf 535b 03bf 3032 553d 4d7c ffbe
00000230: c3bc 73bf 052a d1bd 9c63 90bc f509 12be
00000240: 50cf b73d 3022 3a3e d994 2fbf 9f2c 0e3f
00000250: 0e7d bc3c bd6c 33be 1e89 85bc 3912 e4bf
00000260: 3414 d83d 42aa 06be 8282 983e 43df 60be
00000270: 20a7 143d 9c33 c0bf 056e f33e bb09 8b3e
00000280: a5ae 38be 579f c4be 5900 0c3c c6b4 a2bd
00000290: 13e2 c0bf 6a44 b6be 7f37 7fbf b907 773e
000002a0: 61e8 fabe e4fd b0be 4004 16be 7828 91bf
000002b0: 84a2 94be b927 a6be b040 513f f8ce dfbd
000002c0: 3095 1d3f 916b bebd ad8c 923d d5a2 16bf
000002d0: ccb2 88be 6fbe dbbe 0baa 4dbe 4b09 48bf
000002e0: e49d 793e df1c 073f e481 813d 25e4 8abe
000002f0: 6db3 763d cf1c 103d 8745 ef3d 705d eabe
00000300: 4b94 07c0 f75a 403f 8609 9a3e dc19 85be
00000310: 88d3 8ebb 42bd 3abf 840a 833c ec4b c43e
00000320: 0ffb a33e abb1 043e b6a5 aabe 8a6b 143e
00000330: ae82 cd3d 5701 4abe 8781 abbe 4752 a7be
00000340: 1627 8cbd 4608 293e 63fd 583f a19f 83bf
00000350: 6629 72bd aedb 533f 9611 0abf 14ef f03e
00000360: 59f8 1ebb 5373 03bf 7954 32be 5ee1 773e
00000370: da0c 95bd f6d7 27be c9d3 1c3a c577 8cbe
00000380: 837b abbe 4bb9 873d 1c8c 163f ac10 c23e
00000390: 3d2c 303e c8ba 82be 213e f2bc bd60 01bf
000003a0: fdb6 d83b a24d 44bf 93f2 253e e27d cbbe
000003b0: 83da 4abe 52f6 283e d3cc c1bf de8e 66bf
000003c0: 0212 6cbe 66c3 213f 7b4c edbb 82a3 2b3e
000003d0: 0e9b 0540 ce21 b8be e68f 8cbe 56a0 003e
000003e0: 6ff1 a1bd aaf2 b5be a948 a7be ee14 3ebf
000003f0: b82f 133e cdc1 e03d a0f7 4cbd ff44 cdbc
-0.9426934 -0.11237257 -0.37538788 -0.021281112 -0.5702454 0.28934935 0.18075335 -0.447682
-0.61850864 0.44615787 -0.8681138 -0.2292343 -2.4644191 -0.28386828 -0.12844841 3.0101724
-0.34874156 -0.02763575 0.013451091 -0.35652578 -1.4898659 0.16774274 0.1319991 0.548564
-0.4713888 0.098954484 -0.67262936 0.051724385 0.9576205 -0.037324104 -0.036572386 0.7486564
0.21781962 0.2926122 -0.36031795 -0.07947642 -0.062210765 -0.9741086 -1.3294101 -0.06515071
0.99190056 -0.14121851 -0.33259064 0.19641986 -0.018688403 -0.9809234 0.033318665 -0.3233966
-0.061409272 0.001251377 0.06804857 -0.091143444 0.03769187 -0.96924186 -0.16444618 -0.93353885
0.16135204 -0.3057895 0.70536566 0.68787944 -0.26283175 -0.35550073 -0.24741037 0.24739687
0.040477265 -0.330405 -0.12393786 -0.21456294 0.16259515 -0.4033406 -0.3625904 0.028379206
-0.85853237 -0.1798721 -0.34295505 -0.2812607 0.13583882 0.46636036 -0.9276252 0.19030538
-0.17643341 -0.053978574 0.055778794 -0.22208755 0.13332325 0.18794021 0.113752395 -0.1652863
-0.24219693 -0.077542864 -0.32593474 0.5414866 -0.14488605 0.093589455 -0.82853234 0.29168057
0.2296569 1.143395 -0.033367492 0.06999635 -2.7358682 0.6576147 0.35777545 -0.1718716
-0.02311706 0.13221598 0.23000883 0.49955866 -0.22384594 -0.32393184 0.16126226 0.6090919
0.0018702376 0.24613014 0.17463738 -1.0601343 -1.0003428 0.17727722 0.017141193 0.19715554
-0.13924956 -0.4505453 0.074027486 -0.8921201 -0.0133414585 -0.24515922 0.35786322 -0.080894336
-0.11772335 -0.17576684 0.101707645 0.15679184 -0.41322824 0.28926504 0.07623727 -0.015186845
-1.7684913 -0.51311225 0.052049816 -0.4989952 -0.952099 -0.10213093 -0.017625622 -0.14261611
0.089750886 0.18177104 -0.685865 0.55536836 0.02300885 -0.17521949 -0.016300734 -1.7818061
0.105507284 -0.13150886 0.2978707 -0.21960168 0.036292195 -1.501575 0.47544876 0.2715586
-0.18035372 -0.38402817 0.008545005 -0.07944636 -1.5068992 -0.3559907 -0.99694055 0.2412404
-0.49005416 -0.34568703 -0.14650059 -1.1340475 -0.2903024 -0.3245218 0.8173933 -0.10928148
0.6155577 -0.092978604 0.07155738 -0.5884221 -0.2669891 -0.42918727 -0.20084397 -0.7813918
0.24376637 0.5277843 0.06323603 -0.27127185 0.060229708 0.035183724 0.11683183 -0.45774412
-2.118426 0.751388 0.3008539 -0.25996292 -0.0043587126 -0.72945035 0.015996225 0.38339174
0.3202748 0.129584 -0.33329552 0.14494148 0.10034691 -0.19727074 -0.3349726 -0.3267996
-0.068433926 0.16507062 0.8476164 -1.028309 -0.059121512 0.8275708 -0.53933084 0.47057402
-0.0024256913 -0.51347846 -0.17415036 0.24207065 -0.07277842 -0.16390976 0.0005982486 -0.27435127
-0.3349267 0.06627139 0.5880754 0.37903345 0.17204376 -0.25533128 -0.029570641 -0.50538236
0.006613611 -0.7668096 0.16205816 -0.39744478 -0.19809918 0.16500214 -1.5140632 -0.9006175
-0.23053744 0.6318878 -0.007241783 0.16761592 2.0875888 -0.3596329 -0.27453536 0.12561163
-0.07907378 -0.355367 -0.32672623 -0.74250686 0.14373672 0.109744646 -0.05004084 -0.025057314

onnx::MatMul_13 f4 [512, 3]
00000000: b374 573d c4de 10bd 1154 bbbd 5e82 1a3c
00000010: 6e3b 133e b9e3 b43e d198 6dbd c5f2 08bd
00000020: 03af 27bd 065e 8e3c 126d afbc e835 1f3c
00000030: 0cd6 15be c49d 6d3c d26f 5f3d 4ca8 c93a
00000040: 080d 663e add3 6abd 7114 023e 6a0a 743e
00000050: c9e1 4f3c 6d3b dabe d646 bc3e d18e 1cbf
00000060: aab3 5d3d 45ab 203d 44da c93d 6f23 833f
00000070: a499 95be 94ed e3bd 31a8 0cbf 1e18 30be
00000080: 0b69 d4be 15ea 423c ed5a 60bc dc51 40bc
00000090: f083 fabd 086e f8be bf19 113e c011 983c
000000a0: 56b5 ffbc 8e08 5b3c 6c66 033e 3c36 a5bc
000000b0: 7d50 32bd a974 14bf 09ac 44bf ba01 15bf
000000c0: f341 7bbc ba4d 513a 4b0a 053e cada 573d
000000d0: bea9 8abd 7fda c6bc 937c 18bb 2b61 4e3d
000000e0: 2c37 babd 299d 803c 1405 20bc 5078 013e
000000f0: 25d7 1fbf f6e4 bcbd d46a 103e 4741 aa3d
00000100: bd99 993e d40a 5d3d fdc1 993d ea61 b13e
00000110: 358f a1be 8a20 be3e cc1a 493f 04c3 963f
00000120: e21c 38be b65f ddbb b557 fa3b 8293 2a39
00000130: aa0d 86be dfa7 c53d 0574 77bc 9706 e03d
00000140: 4a94 00bd fe1c b53c f4b3 a63c 352a 5bbd
00000150: 1192 ad3f 477c 943e 5f2a 8c3e 6a1d 76bd
00000160: 06cf 0dbe cd31 e2bc 9f72 c1bc 0ed0 4abd
00000170: ec62 03be 6d42 923e 4e05 be3f 008f a73e
00000180: 60c5 14bc 74a3 a1bb 3e50 d0bc 3470 683d
00000190: e562 743e 67b1 853e 4f21 473f 27de 673e
000001a0: ee0d a5bf 45be 763c 242e 15bb e213 a3bd
000001b0: eca8 963d e3f6 a6be ced8 dfba d25d 0fbd
000001c0: 4ab1 8f3d 739d f13a cab2 1bbf 0da1 64bf
000001d0: b4a1 41bf 2d4e 9c3e 42ab 11bf bd5b 56bf
000001e0: 56db 013f 5b96 763f 8102 d33f fb6a 47bc
000001f0: 7b22 0a3d fcf4 e8bc 4feb 4f3e 49cb 37bd
00000200: be69 5fbe 48b6 03bd 6437 4abc c210 eebb
00000210: 30a7 91bc edc2 babc 5956 05be 8a51 043d
00000220: f2a2 19be b5c8 bebd ed95 873f c221 efbf
00000230: 2c5c 9abe 7cea ea3d ff59 8bbc 83e3 bc3d
00000240: 7d14 bdbc 75e9 e13c 48cd 1ebd a6f0 13bb
00000250: 1683 55bc 5794 01bd 2f36 6d3d 2923 94bc
00000260: 490e 2fbd 0d0e f03b 8f90 c3bc e2e1 813c
00000270: 401c 13bd 58d4 97bc 3f5a 10bd b3b9 46bf
00000280: b0c2 333f 17fd 623f 3702 953b ca85 ee3b
00000290: d4a1 13be f263 28bd 3d92 b33b 2b0c 843c
000002a0: a468 d5bd 86a7 373d 12db 333c ca82 983d
000002b0: 87ec 753d e647 26bc a5dd a23f dbbd ae3c
000002c0: 3907 97bf 7c9a 013e 7eb8 60be aa31 e03c
000002d0: 2e4b b1bc 2131 e53c 8d9f 11bc 5575 1dbe
000002e0: b73c 353e 18ab a0bc bd4f e6bc 8809 b1bc
000002f0: 2afd f7bc 8180 223f ab9e e53d 9024 e93e
00000300: 291d 0d3d d652 4e3c f7d9 b3bd 4fb5 51bd
00000310: 25bb 9ebe ab66 49be 14a2 e7bc 35cd ecbb
00000320: 0ea9 0a39 0ed3 d53e f3e1 c23c b997 03bf
00000330: e834 963d cf32 193d 7282 943c 1eb5 503b
00000340: 826a 41be c05c 81bd 7347 9ebe f2c0 2abe
00000350: 7378 97bf 59d0 4fbd bb86 4a3c d68a 93bd
00000360: 432a 9fbe 7c16 343f dbcf 883e ad3f d33c
00000370: b233 e8bc 77bf 6fbc dac0 2bbd 00a9 863b
00000380: 66a1 35bd 56cb 46bd 28a2 67bc 9227 30bc
00000390: 49dd 553f bb60 06be f0b5 8c3f 81a8 113e
000003a0: d952 cbbe e311 7fbf c93b 8d3e 51b4 4ebf
000003b0: 1587 23bf 87c0 533e 63b2 fc3e 088c 05be
000003c0: 4ae3 e2bd e6ca f4bb e4b9 fbbb 92d0 f33b
000003d0: cb4d 1dbd ab08 4b3c d00e 173d 1d3d 18bd
000003e0: db64 1bbb 8172 3a3d 026f 9f3c 4b18 f7bd
000003f0: e250 073e 230f 713f 461c 083f 52e4 bfbc
0.052601527 -0.035368696 -0.09146894 0.009430496 0.1437814 0.3532999 -0.058007065 -0.033434648
-0.04093839 0.017378818 -0.021414313 0.009717442 -0.14632434 0.014502946 0.05455 0.0015385239
0.22465909 -0.057330776 0.1270311 0.23832098 0.012688109 -0.42623463 0.36772794 -0.6115542
0.05412642 0.039225835 0.09856084 1.0245188 -0.2921878 -0.11129299 -0.5494414 -0.171967
-0.4148639 0.01189663 -0.013693553 -0.011738267 -0.12232196 -0.48521447 0.14169978 0.018563151
-0.031214397 0.013368739 0.1283204 -0.020167463 -0.04353379 -0.5799051 -0.76825005 -0.5820576
-0.015335548 0.00079842994 0.12992208 0.052698888 -0.06770657 -0.024274109 -0.0023267611 0.050385635
-0.090925545 0.01569994 -0.009766836 0.12643552 -0.6243766 -0.09223358 0.14103252 0.08313232
0.30000106 0.053965405 0.075077035 0.34645015 -0.3155457 0.371342 0.78556514 1.1778264
-0.17979768 -0.0067557944 0.00763985 0.00016267414 -0.261823 0.096511595 -0.015103345 0.10938757
-0.03139142 0.022108551 0.02034948 -0.05350705 1.3560201 0.29001066 0.27376077 -0.060086645
-0.13848504 -0.027611637 -0.023614226 -0.049514823 -0.12830704 0.28566304 1.4845369 0.32726288
-0.009080261 -0.004932815 -0.025428887 0.05674763 0.2386585 0.2611191 0.777852 0.22643338
-1.2894876 0.015060012 -0.0022763098 -0.07962777 0.07356438 -0.32610235 -0.0017078163 -0.035001583
0.07016237 0.0018433764 -0.60819685 -0.89308244 -0.75637364 0.30528393 -0.56901944 -0.8373373
0.50725305 0.96323174 1.6485139 -0.012171502 0.03372429 -0.02843713 0.20304607 -0.044871602
-0.21817681 -0.03215626 -0.012342308 -0.0072651813 -0.017779917 -0.022798026 -0.1302122 0.032304324
-0.15003565 -0.093156256 1.0592629 -1.8682177 -0.30148447 0.114705056 -0.017010687 0.09223082
-0.023081059 0.027577141 -0.03876999 -0.0022573858 -0.013031742 -0.03163561 0.057913 -0.018083172
-0.042738233 0.0073258937 -0.023872642 0.01585478 -0.035915613 -0.01853387 -0.035242315 -0.77627105
0.70218945 0.88667434 0.004547383 0.0072791325 -0.14417201 -0.04111094 0.0054800794 0.016119083
-0.10420349 0.044837497 0.010977523 0.07446821 0.060040023 -0.010148978 1.272389 0.021330765
-1.1799079 0.12656587 -0.21945378 0.027367432 -0.021642294 0.027977528 -0.0088881375 -0.1537679
0.17698942 -0.019612834 -0.028114194 -0.02161099 -0.030272085 0.6347733 0.11211904 0.45535707
0.034451637 0.012592992 -0.08781808 -0.0511983 -0.31002155 -0.19668071 -0.028275527 -0.007226611
0.00013223683 0.41762584 0.023789382 -0.51403385 0.0733431 0.03740197 0.018128607 0.0031846236
-0.18888286 -0.06316519 -0.30913886 -0.16675165 -1.1833633 -0.050735805 0.012361224 -0.07204215
-0.3108693 0.7034681 0.2672108 0.025787199 -0.028344963 -0.014633051 -0.041931964 0.004109502
-0.044343375 -0.04853376 -0.014137782 -0.010751622 0.8354078 -0.13122837 1.0993023 0.14224435
-0.39711645 -0.9963667 0.27584675 -0.8074389 -0.63877994 0.20678912 0.49354848 -0.13041699
-0.11078508 -0.0074704764 -0.007682072 0.007440635 -0.038404267 0.012392203 0.03687936 -0.037167657
-0.0023711238 0.045519356 0.019462112 -0.120651804 0.13214448 0.9416372 0.5316814 -0.023424301
