models/model-10.onnx (onnx, 37455 bytes, 4 tensors)

linear1.bias f4 [512]
000000 c4 cb a2 3d a5 e8 98 3d ab b9 35 be 66 5d 03 be
       0.079490215 0.074662484 -0.17746608 -0.12828597
000010 5a 37 93 3d df ab 50 be d5 a2 1a 3e 84 c0 13 be
       0.07188292 -0.20378064 0.15101178 -0.14428908
000020 43 3c a3 bd 98 fa 3b 3e 8b ea 6d be 20 f8 94 3e
       -0.079704784 0.18357313 -0.23234002 0.29095554
000030 11 e2 5a be 78 1c 0e be cf 54 f1 bd 3c 16 45 3e
       -0.213753 -0.13878047 -0.11783754 0.19246763
000040 9a e5 41 3e d0 01 10 be a8 ce 87 bd 4d 95 8f 3d
       0.18935242 -0.14063191 -0.066312134 0.07010899
000050 e3 09 7e be 1c 3c 24 be 07 41 2a 3e 0c 2f 6d 3e
       -0.24808459 -0.16038555 0.16626368 0.23162478
000060 3e 9b 46 3e c7 e3 ff 3d e3 97 e5 3d c8 6c 22 3e
       0.19395158 0.12494617 0.11210611 0.15861809
000070 d3 b6 d8 3d ad 0e 16 3c 81 d4 c1 3c 35 d1 ab 3c
       0.10581746 0.009158772 0.0236609 0.020973781
000080 79 d0 0e bc 7a ea 74 be 47 8e 67 3e b4 85 1c 3e
       -0.008716696 -0.2391757 0.22612868 0.15285379
000090 fe 47 b8 bd ca 33 76 3e b6 1f cf 3d af a1 61 be
       -0.089981064 0.24043193 0.1011347 -0.22034334
0000a0 05 3f a8 bd 58 e2 a0 3c b5 98 2a 3e 14 1d 09 bd
       -0.08215145 0.01963918 0.16659816 -0.033474997
0000b0 70 93 e1 3c be b9 42 3e 39 32 54 be ed 0f 20 3e
       0.027536124 0.19016168 -0.20722283 0.15631075
0000c0 71 8f 97 bd 99 8d 52 3e 8a 77 85 bd 33 2b 1b 3d
       -0.07400406 0.20561828 -0.06516941 0.037882995
0000d0 e1 a1 5d 3e 23 9d 15 be eb e3 6e 3e b4 2d 18 bd
       0.21643783 -0.14610724 0.23329131 -0.03715296
0000e0 b7 14 10 3e 75 29 b9 3c e8 26 84 be 9a bd 0d be
       0.14070402 0.022602776 -0.25810933 -0.13841859
0000f0 d1 e1 0c be 75 d5 86 bd 31 58 47 be 6b 72 80 3d
       -0.13758017 -0.065836824 -0.19467236 0.062718235
000100 4e b9 08 be 9a 97 5c bd 01 bf 40 be 68 fb d7 bc
       -0.13351938 -0.053855516 -0.18822862 -0.026364997
000110 be 6a 69 bd 23 d6 a0 bd 10 91 22 3d 14 4e 19 3e
       -0.056986563 -0.07853343 0.039689124 0.1497119
000120 8c a9 1d be f8 11 65 3d a3 2e 03 bd 08 43 64 3e
       -0.15396708 0.05592534 -0.032026898 0.22291195
000130 d7 25 1a 3e 40 b7 23 3e a8 0c 0d be 2e 84 28 be
       0.15053497 0.15987873 -0.13774359 -0.16456673
000140 45 7b 53 be ac 1d 4a bd b7 5c 3a be 50 30 36 3e
       -0.20652492 -0.049344704 -0.1819943 0.17791867
000150 ce fb 60 be 29 c8 0f 3e 13 37 36 3e ad 77 c3 3d
       -0.21971056 0.14041199 0.17794447 0.09544311
000160 9d 16 2a 3d ce 10 03 3e 46 b3 5b be 4b ef 7c be
       0.041525472 0.12799379 -0.21455106 -0.24700658
000170 a9 38 75 be df ae 2a 3e fb 5c 17 3d 2f dc 76 3e
       -0.23947395 0.1666827 0.036953907 0.24107431
000180 2c 31 9a bc 96 ed a2 bc e8 17 62 be 28 67 2f bd
       -0.018822275 -0.01988868 -0.22079432 -0.042822987
000190 8f 52 ce 3d 9e 5b ba bd 43 b7 4f 3e 3a b5 10 3d
       0.100743406 -0.09099506 0.20284753 0.03532908
0001a0 71 10 c1 bb a7 0f 66 3e ee 5e 25 be e5 d8 90 3d
       -0.0058918525 0.22466908 -0.16149494 0.07072619
0001b0 a5 9d ee bc 9b 2c de 3d f9 15 42 3e 7b 00 77 be
       -0.029127905 0.108483516 0.18953694 -0.24121277
0001c0 7b 24 0a be 5d 18 f5 3c 66 f5 11 bd 08 55 44 bd
       -0.13490479 0.029918844 -0.03563442 -0.047932655
0001d0 9c 9d 11 be 69 ab 26 be ac df 4d be 67 1d 0c 3e
       -0.1422028 -0.16276325 -0.20104855 0.13683091
0001e0 3c 35 04 bd 8a 29 10 be aa ce 21 3e 32 16 40 3d
       -0.03227733 -0.14078346 0.15801492 0.046896167
0001f0 9f 11 25 3e 12 62 0b 3c 9a c5 93 3c ea 7b 04 3e
       0.16120003 0.0085072685 0.01803856 0.12937894
000200 3e 16 8e bd a2 ba 71 3d 1d 2c 60 be b1 35 34 3e
       -0.06937836 0.059015878 -0.21891828 0.17598607
000210 0a 5a 2e 3e f5 17 88 bb 2e d6 0f be e4 61 63 bc
       0.17026535 -0.0041532465 -0.14046547 -0.013878319
000220 6f 94 8a be 0f 22 e2 3d 23 36 5f 3e 5a 92 5b be
       -0.2706637 0.110416524 0.21797995 -0.21442547
000230 a6 5b 66 3e d3 90 a6 3d c6 9f 42 be f7 24 40 be
       0.22495899 0.08133092 -0.19006261 -0.18764101
000240 3b ae 89 be 75 f9 e8 bd e0 55 3e 3e a6 51 b1 3c
       -0.2689074 -0.11375705 0.18587446 0.021645378
000250 64 6f 21 3d 17 4f 69 bd c9 b3 ec 3d 97 ff d1 bd
       0.03941287 -0.05696019 0.11557729 -0.10253828
000260 3c df b3 bd d8 1c 25 bd 50 bd 4d 3e 13 05 00 bd
       -0.08782813 -0.04031071 0.20091748 -0.03125484
000270 13 7a 97 3d 69 99 e4 bc 07 16 6a 3e f0 d8 2f 3e
       0.07396331 -0.027905183 0.22859965 0.17172599
000280 7e 2b 17 3e 02 28 7d 3d 0e 62 48 be b6 13 b8 3a
       0.14762685 0.061805733 -0.19568655 0.001404396
000290 56 8f 08 be 76 53 8b 3d 8e 73 37 bc b6 e8 30 be
       -0.13335928 0.06803028 -0.011196984 -0.17276272
0002a0 e7 d2 08 3d 46 15 e1 3d a9 b0 47 be 51 c5 23 3e
       0.033404257 0.10990386 -0.19500984 0.15993239
0002b0 0b e1 84 3d 87 57 b0 bd 0d e6 ab 3d fb 31 77 3d
       0.06488236 -0.086104445 0.08393488 0.0603504
0002c0 d6 7d 0b be 87 e5 55 3e 02 ca 25 be 64 64 5e bd
       -0.13622221 0.20888339 -0.16190341 -0.05429496
0002d0 51 48 54 be 7b c6 ea bc dc 69 5c 3d 20 14 ef bd
       -0.20730712 -0.028659096 0.053811893 -0.116737604
0002e0 e6 4c 4a 3e 35 d5 1f 3d 3b f6 05 3d 19 0c 51 be
       0.19755897 0.03902169 0.032705527 -0.20414771
0002f0 cf c8 0e be e0 0e c3 3c 5b 84 2e 3e 66 26 27 3d
       -0.1394379 0.023810804 0.17042677 0.040808104
000300 cd ae b3 bd 81 09 da bd 3f 79 53 be e7 6d ff bd
       -0.08773575 -0.10646344 -0.2065172 -0.12472134
000310 9c 81 33 3e ec 50 03 be 9a 96 34 3e 05 ae 25 3e
       0.17529911 -0.12823838 0.17635575 0.16179664
000320 4f fd 93 3d 24 fe 0b 3e 94 4a 77 bd a6 7c a5 bd
       0.07226049 0.13671166 -0.060373858 -0.080804154
000330 a8 cc 35 3d ad 93 08 be 4a 84 8d 3e 6c 89 df bd
       0.04438463 -0.13337584 0.2763999 -0.10914883
000340 4f 03 17 3e f5 91 9a bc 25 cc 1c be f2 ac 90 bd
       0.14747356 -0.018868426 -0.1531225 -0.07064237
000350 89 ea 40 3d a0 ff ea 3d a7 28 c4 3d 49 5e 78 be
       0.04709867 0.11474538 0.09578066 -0.24254717
000360 7f b3 7c 3e c5 8a 0d be 8f f3 88 3e ba 93 89 be
       0.24677847 -0.13822468 0.2674832 -0.2687052
000370 28 7d ed bd 8a 72 05 3e a8 4a 61 3e e6 8d 04 3e
       -0.11596137 0.13031974 0.22001135 0.12944755
000380 83 56 74 3d ef 2b e2 3d 1f df d9 bd c2 31 64 3e
       0.059652817 0.11043536 -0.1063826 0.22284606
000390 8d b8 5c 3e dd e0 7b 3e eb d7 77 bc 29 c3 24 3e
       0.21554776 0.24597497 -0.015127162 0.16090073
0003a0 be 62 e0 3c de f4 60 3e 48 7a 5b 3d 05 2f 62 be
       0.027390834 0.2196841 0.053583413 -0.22088249
0003b0 21 d0 20 be 9a e8 82 be 2f 36 69 bd 5a e5 3c 3e
       -0.15704395 -0.25568086 -0.05693644 0.18446866
0003c0 25 a9 5e 3e 2a 0e 51 3e b2 7e 2f bd e9 cf dc bd
       0.21744211 0.2041556 -0.042845435 -0.10781843
0003d0 9c a5 6b 3d 41 0a 5b be ef 0d 6b bd 2c 6a 76 be
       0.057530984 -0.2139063 -0.057386335 -0.24063939
0003e0 1d 19 77 be f1 48 30 be e9 d7 d7 3d 2e 2f 2f 3e
       -0.24130674 -0.17215325 0.105392285 0.17107841
0003f0 24 ab 7f 3e 4a ca 1b be 9f 4a 31 be 63 2a 29 3e
       0.24967629 -0.15213886 -0.17313622 0.16520076

linear2.bias f4 [3]
000000 64 4b 0e 3c be bb b6 ba 5a e4 ae bc
       0.008684967 -0.001394145 -0.02134912

onnx::MatMul_12 f4 [14, 512]
000000 2d 24 fe 3d ce d3 0d be 2c 31 70 be 48 92 2e bd
       0.12409244 -0.13850328 -0.23456258 -0.042619973
000010 cb 4c 95 3d 27 89 06 bd 73 1d 71 be bc b7 91 3d
       0.07290038 -0.032845642 -0.2354639 0.07115123
000020 13 ba 2c be ed 00 b2 bd 7d 46 ae bd 63 0b 2b 3e
       -0.16867857 -0.08691583 -0.08509538 0.16703562
000030 d8 de 35 3e 4d 3c 49 be 02 2b c1 bd 4c 2b 48 be
       0.1776079 -0.19651909 -0.09432031 -0.19547766
000040 86 c1 21 3d c7 b0 63 3e e5 2c 27 3e 7c 98 a1 3d
       0.0394912 0.22235404 0.1632572 0.07890412
000050 f9 50 21 3e 29 a0 7e 3e 1f 55 4c be 17 76 10 be
       0.15753545 0.24865784 -0.19954346 -0.14107548
000060 fe 2d 9c bd fb f4 10 bd 85 b8 33 3e ca 93 b2 bd
       -0.0762596 -0.03538988 0.17550857 -0.08719595
000070 a0 8b be ba ec 79 38 be 92 f5 95 bd 47 21 56 be
       -0.0014537461 -0.1801526 -0.073222294 -0.20911132
000080 95 06 b4 bd 3e 5a c0 3d b1 f6 60 3d 11 64 5b be
       -0.08790318 0.09392212 0.054922763 -0.21424891
000090 fb cc 78 be 00 d3 35 be 23 0e 1c 3e 0d 73 c7 3d
       -0.24296944 -0.17756271 0.15239768 0.09738741
0000a0 6a 2a 60 be 20 9c de 3d bf f3 50 bd e7 da f2 bd
       -0.2189118 0.10869622 -0.051013704 -0.118581586
0000b0 eb 0a 03 be b2 ce 72 3e 6d 67 31 3e ab 7e 73 3e
       -0.12797134 0.2371166 0.1732461 0.23778789
0000c0 78 4e 5d 3e c7 80 89 3e b5 cb ac 3d ff 93 2e 3e
       0.21611965 0.26856062 0.084372915 0.17048644
0000d0 f0 67 7e 3e 99 1f 5a be f2 7e 0f 3e 2a 67 4d 3d
       0.24844337 -0.21301116 0.1401327 0.050147213
0000e0 88 46 ae bc 94 c8 75 be 60 76 46 bd 11 48 43 be
       -0.021273866 -0.24002296 -0.048452735 -0.1907046
0000f0 0e 3c 16 be 7d f9 56 be a3 70 86 be fe 11 0c bc
       -0.14671347 -0.2099361 -0.2625781 -0.008549212
000100 08 9b 8a 3e e7 8c 17 be b5 29 ea 3a 56 c5 86 be
       0.27071404 -0.14799844 0.0017865213 -0.2632243
000110 07 e8 bb bd 2d 95 54 3e e8 56 81 bd b5 f2 f7 3d
       -0.09175115 0.20760031 -0.06315404 0.121068396
000120 b2 ae fd bd 61 c9 76 3e 27 8b aa 3b 5f 26 ff bd
       -0.12386836 0.24100257 0.0052045765 -0.124584906
000130 c8 7a 31 3e 33 d5 f9 bd ed e3 72 be b0 98 e7 3c
       0.17331994 -0.12198868 -0.2371976 0.02827105
000140 a0 c6 70 3e cb 4d 1e 3e 5d 7e 80 bd 96 f0 79 be
       0.2351327 0.15459363 -0.06274102 -0.24408183
000150 46 36 62 be 5f 46 20 3e 64 f4 01 3d 9c a3 17 bc
       -0.22091016 0.15651844 0.03172721 -0.009255316
000160 0a 23 f2 bc bc 15 f8 bd 52 41 91 3c 00 e9 b5 bd
       -0.029557724 -0.121135205 0.017731342 -0.08882332
000170 7f 83 e5 3c c8 43 8e bc 7a 67 ec bd b7 3c e8 3c
       0.028016804 -0.017366305 -0.11543174 0.028349264
000180 30 ec 55 be f2 60 47 3d af 50 8c 3d 6e 7e 92 bd
       -0.2089088 0.04867644 0.06851327 -0.07153021
000190 ba c6 87 be 67 e6 76 3e a6 14 73 be 45 49 9b bc
       -0.26518804 0.24111329 -0.23738346 -0.018955836
0001a0 91 d4 5c be 5d c7 61 3e 60 db 54 be 23 a7 6a 3e
       -0.21565463 0.22048707 -0.2078681 0.2291532
0001b0 dd b8 e6 bd 0b ca 18 be c6 a7 59 be 2c 23 48 3c
       -0.112657286 -0.14920823 -0.21255407 0.012215417
0001c0 c0 6d cc bd fb 80 31 3e 90 2f 79 3d 05 ee f5 3d
       -0.09981871 0.17334358 0.060836375 0.12008289
0001d0 f0 ff 36 3e 31 0b ef bd e3 cc e3 3c 1e 4d 02 3e
       0.1787107 -0.116720565 0.027807659 0.1272473
0001e0 23 22 44 3e d6 10 12 be 26 4b 17 be e1 51 8b 3d
       0.19153647 -0.14264235 -0.1477476 0.068027265
0001f0 0a e4 27 3e 08 20 b6 3c ab 07 80 3e 15 18 0e 3e
       0.16395584 0.02223207 0.2500585 0.13876374
000200 9f a1 c6 3c 70 96 c6 3a b7 df 6f be 31 3d 7b be
       0.024246989 0.0015151035 -0.23425184 -0.24535061
000210 df 07 93 3c cf 98 6e be 47 d8 8e 3e ab 99 31 be
       0.01794809 -0.2330048 0.27899382 -0.17343776
000220 31 57 67 3e 92 65 e8 3d 7f 08 38 3d 2d 8a 02 be
       0.22591855 0.11347498 0.044929978 -0.12748022
000230 d4 41 51 3d 10 69 c3 bd 5e f5 bf 3d 13 3a 7a 3d
       0.05108817 -0.095415235 0.09372972 0.06109054
000240 d8 42 7b 3e 8c 3a 7e 3e 4f 99 c6 3c 21 46 11 3e
       0.24537218 0.24827021 0.024243025 0.14186908
000250 a3 c3 59 3e dc bf 19 bd 38 4f d9 3c 73 09 8e 3e
       0.21266036 -0.037536487 0.026527032 0.27741584
000260 60 69 56 3e a8 e3 a1 3d 39 42 4b be 5e 4f 05 be
       0.20938635 0.0790475 -0.1984948 -0.13018557
000270 88 ca 39 be 51 27 87 3d 06 33 5f 3e be f2 43 be
       -0.18143666 0.06599296 0.21796808 -0.19135568
000280 39 ef c9 3c c7 7f 83 be f5 55 3e 3e fe 01 43 be
       0.024650203 -0.25683424 0.18587478 -0.19043729
000290 eb 7f 90 3e 78 fd cf bd d9 8c 75 3d 99 30 03 3d
       0.28222594 -0.10155767 0.059948776 0.03202877
0002a0 80 51 c7 bd 25 84 83 be 90 db ff bd 56 3a 95 bd
       -0.09732342 -0.25686756 -0.1249305 -0.07286517
0002b0 9c e4 60 be a6 7c c4 bd ff 94 52 be 56 b1 41 be
       -0.21962208 -0.09594087 -0.2056465 -0.18915305
0002c0 3c 63 5a 3d 66 a7 84 3c 2d 38 fc 3c fc 14 35 3e
       0.053317294 0.016193103 0.030788505 0.17683786
0002d0 3a b7 fd bd 7f 9c 3e 3e f7 ba be bc 0c 61 05 3d
       -0.12388463 0.18614386 -0.023282511 0.032563254
0002e0 be df a3 bd 3b ab 59 3d cf 67 30 3e be ff 84 be
       -0.0800166 0.053141814 0.172271 -0.25976366
0002f0 ed 3b 52 bd 67 55 04 be 14 57 b4 3d 94 47 8f 3e
       -0.05132668 -0.12923203 0.08805671 0.27984297
000300 9e 6c 9a bd 34 b4 fb 3d 52 1a 72 3e 00 ef 31 3d
       -0.07540248 0.122902304 0.23642853 0.04344082
000310 8f 78 6a be e0 3f 53 3d 6e 89 28 bd 16 f8 02 be
       -0.22897552 0.051574588 -0.04114669 -0.1278995
000320 d3 2a 84 3e 9d fb 6a 3e ca 63 47 bd de ef 22 3e
       0.25813922 0.22947545 -0.04867915 0.15911815
000330 a2 12 3e 3c 9c 4b 20 be e7 90 7c 3e 27 98 71 3e
       0.011601122 -0.15653843 0.24664651 0.23593198
000340 9b ea 52 bc e7 5f 84 bc 13 80 e6 3d 35 47 d4 3d
       -0.012873317 -0.016159011 0.11254897 0.10365144
000350 cb be 33 bd ef 13 90 3d 4b 0b f0 3d 30 f1 7c bd
       -0.043883126 0.07035052 0.11720904 -0.06175345
000360 b6 71 59 3e 08 63 74 bc e4 f5 8b 3e 6d 68 46 bd
       0.21234784 -0.014916189 0.27336037 -0.048439432
000370 9b 69 6f be 12 8a 2a 3d a4 d1 ef bd ed 96 23 3e
       -0.23380129 0.04163558 -0.11709908 0.15975542
000380 e0 1e 85 be a2 ad fb bc 92 b9 2d 3d e9 9b 96 bc
       -0.26000118 -0.030722443 0.0424133 -0.01838489
000390 d2 22 00 3e e8 65 09 3e 8e 40 4f 3e 13 7f 49 be
       0.12513283 0.1341778 0.2023947 -0.19677381
0003a0 44 0e 15 be b4 72 0f 3e 00 f0 a7 bd 44 6e 20 be
       -0.14556223 0.140086 -0.08200073 -0.15667063
0003b0 14 94 80 be 55 71 c5 3d 09 21 d6 3d 27 bb 0e be
       -0.25112975 0.09640757 0.1045552 -0.1393858
0003c0 2b f1 75 3e f3 25 90 3b e2 41 44 be 7d 2d a3 3d
       0.2401778 0.004399055 -0.19165757 0.079676606
0003d0 04 b8 23 3e a0 e7 62 3e 67 f3 b9 bd 3c 2c df 3d
       0.15988165 0.2215867 -0.090796284 0.10897109
0003e0 68 38 05 be 9f ee 06 3e 91 c6 d4 bc 9a 3c 49 bd
       -0.13009799 0.13176964 -0.02597359 -0.04913006
0003f0 b2 6e 81 bb de 97 56 3e 89 23 3a 3e 5e 6f 1f be
       -0.0039499635 0.2095637 0.18177618 -0.15569827

onnx::MatMul_13 f4 [512, 3]
000000 36 5c 05 bc b0 2e 50 bb e0 15 21 bd 58 78 99 bc
       -0.008139661 -0.003176611 -0.039327502 -0.018734142
000010 bb 54 4a bd f9 a4 eb bb 0e 43 3c bc 05 fd 23 bc
       -0.04939721 -0.007191297 -0.011490596 -0.010009055
000020 13 e1 2d bd 6d fc aa ba 8c ba fd bc fe b6 99 3c
       -0.042450976 -0.00130452 -0.030972742 0.018764015
000030 a3 c2 7f 3b e7 18 26 bd 28 08 d5 bc 78 4a 5b bd
       0.0039025925 -0.040551092 -0.026004866 -0.053537816
000040 b2 f2 a8 3c f7 3b f6 3c e3 c7 9f bc cb 2f 69 3c
       0.020623539 0.03005789 -0.019504493 0.014232586
000050 d3 af 71 bd e9 d7 af bc 20 f8 75 3b 0a 21 97 bc
       -0.05900557 -0.021465259 0.0037531927 -0.018448371
000060 3b 05 4e 3c b1 2a 77 bc 39 62 91 3c da 97 01 bd
       0.012574489 -0.015085862 0.017747032 -0.031638958
000070 f5 f8 18 bb e6 84 37 bd 1c 31 d7 3c a2 5e a8 bc
       -0.002334175 -0.044804476 0.026268534 -0.020552937
000080 a7 ea 85 3c 56 4c 7c bc 24 c5 4a bd da 3f c4 bc
       0.016347243 -0.015399059 -0.049504414 -0.023956228
000090 ee 1e 47 3b ff ce 4e bd 6b c4 d0 bc 7a b7 8b 3b
       0.0030383426 -0.050490376 -0.025484284 0.0042638155
0000a0 06 67 9f bc 0e 5e eb ba e5 0e 20 bc 8d 36 80 3c
       -0.019458305 -0.0017957108 -0.009769176 0.015651012
0000b0 a4 e7 9a 3c 76 1d d4 3c ba 99 24 3c 03 68 21 bd
       0.018909283 0.025892954 0.010046417 -0.039405834
0000c0 89 dd f6 3c 64 fd 2d bd 29 3e 83 3b 84 d4 50 bd
       0.030134933 -0.04247798 0.004005213 -0.05098392
0000d0 1e 74 5c bd 87 2c 16 bd b3 0a 2d bc 24 0f 06 bd
       -0.053821675 -0.03666356 -0.010561633 -0.032729283
0000e0 49 7a f0 3b 8a 61 fb bc de 8a d7 3c be c5 0e bd
       0.0073387963 -0.030686159 0.026311334 -0.03485655
0000f0 fe 98 de 3c 66 2d 85 bc 37 02 41 bc 56 a4 b4 3c
       0.027172562 -0.016257 -0.011780313 0.022051018
000100 a0 6f f7 bc 98 df 97 ba 2e 52 be 3c e5 05 3b bd
       -0.030204594 -0.0011587022 0.023232546 -0.04565992
000110 f6 16 cf 3c fb e0 82 bc 76 70 c3 3c c9 9f e1 bc
       0.025279503 -0.01597642 0.023857336 -0.027542012
000120 be 6c 8b 3c b8 c6 6a bd c9 7c 4f bd 5f 59 56 bd
       0.017019626 -0.05731842 -0.050656114 -0.052331325
000130 9c 7e ea bc bb 32 57 bc 49 10 4f bd ea d5 a3 ba
       -0.028624825 -0.013134654 -0.05055264 -0.0012499664
000140 9b 6e 1a bd f6 bc 59 bd 17 15 c5 3b f9 40 a4 bb
       -0.037703138 -0.053158723 0.006014477 -0.005012628
000150 39 09 22 bb e1 5f 38 bd 28 f1 f0 bc 3c 6d ff 3a
       -0.0024724735 -0.045013312 -0.029411867 0.001948751
000160 f0 e0 2a bd 00 52 52 bd 6c 8d 0a bd 87 aa a2 bc
       -0.041718423 -0.051347733 -0.033826277 -0.019856704
000170 fc 48 71 bd fe 13 a1 bc ad 45 87 bc fa dd 58 bd
       -0.058907494 -0.019662853 -0.016512716 -0.05294607
000180 de 97 8b 3c e5 3c b5 3c 48 84 60 bd eb e2 ac bc
       0.01704019 0.022123763 -0.054813653 -0.021104297
000190 ac 4f c6 bc c6 07 0f bc 45 62 d9 3c 23 6e 8e 3c
       -0.024207912 -0.008729881 0.026536116 0.017386502
0001a0 9a 2b d8 3c 96 77 d5 bc b1 58 a9 ba 98 d9 d1 bc
       0.026387978 -0.026058 -0.0012920109 -0.025616452
0001b0 d1 b1 44 bd 29 00 c4 3b b4 fc ce 3b 4b e2 84 bc
       -0.04802114 0.0059814644 0.0063167457 -0.016221186
0001c0 ed 86 55 bd ca 8d a5 3c 57 0c a4 bc 50 00 a8 3c
       -0.05213063 0.020209212 -0.020025415 0.020507962
0001d0 60 c6 06 3c d1 c3 ff bc 9a 2b c5 3c 36 8c 59 bd
       0.008226007 -0.031221302 0.024068642 -0.05311223
0001e0 1a 26 79 3c 3f 9d 55 bc 0a 0b 93 bc 0b 36 bb bc
       0.015206838 -0.013037979 -0.0179496 -0.022852918
0001f0 b2 d1 54 3c d8 d8 c4 bc 01 43 4a bd be 20 01 3d
       0.012989448 -0.02402918 -0.049380306 0.031525366
000200 3e 15 80 bc c1 5c c7 3b cb 60 e5 bc f7 7e 42 3c
       -0.015635129 0.006084055 -0.028000256 0.011871091
000210 61 f2 3f 3c da 34 af bc 44 36 70 3c ef 2d 29 bd
       0.0117155025 -0.021387506 0.014661375 -0.04130357
000220 d1 d7 85 3c 44 6e 7f bc 8c b6 0f bc ed 06 9e bc
       0.01633826 -0.015590254 -0.00877155 -0.019290412
000230 27 b3 33 bd 0f 5a fc bc 47 4f 44 3c 16 30 5f bc
       -0.043872025 -0.030804662 0.011981792 -0.013622304
000240 17 2a a9 bc 21 6f 5c 3b 16 4e a7 3b 0e 73 3b bc
       -0.020649953 0.0033635574 0.005105744 -0.011441005
000250 ba 1a e1 bc 54 70 79 bd 02 4c 72 3c 86 cd bd 3c
       -0.027478565 -0.06089814 0.0147886295 0.02316929
000260 ce 99 1c bc 8f 5a 2b bd 05 de f0 bc a4 35 ca 3c
       -0.009558154 -0.04183441 -0.029402742 0.024683781
000270 ec 97 33 bc 60 e3 9a 3b 09 ee d5 bc e8 84 8c 3b
       -0.010961514 0.0047268122 -0.02611448 0.0042883046
000280 53 7e c3 3c ad 60 9f ba 1d af 16 3c 8b 5c c7 bc
       0.023863947 -0.0012159549 0.009197024 -0.02433612
000290 eb f2 8d 3a b2 7b c5 3c c4 ee ae 3c f2 76 1d bd
       0.0010829841 0.024106834 0.021354087 -0.038443513
0002a0 95 25 79 3c 6b 45 39 bc e8 35 b2 3b f4 d5 cd 3c
       0.015206714 -0.011308054 0.005438555 0.025126435
0002b0 8b 3b 00 3d 90 92 00 bd 7e 62 ff bc c2 08 e5 3c
       0.031306785 -0.031389773 -0.031174894 0.027958278
0002c0 02 51 05 bd ab 87 ed 3c a0 ff 60 3b c5 5e 25 bd
       -0.03254796 0.028995356 0.0034332052 -0.040373582
0002d0 9e d7 ed bc 96 32 0b 3d 02 08 90 bb cf fc 08 3d
       -0.029033478 0.03398379 -0.004395486 0.033444222
0002e0 e0 01 d5 bc 02 61 41 bd 70 5d 12 bb fe 68 0c bd
       -0.02600187 -0.047211654 -0.0022333525 -0.034279816
0002f0 9d 0f 85 3c 85 df 4e bd 07 e9 48 bd c1 a3 c3 bb
       0.016242797 -0.050506134 -0.049050357 -0.0059704487
000300 96 d0 01 bd ee 81 d9 3c 2e 88 36 bd 90 9a 8f 3c
       -0.031693064 0.026551213 -0.044563465 0.017529756
000310 41 e2 1c bc c2 0a 14 bd 61 cb 90 3c 8a 2d 04 bc
       -0.0095754275 -0.036143072 0.017675104 -0.008067498
000320 3c 7b e5 bc e1 2d 2e 3d 34 52 14 bd 34 57 4c bc
       -0.028012864 0.042524222 -0.036211208 -0.012471963
000330 ca fd 9b 3b 2c 3b 5e bc 78 4d 9d 3c df 73 52 bb
       0.0047604786 -0.013563912 0.019201979 -0.0032112522
000340 86 d1 a2 bc c4 1f c7 3c 83 51 a2 bc a8 a1 86 bb
       -0.0198753 0.02430714 -0.019814258 -0.0041086264
000350 f3 de 63 bd 6e fd 60 3c df 16 94 ba 20 08 e3 ba
       -0.055632543 0.013732297 -0.001129832 -0.0017321147
000360 d9 0a 21 bc 55 f7 bb bc 52 af 3f bc 3c 8c 0b bc
       -0.009829246 -0.022945086 -0.011699514 -0.008517321
000370 26 96 f2 bc b2 8b 35 3c 2e 94 2a bd e3 dd ab 3c
       -0.029612612 0.011080669 -0.04164522 0.020979827
000380 99 11 4d bd 88 90 8a 3c e0 b4 ab 37 10 7e 46 3b
       -0.05006561 0.016914621 2.0469015e-05 0.0030287541
000390 89 0c 13 bd d3 2a e1 bb 84 12 15 bd c5 26 02 3d
       -0.035900626 -0.00687156 -0.03639461 0.031775255
0003a0 cc ee 40 39 03 5b 6f bc 0a 49 a9 bc 22 d8 13 3d
       0.00018399506 -0.014609101 -0.02066471 0.036094792
0003b0 63 15 d0 3c 66 c3 03 3d f9 7f 85 bc 05 91 d9 bc
       0.025400823 0.03216877 -0.016296374 -0.026558409
0003c0 15 9e 59 bd 53 76 5a 3d b6 57 d2 3a 7d 66 6e bd
       -0.053129274 0.0533355 0.0016047868 -0.05820321
0003d0 ff 4e 31 3c 35 11 6f bb 74 5c 32 3c a0 66 fc bc
       0.010822057 -0.0036478762 0.0108863 -0.030810654
0003e0 5f 8c b8 ba e0 62 05 bd d1 7c c1 bc 94 72 19 bc
       -0.001407992 -0.032564998 -0.023619087 -0.009365696
0003f0 55 28 72 bc 8c c0 ff bc 8a af ed 3c f6 46 64 3c
       -0.014780124 -0.031219743 0.029014368 0.013932934
