models/model-1100.onnx (onnx, 37455 bytes, 4 tensors)

linear1.bias f4 [512]
-0.6208972 -0.24095622 -0.26915815 -0.23518603 -0.8948782 -1.8619443 -1.0561457 -0.3055532
-0.49093276 -6.699183 -1.7688957 -0.16630416 -4.787647 -0.059643116 -0.29504946 -2.6540031
-0.36009476 -0.3381898 -0.11817578 -0.03518778 -4.3771453 -0.52842087 -0.4326388 -6.204683
-0.4583723 -0.45862815 -0.5015646 -0.019273134 -7.0463853 -0.19997863 -0.27603206 -7.0711274
-0.34213394 -1.138231 -3.6824918 -0.32692078 -0.049637634 -0.2925602 -3.5745597 -1.0679117
-7.1942835 -1.2703805 -4.533492 -0.42001504 -0.18293652 -2.365736 -3.791684 -0.1536039
-0.33107638 -0.16242452 -0.1444023 -0.42417303 -0.09152487 -1.3478385 -0.2725015 -0.47913775
-0.2819122 -0.04481919 -2.4475656 -2.582969 -0.47001937 -0.22805162 -0.118565366 -0.74331325
-0.12472506 -6.748042 -0.15124385 -1.7713816 -0.2251746 -0.24552141 -3.374376 -0.18945408
-4.785683 -0.18148074 -0.36234704 -0.35679078 -1.3080473 -3.4946163 -2.030391 -0.50008464
-0.25540996 -0.10593715 -0.28823972 -0.4219529 -0.5187071 -0.61950654 -0.36171958 -0.0054735425
-0.0008031719 -0.029213334 -0.64663625 -2.8806973 -0.30195144 -0.36522457 -0.56203085 -0.113450825
-3.0165746 -4.3303504 -0.0037685018 -0.4139932 -5.9983153 -5.102032 -1.8953819 -0.13021708
-4.085749 -0.21243484 -0.7491765 4.695684 -0.2767134 -0.3473564 -0.73502344 -3.1099072
-0.159687 -0.23455636 -0.8998767 0.17900728 0.39515933 -0.83761513 -0.072938815 3.9428957
-0.022131685 -0.16342902 -0.57627666 -2.9867947 -0.42350346 -0.2605665 1.1605836 -0.73747337
-0.23459455 -1.3367194 -0.27401495 -4.4637456 -0.40552652 -1.3787763 -0.19293214 -0.60754514
-5.6957326 -0.418053 -0.53514564 -0.4095094 -0.6757728 -0.21052945 -0.08584449 -0.113712005
-0.323755 -2.5048938 -1.3759762 -0.97638667 -0.22663684 -0.35086355 -0.32344973 -1.1151543
-0.9034513 -0.20585741 -0.61132 -0.29041317 -0.29179332 -5.354057 -3.7696087 -0.32411882
-0.21088333 -0.097097866 -0.47741315 -0.1817647 -3.7590075 -0.39819062 -5.816235 -2.4738326
-3.6605396 -3.0669303 -0.2000219 -0.25427336 -4.595414 -2.2840421 -5.403541 -0.07445956
-8.203915 -0.32658166 -0.41635403 -3.9383285 -0.25430822 0.4966295 -0.45822665 -2.4413948
-0.5566097 -6.570986 -0.5675408 -0.78539795 -0.2900715 -0.31309068 -0.20127751 -4.9258056
-3.0188367 -4.5023775 -2.109763 -0.3628019 -0.42131445 -1.2701668 -0.03705073 -0.34679565
-1.1313854 -0.3203386 -0.37846997 -0.278975 -0.5510621 -0.35436323 -0.2983212 -0.43410408
-0.26763675 -0.6075864 2.4280431 -5.7476215 -0.34888694 -5.959051 -2.9415057 -0.6163072
-0.37229887 -0.51854926 -0.19291742 -0.5762299 -0.05600471 -0.36236578 -0.2798952 -0.4296291
-0.9530819 -0.5839659 -3.9434986 0.27853686 -0.12040016 -0.35243163 -0.26680315 -4.3348556
-0.26339456 -6.0806766 -0.96032906 -0.4936778 -0.43836004 -0.23829448 -3.0687623 -2.4549973
-0.014289484 -4.599627 -0.32577434 -0.4472773 -2.223072 0.057729058 -0.22802053 -0.28236032
-0.2983773 -0.082808666 -0.15016197 -4.435758 -0.4662444 -1.121441 -0.5035124 -0.15933207
00000000: 1ef3 1ebf 3abd 76be 19cf 89be 9bd4 70be
00000010: bd16 65bf 3154 eebf c82f 87bf 7871 9cbe
00000020: 8a5b fbbe b55f d6c0 2d6b e2bf a34b 2abe
00000030: 6734 99c0 574c 74bd b910 97be 30db 29c0
00000040: 575e b8be 3727 adbe 2506 f2bd 1021 10bd
00000050: 9311 8cc0 9746 07bf d582 ddbe c38c c6c0
00000060: c6af eabe 4fd1 eabe 8a66 00bf b1e2 9dbc
00000070: fd7b e1c0 33c7 4cbe 1354 8dbe ad46 e2c0
00000080: 2e2c afbe 8eb1 91bf f2ad 6bc0 2962 a7be
00000090: d550 4bbd 73ca 95be 96c5 64c0 55b1 88bf
000000a0: 9237 e6c0 d49b a2bf 5e12 91c0 360c d7be
000000b0: b653 3bbe 3868 17c0 f3aa 72c0 574a 1dbe
000000c0: d882 a9be 9d52 26be 32de 13be 352d d9be
000000d0: 6471 bbbd f985 acbf 5185 8bbe 8b51 f5be
000000e0: cc56 90be 5494 37bd eaa4 1cc0 5d4f 25c0
000000f0: 61a6 f0be 5d86 69be 66d2 f2bd c749 3ebf
00000100: da6f ffbd f6ef d7c0 abdf 1abe a2bc e2bf
00000110: 2c94 66be f769 7bbe c7f5 57c0 4000 42be
00000120: 5124 99c0 16d6 39be 8d85 b9be 48ad b6be
00000130: 186e a7bf cba7 5fc0 edf1 01c0 8c05 00bf
00000140: 18c5 82be 94f5 d8bd 2894 93be 360a d8be
00000150: fdc9 04bf fb97 1ebf 4f33 b9be 675b b3bb
00000160: f48b 52ba cd50 efbc f489 25bf 585d 38c0
00000170: 6199 9abe b7fe babe 41e1 0fbf e858 e8bd
00000180: 8f0f 41c0 3b92 8ac0 f8f8 76bb ebf6 d3be
00000190: 33f2 bfc0 d943 a3c0 e09b f2bf a057 05be
000001a0: 75be 82c0 8588 59be 08ca 3fbf 0b43 9640
000001b0: 61ad 8dbe b3d8 b1be 7f2a 3cbf b808 47c0
000001c0: fd84 23be 8b2f 70be 525e 66bf af4d 373e
000001d0: 5352 ca3e f26d 56bf f260 95bd 6758 7c40
000001e0: 824d b5bc f059 27be de86 13bf a527 3fc0
000001f0: 72d5 d8be f968 85be 018e 943f 0ecb 3cbf
00000200: 8e39 70be 9f19 abbf b04b 8cbe 01d7 8ec0
00000210: 2ca1 cfbe be7b b0bf 0190 45be 1488 1bbf
00000220: 7143 b6c0 0b0b d6be 4eff 08bf 37ab d1be
00000230: 72ff 2cbf 0895 57be 3ccf afbd d7e1 e8bd
00000240: 37c3 a5be 2e50 20c0 fd1f b0bf 7af4 79bf
00000250: 7d13 68be 63a4 b3be 349b a5be 60bd 8ebf
00000260: 9648 67bf 49cc 52be 787f 1cbf 09b1 94be
00000270: ef65 95be 6f54 abc0 4541 71c0 e7f2 a5be
00000280: cdf1 57be 3fdb c6bd 7f6f f4be 8720 3abe
00000290: 9493 70c0 a4df cbbe 991e bac0 4653 1ec0
000002a0: 4846 6ac0 9648 44c0 8ad2 4cbe 1e30 82be
000002b0: a20d 93c0 bf2d 12c0 cfe9 acc0 417e 98bd
000002c0: 3c43 03c1 b635 a7be 5b2c d5be 930d 7cc0
000002d0: b034 82be 3946 fe3e af9c eabe d03f 1cc0
000002e0: f97d 0ebf 8445 d2c0 5b4a 11bf d70f 49bf
000002f0: 4084 94be 6c4d a0be b11b 4ebe 33a0 9dc0
00000300: 9f34 41c0 7a13 90c0 5b06 07c0 2cc1 b9be
00000310: 87b6 d7be d394 a2bf 82c2 17bd 338f b1be
00000320: 3dd1 90bf 6c03 a4be d1c6 c1be d0d5 8ebe
00000330: 6812 0dbf 196f b5be 8ebd 98be e442 debe
00000340: af07 89be c88a 1bbf 0f65 1b40 84ec b7c0
00000350: 4fa1 b2be 8cb0 bec0 a141 3cc0 4fc6 1dbf
00000360: f59d bebe a5bf 04bf 258c 45be cd83 13bf
00000370: 3265 65bd 0288 b9be 6c4e 8fbe 58f8 dbbe
00000380: 2dfd 73bf ca7e 15bf 4862 7cc0 629c 8e3e
00000390: 5c94 f6bd eb71 b4be 6c9a 88be 23b7 8ac0
000003a0: a7db 86be e794 c2c0 20d8 75bf 56c3 fcbe
000003b0: ba70 e0be 7803 74be 9a66 44c0 ad1e 1dc0
000003c0: 711e 6abc 2530 93c0 e5cb a6be 8801 e5be
000003d0: d046 0ec0 4e75 6c3d 377e 69be 8891 90be
000003e0: e9c4 98be 9797 a9bd 0fc4 19be bbf1 8dc0
000003f0: 96b7 eebe 618b 8fbf 30e6 00bf f227 23be

linear2.bias f4 [3]
-2.9233599 2.460673 3.0092342
00000000: 5418 3bc0 ab7b 1d40 4b97 4040

onnx::MatMul_12 f4 [14, 512]
-0.9426934 -0.11237257 -0.37538788 -0.021281112 -0.5702454 0.28934935 0.18075335 -0.11337646
-0.61850864 1.7398254 -2.2798116 -0.2292343 -3.5333412 -0.28386828 -0.12844841 6.4396114
-0.34874156 -0.02763575 0.013451091 -0.35652578 -2.4921184 0.16774274 0.1319991 0.8890245
-0.4713888 0.098954484 -0.67262936 0.051724385 1.3270342 -0.037324104 -0.036572386 2.1878757
0.21781962 0.2926122 1.0334553 -0.07947642 -0.062210765 -0.9741086 -2.1020584 -0.52995396
2.805152 -0.14121851 0.37149525 0.19641986 -0.018688403 -2.158759 0.5660667 -0.3233966
-0.061409272 0.001251377 0.06804857 -0.091143444 0.03769187 -5.2011123 -0.16444618 -0.93353885
0.16135204 -0.3057895 1.1388832 0.5274126 -0.26283175 -0.35550073 -0.24741037 0.24739687
0.040477265 -0.08737379 -0.12393786 -0.13385913 0.16259515 -0.4033406 -1.2329218 0.028379206
-1.7817515 -0.1798721 -0.34295505 -0.2812607 0.13583882 -2.7283428 0.26908255 0.19030538
-0.17643341 -0.053978574 0.055778794 -0.22208755 0.13332325 0.18794021 0.113752395 -0.1652863
-0.24219693 -0.077542864 -0.32593474 0.545521 -0.14488605 0.093589455 -0.82853234 0.29168057
-1.073249 1.7450024 -0.033367492 0.06999635 -5.094573 1.6157701 0.35777545 -0.1718716
1.0214942 0.13221598 0.23000883 -1.1067516 -0.22384594 -0.32393184 0.16126226 0.20973054
0.0018702376 0.24613014 0.17463738 -1.0601343 -1.9215465 0.17727722 0.017141193 -1.3493178
-0.13924956 -0.4505453 0.074027486 -0.17173913 -0.0133414585 -0.24515922 0.4442215 -0.080894336
-0.11772335 -0.19706893 0.101707645 1.5954392 -0.41322824 0.28926504 0.07623727 -0.015186845
-1.7827033 -0.51311225 0.052049816 -0.4989952 -0.952099 -0.10213093 -0.017625622 -0.14261611
0.089750886 -1.5263902 -0.8359177 -0.21447909 0.02300885 -0.17521949 -0.016300734 -3.0325544
0.105507284 -0.13150886 0.2978707 -0.21960168 0.036292195 -1.6544138 0.70874286 0.2715586
-0.18035372 -0.38402817 0.008545005 -0.07944636 -2.2431095 -0.3559907 -1.4030243 0.45976686
-0.22165412 0.7865219 -0.14650059 -2.1563709 0.5987696 0.6238711 2.6949084 -0.10928148
1.6434662 -0.092978604 0.07155738 -0.3160872 -0.2669891 -0.42918727 -0.20084397 -2.817053
0.24376637 2.0072675 0.06323603 -0.27127185 0.060229708 0.035183724 0.11683183 2.2296743
-2.118426 1.0393561 1.2138014 -0.25996292 -0.0043587126 -0.72945035 0.015996225 0.38339174
0.3202748 0.129584 -0.33329552 0.14494148 0.10034691 -0.19727074 -0.3349726 -0.3267996
-0.068433926 0.16507062 2.9034052 -2.1917455 -0.059121512 0.74775964 -1.3950982 0.20727314
-0.0024256913 -0.51347846 -0.17415036 0.24207065 -0.07277842 -0.16390976 0.0005982486 -0.27435127
-0.3349267 0.06627139 1.7953473 0.37903345 0.17204376 -0.25533128 -0.029570641 -0.4825424
0.006613611 0.6240024 0.16205816 -0.39744478 -0.19809918 0.16500214 -1.5785621 -0.9006175
-0.23053744 0.5891462 -0.007241783 0.16761592 0.35067862 -0.3596329 -0.27453536 0.12561163
-0.07907378 -0.355367 -0.32672623 -0.85106736 0.14373672 -0.2813058 -0.05004084 -0.025057314
00000000: 5b54 71bf 9723 e6bd d732 c0be ba55 aebc
00000010: 9afb 11bf 9925 943e 6817 393e eb31 e8bd
00000020: 9556 1ebf 99b2 de3f 6fe8 11c0 65bc 6abe
00000030: 4322 62c0 2f57 91be fb87 03be 4c11 ce40
00000040: 418e b2be 5e64 e2bc f761 5c3c 8c8a b6be
00000050: de7e 1fc0 c1c4 2b3e c62a 073e 1c97 633f
00000060: df59 f1be a6a8 ca3d 7031 2cbf f3dc 533d
00000070: 42dc a93f 29e1 18bd edcc 15bd 2806 0c40
00000080: 1b0c 5f3e 44d1 953e 4348 843f 89c4 a2bd
00000090: b7d0 7ebd 2e5f 79bf 2088 06c0 10ab 07bf
000000a0: 9c87 3340 969b 10be a034 be3e 4a22 493e
000000b0: 6c18 99bc 1c29 0ac0 bfe9 103f 3d94 a5be
000000c0: 4a88 7bbd 3f05 a43a 0c5d 8b3d 6aa9 babd
000000d0: ca62 1a3d 836f a6c0 9464 28be 67fc 6ebf
000000e0: 7839 253e 7190 9cbe edc6 913f 8304 073f
000000f0: e291 86be 3104 b6be 2559 7dbe 9b55 7d3e
00000100: 7dcb 253d 08f1 b2bd 22d3 fdbd 5e12 09be
00000110: 587f 263e a982 cebe 62d0 9dbf 827b e83c
00000120: 6f10 e4bf 6430 38be ce97 afbe 6701 90be
00000130: 5519 0b3e 2b9d 2ec0 30c5 893e 6adf 423e
00000140: f6aa 34be a318 5dbd 4e78 643d eb6a 63be
00000150: e485 083e 6673 403e 04f7 e83d d040 29be
00000160: 7902 78be cbce 9ebd ebe0 a6be 44a7 0b3f
00000170: 025d 14be d4ab bf3d b21a 54bf 2857 953e
00000180: 3960 89bf 3d5c df3f 5aac 08bd 3f5a 8f3d
00000190: be06 a3c0 8ed1 ce3f 582e b73e 1cff 2fbe
000001a0: 52c0 823f a063 073e 6f87 6b3e 09aa 8dbf
000001b0: df37 65be 65da a5be ef21 253e 9ac3 563e
000001c0: c322 f53a 8a09 7c3e 24d4 323e 7bb2 87bf
000001d0: 3cf5 f5bf 2988 353e b06b 8c3c 72b6 acbf
000001e0: 7097 0ebe e0ad e6be b99b 973d 62dc 2fbe
000001f0: 2296 5abc 050b 7bbe 0071 e33e eeab a5bd
00000200: f118 f1bd 70cc 49be 194c d03d 5a37 cc3f
00000210: a792 d3be 8c1a 943e 4922 9c3d 3fd2 78bc
00000220: 9f2f e4bf 535b 03bf 3032 553d 4d7c ffbe
00000230: c3bc 73bf 052a d1bd 9c63 90bc f509 12be
00000240: 50cf b73d c160 c3bf b4fe 55bf 68a0 5bbe
00000250: 0e7d bc3c bd6c 33be 1e89 85bc 5f15 42c0
00000260: 3414 d83d 42aa 06be 8282 983e 43df 60be
00000270: 20a7 143d d5c3 d3bf 2c70 353f bb09 8b3e
00000280: a5ae 38be 579f c4be 5900 0c3c c6b4 a2bd
00000290: 1b8f 0fc0 6a44 b6be 4d96 b3bf 9066 eb3e
000002a0: 4cf9 62be 8059 493f 4004 16be fb01 0ac0
000002b0: f748 193f 04b6 1f3f 6179 2c40 f8ce dfbd
000002c0: 1a5d d23f 916b bebd ad8c 923d 2ed6 a1be
000002d0: ccb2 88be 6fbe dbbe 0baa 4dbe 994a 34c0
000002e0: e49d 793e 1277 0040 e481 813d 25e4 8abe
000002f0: 6db3 763d cf1c 103d 8745 ef3d fcb2 0e40
00000300: 4b94 07c0 9f09 853f d85d 9b3f dc19 85be
00000310: 88d3 8ebb 42bd 3abf 840a 833c ec4b c43e
00000320: 0ffb a33e abb1 043e b6a5 aabe 8a6b 143e
00000330: ae82 cd3d 5701 4abe 8781 abbe 4752 a7be
00000340: 1627 8cbd 4608 293e 64d1 3940 8f45 0cc0
00000350: 6629 72bd 2d6d 3f3f 9492 b2bf 693f 543e
00000360: 59f8 1ebb 5373 03bf 7954 32be 5ee1 773e
00000370: da0c 95bd f6d7 27be c9d3 1c3a c577 8cbe
00000380: 837b abbe 4bb9 873d f1cd e53f ac10 c23e
00000390: 3d2c 303e c8ba 82be 213e f2bc cc0f f7be
000003a0: fdb6 d83b 9fbe 1f3f 93f2 253e e27d cbbe
000003b0: 83da 4abe 52f6 283e 530e cabf de8e 66bf
000003c0: 0212 6cbe 49d2 163f 7b4c edbb 82a3 2b3e
000003d0: 268c b33e ce21 b8be e68f 8cbe 56a0 003e
000003e0: 6ff1 a1bd aaf2 b5be a948 a7be 8ddf 59bf
000003f0: b82f 133e 5007 90be a0f7 4cbd ff44 cdbc

onnx::MatMul_13 f4 [512, 3]
0.052601527 -0.035368696 -0.09146894 0.009430496 0.1437814 0.3532999 -0.058007065 -0.033434648
-0.04093839 0.017378818 -0.021414313 0.009717442 -0.14632434 0.014502946 0.05455 0.0015385239
0.22465909 -0.057330776 0.1270311 0.23832098 0.012688109 0.1786873 0.45091534 -0.98902327
0.05412642 0.039225835 0.09856084 0.8277271 0.28261185 0.072227724 0.246729 -0.76853853
-0.8808814 0.01189663 -0.013693553 -0.011738267 -0.1594177 -0.42490587 -0.41733512 0.018563151
-0.031214397 0.013368739 0.1283204 -0.020167463 -0.04353379 -1.3166621 -1.1084781 -1.4145154
-0.015335548 0.00079842994 0.12992208 0.052698888 -0.06770657 -0.024274109 -0.0023267611 0.050385635
-0.090925545 0.01569994 -0.009766836 0.12643552 0.52601445 0.62233055 1.7829193 0.08313232
0.30000106 0.053965405 0.075077035 0.34645015 -0.3155457 -0.0050183423 0.80251575 0.17756797
-0.17979768 -0.0067557944 0.00763985 0.00016267414 -0.261823 0.096511595 -0.015103345 0.10938757
-0.03139142 0.022108551 0.02034948 -0.05350705 0.27664647 2.2767456 0.04352345 -0.060086645
-0.13848504 -0.027611637 -0.023614226 -0.049514823 -0.12830704 0.72447443 -0.29619178 0.69619286
-0.009080261 -0.004932815 -0.025428887 0.05674763 0.2386585 0.2611191 1.1803461 -1.5116043
-2.4622612 0.015060012 -0.0022763098 -0.07962777 0.07356438 -0.32610235 -0.0017078163 -0.035001583
0.07016237 0.0018433764 -1.6162614 -1.8957319 -1.6774962 0.25412685 -2.3664606 -0.28064153
0.97336257 0.10479667 0.03793999 -0.012171502 0.03372429 -0.02843713 -0.2548467 -0.97745585
-0.76085186 -0.03215626 -0.012342308 -0.0072651813 -0.017779917 -0.022798026 -0.1302122 -0.6450908
-0.5593486 -0.087421864 2.1624064 -1.0909604 -1.3610611 0.114705056 -0.017010687 0.09223082
-0.023081059 0.027577141 -0.03876999 -0.0022573858 -0.013031742 -0.03163561 0.057913 -0.018083172
-0.042738233 0.0073258937 -0.023872642 0.01585478 -0.035915613 -0.01853387 -0.035242315 -0.36095488
-1.7234429 -1.9859076 0.004547383 0.0072791325 -0.14417201 -0.04111094 0.0054800794 0.016119083
-0.10420349 0.044837497 0.010977523 0.07446821 0.060040023 -0.010148978 0.5889477 -0.07138705
-0.8568644 -0.017976526 0.96999586 -0.07934052 -0.021642294 0.027977528 -0.0088881375 -0.1537679
0.17698942 -0.019612834 -0.028114194 -0.02161099 -0.030272085 0.6347733 0.11211904 0.45535707
0.034451637 0.012592992 -0.08781808 -0.6450873 -0.18744165 -0.2316417 -0.028275527 -0.007226611
0.00013223683 0.70026475 0.14694454 -0.019118493 0.0733431 0.03740197 0.018128607 0.0031846236
-0.18888286 -0.06316519 -0.8477564 -1.3045481 -1.1040313 -0.050735805 0.012361224 -0.07204215
-0.0011781129 3.580015 3.0021722 0.025787199 -0.028344963 -0.014633051 -0.041931964 0.004109502
-0.044343375 -0.04853376 -0.014137782 -0.010751622 0.8354078 -0.13122837 1.0993023 1.2198731
-0.9887253 -1.6589907 0.021831771 -0.22273736 -0.017491298 0.20678912 0.49354848 -0.13041699
-0.11078508 -0.0074704764 -0.007682072 0.007440635 -0.038404267 0.012392203 0.03687936 -0.037167657
-0.0023711238 0.045519356 0.019462112 -0.120651804 0.13214448 0.9416372 0.5316814 -0.023424301
00000000: b374 573d c4de 10bd 1154 bbbd 5e82 1a3c
00000010: 6e3b 133e b9e3 b43e d198 6dbd c5f2 08bd
00000020: 03af 27bd 065e 8e3c 126d afbc e835 1f3c
00000030: 0cd6 15be c49d 6d3c d26f 5f3d 4ca8 c93a
00000040: 080d 663e add3 6abd 7114 023e 6a0a 743e
00000050: c9e1 4f3c cef9 363e 60de e63e a130 7dbf
00000060: aab3 5d3d 45ab 203d 44da c93d ece5 533f
00000070: 80b2 903e 21ec 933d 87a6 7c3e f1be 44bf
00000080: 7281 61bf 15ea 423c ed5a 60bc dc51 40bc
00000090: 653e 23be 438d d9be f3ac d5be c011 983c
000000a0: 56b5 ffbc 8e08 5b3c 6c66 033e 3c36 a5bc
000000b0: 7d50 32bd 6288 a8bf 9ce2 8dbf d70e b5bf
000000c0: f341 7bbc ba4d 513a 4b0a 053e cada 573d
000000d0: bea9 8abd 7fda c6bc 937c 18bb 2b61 4e3d
000000e0: 2c37 babd 299d 803c 1405 20bc 5078 013e
000000f0: e2a8 063f 0e51 1f3f b336 e43f 4741 aa3d
00000100: bd99 993e d40a 5d3d fdc1 993d ea61 b13e
00000110: 358f a1be e870 a4bb ac71 4d3f 61d4 353e
00000120: e21c 38be b65f ddbb b557 fa3b 8293 2a39
00000130: aa0d 86be dfa7 c53d 0574 77bc 9706 e03d
00000140: 4a94 00bd fe1c b53c f4b3 a63c 352a 5bbd
00000150: 9ba4 8d3e 33b6 1140 a545 323d 6a1d 76bd
00000160: 06cf 0dbe cd31 e2bc 9f72 c1bc 0ed0 4abd
00000170: ec62 03be 2877 393f 73a6 97be b239 323f
00000180: 60c5 14bc 74a3 a1bb 3e50 d0bc 3470 683d
00000190: e562 743e 67b1 853e 9515 973f 407c c1bf
000001a0: b095 1dc0 45be 763c 242e 15bb e213 a3bd
000001b0: eca8 963d e3f6 a6be ced8 dfba d25d 0fbd
000001c0: 4ab1 8f3d 739d f13a a7e1 cebf 58a7 f2bf
000001d0: 32b8 d6bf ea1c 823e 1774 17c0 3fb0 8fbe
000001e0: 4a2e 793f a39f d63d f766 1b3d fb6a 47bc
000001f0: 7b22 0a3d fcf4 e8bc 447b 82be 8c3a 7abf
00000200: 30c7 42bf 48b6 03bd 6437 4abc c210 eebb
00000210: 30a7 91bc edc2 babc 5956 05be ac24 25bf
00000220: 7831 0fbf 3c0a b3bd de64 0a40 97a4 8bbf
00000230: 4037 aebf 7cea ea3d ff59 8bbc 83e3 bc3d
00000240: 7d14 bdbc 75e9 e13c 48cd 1ebd a6f0 13bb
00000250: 1683 55bc 5794 01bd 2f36 6d3d 2923 94bc
00000260: 490e 2fbd 0d0e f03b 8f90 c3bc e2e1 813c
00000270: 401c 13bd 58d4 97bc 3f5a 10bd 14cf b8be
00000280: c799 dcbf 3832 febf 3702 953b ca85 ee3b
00000290: d4a1 13be f263 28bd 3d92 b33b 2b0c 843c
000002a0: a468 d5bd 86a7 373d 12db 333c ca82 983d
000002b0: 87ec 753d e647 26bc 47c5 163f 6033 92bd
000002c0: 775b 5bbf 8243 93bc a651 783f 487d a2bd
000002d0: 2e4b b1bc 2131 e53c 8d9f 11bc 5575 1dbe
000002e0: b73c 353e 18ab a0bc bd4f e6bc 8809 b1bc
000002f0: 2afd f7bc 8180 223f ab9e e53d 9024 e93e
00000300: 291d 0d3d d652 4e3c f7d9 b3bd 7124 25bf
00000310: b4f0 3fbe 7b33 6dbe 14a2 e7bc 35cd ecbb
00000320: 0ea9 0a39 8d44 333f a178 163e 639e 9cbc
00000330: e834 963d cf32 193d 7282 943c 1eb5 503b
00000340: 826a 41be c05c 81bd 9006 59bf 6ffb a6bf
00000350: e650 8dbf 59d0 4fbd bb86 4a3c d68a 93bd
00000360: e96a 9aba f71e 6540 9723 4040 ad3f d33c
00000370: b233 e8bc 77bf 6fbc dac0 2bbd 00a9 863b
00000380: 66a1 35bd 56cb 46bd 28a2 67bc 9227 30bc
00000390: 49dd 553f bb60 06be f0b5 8c3f cd24 9c3f
000003a0: 1a1d 7dbf cf59 d4bf 8bd8 b23c 4315 64be
000003b0: e949 8fbc 87c0 533e 63b2 fc3e 088c 05be
000003c0: 4ae3 e2bd e6ca f4bb e4b9 fbbb 92d0 f33b
000003d0: cb4d 1dbd ab08 4b3c d00e 173d 1d3d 18bd
000003e0: db64 1bbb 8172 3a3d 026f 9f3c 4b18 f7bd
000003f0: e250 073e 230f 713f 461c 083f 52e4 bfbc
